processing/models/weights/idiab_2_idiab/retain/RETAIN_ATL_idiab2.pt (torch_old, 831535 bytes, 13 tensors)

embeddings.weight f4 [64, 3]
00000000: 6c55 d33d 09bf 3e3d 8373 3ebf 71b2 9d3e
00000010: 8b67 093f 714d 99be 97a3 833c 547e 6dbe
00000020: 39a8 2bbf 935a 33bd d9c7 183f b525 87be
00000030: 42f8 9dbe deb6 e1be e944 ffbe a42e 35be
00000040: 25d2 c3be 566d 36bf 6fba a0be 9873 a13e
00000050: 16e2 14be fa2e 88bc 97e7 733f 7eaa 1b3f
00000060: e63b 19be 850d 11bf 9c97 a93d 78ba c63d
00000070: 1991 2cbf ea40 983e 7f9e 7ebd d30e 0a3f
00000080: 2fe4 46be adef 1bbc 38da 43bf d2cb 07bf
00000090: 8e8d 783e 21a8 dfbe 93fb ae3e e67e c6be
000000a0: 2272 80be df52 a63e 9b53 453b 015d 08bf
000000b0: 6d27 f33e 4c6e d0bb f283 133f 2fe1 5d3e
000000c0: 1cb2 88be e903 173f 1108 82bb 311e a0be
000000d0: 08e2 b93e c249 853e d589 0d3d 4eaf 2cbf
000000e0: bf13 6ebe 02e6 553e ce0d 9e3e fa44 f0be
000000f0: 6fb5 6ebc e5ac af3e f04a 033f 1de3 45be
00000100: d099 f83b 5c6d d03e 16a2 cabd 0e48 0f3f
00000110: 0c59 203f f19f d1be aea7 723e 8389 f53d
00000120: c4e7 92be 5c07 443e 5a30 9c3e ad4a c7be
00000130: 7417 133d a0f2 36be cede 203e 0bc8 f6be
00000140: 1460 e6be 1867 aabe 5f66 0bbf abd2 f13e
00000150: 2b57 0bbe 4c7b e33e cc08 1d3f 779c 43bd
00000160: 2d72 323f 1235 073f 936b 273e 9974 92bd
00000170: 1c26 073f 47c3 adbe c288 0ebf 7745 5b3d
00000180: 830e e9bd e8d8 4e3e dcd3 7bbe c191 4a3c
00000190: 7559 f03e b1ad 4b3f 20b2 5cbd 3f06 6d3d
000001a0: 0456 87be fba8 443e 6ddb f6be b4cd c5be
000001b0: 6a93 9ebe 2934 5bbe ec7d e2bd 0520 44be
000001c0: 9fa3 e1be 99d7 9d3e 4100 573c 76b6 573e
000001d0: 8a90 903d e06a f73e 7f3e 033e 907c 2abf
000001e0: 02d2 b03e b1ac d93c 0c44 ad3d 1f1c 5b3e
000001f0: bf9e f2bd 7603 bd3e 9d73 a43c b020 2b3f
00000200: 2e3a c83e 9906 76be acf8 6bbe 21ac d83e
00000210: ad07 14bc 69dc 173f 760a 363f b526 9b3c
00000220: 78c5 87bd f128 233f 0815 e5bc 32ff 89bf
00000230: 2f3c 52be 225a d0be cd59 41be 07fb 1fbc
00000240: 1428 cd3a 86b1 43bf 158d 10bf 1076 d23e
00000250: 77d2 f43e 58d3 853d bbc8 fcbe 4b8e 063e
00000260: b1cb 283e 71b6 8fbe cc93 0abf 1bc3 853e
00000270: a031 ccbd a458 813e c557 b3bd e27e ffbe
00000280: 74e9 943e dc5e a33e 386c 913e d89d 00bf
00000290: 448e 763e f288 92be c4cc a13c 8753 cc3d
000002a0: 6e0b 5ebd 3c84 253f cc9f b53e 8ed2 b2be
000002b0: a650 8ebe 8a91 4cbe 5397 36be 1312 57bf
000002c0: e52c 36bf 49fe a6be 1185 ffbe 6e72 fbbb
000002d0: 8fa0 ce3e af9e b3be 0a7c b6bd b4fb fbbb
000002e0: e6f9 d83e 70b0 69be 9b7a 3a3e 9bd1 da3d
000002f0: f016 1b3f bd10 f03e 42fb f9be c82d 1abe
0.10319027 0.046568904 -0.74395007 0.30800202 0.5367362 -0.29941896 0.016069217 -0.23192722
-0.6705356 -0.04378755 0.59679943 -0.26395956 -0.30853468 -0.4408483 -0.49857262 -0.17693573
-0.38246265 -0.71260583 -0.31392238 0.31533504 -0.1453937 -0.016623963 0.95275253 0.60807025
-0.14964256 -0.56661254 0.0828087 0.09703535 -0.674089 0.29737025 -0.062162872 0.5392887
-0.19422983 -0.009517592 -0.7650485 -0.5304538 0.24272749 -0.4368296 0.3417631 -0.3876869
-0.25087076 0.324851 0.0030109647 -0.5326691 0.47491017 -0.0063608047 0.5762321 0.21667932
-0.26698387 0.5899034 -0.0039682467 -0.31273034 0.3630526 0.26032835 0.034555275 -0.67454994
-0.2324972 0.20888522 0.30869907 -0.46927625 -0.014569624 0.34311596 0.5128622 -0.19324918
0.0075866953 0.40708435 -0.09894197 0.5596932 0.62635875 -0.40942338 0.23696777 0.11989119
-0.28692448 0.19143432 0.3050564 -0.3892416 0.03591104 -0.17865992 0.15709993 -0.48199496
-0.44995177 -0.3328178 -0.5445308 0.4723104 -0.1360747 0.44430006 0.6134155 -0.04775664
0.6970547 0.52815354 0.1634963 -0.071511455 0.52792525 -0.33938047 -0.55677426 0.053533044
-0.11379721 0.2019993 -0.24592537 0.012363852 0.4694325 0.7956191 -0.05388081 0.057867285
-0.26432812 0.19205086 -0.48214284 -0.38633502 -0.30971843 -0.21406616 -0.11059174 -0.1915284
-0.44070145 0.3082855 0.013122619 0.21065697 0.07058819 0.48323727 0.12816809 -0.6659632
0.34535223 0.026571603 0.084602445 0.21397446 -0.11846685 0.36916703 0.02007466 0.6684675
0.39106888 -0.24025954 -0.2304408 0.42318824 -0.009035033 0.59320694 0.7110971 0.018939355
-0.06629461 0.63734347 -0.02796413 -1.0781004 -0.2053077 -0.40693766 -0.18881913 -0.009764439
0.0015652203 -0.76442754 -0.56465274 0.411057 0.47816822 0.06534451 -0.49371895 0.13140218
0.16483952 -0.2806888 -0.5413177 0.26125416 -0.09970403 0.2526294 -0.08756975 -0.4990149
0.2908436 0.3190831 0.28402877 -0.5024085 0.24077708 -0.28620106 0.01975096 0.09976869
-0.05421012 0.646549 0.35473478 -0.34926265 -0.27795905 -0.19977394 -0.17831163 -0.84011954
-0.71162254 -0.3261588 -0.4990621 -0.007673553 0.4035687 -0.35082003 -0.08910377 -0.0076899175
0.42378157 -0.22821212 0.18210833 0.1068451 0.60581875 0.4688777 -0.48824507 -0.15056527

rnn_alpha.weight_ih_l0 f4 [512, 64]
00000000: 26b9 243d 3ada 08be e782 673c e569 4d3c
00000010: b76c 053e a822 163e 4c58 6ebd 0b26 75bd
00000020: f08d f63d 8c53 563d c7a2 a63c b4b5 1f3e
00000030: 0615 e2bc f0cc 403c 32dc 0c3e d1ef bbbd
00000040: 7d9e 8dbd 8c21 923d 3843 e43d 9943 81bd
00000050: 2e9d bfbd c568 da3c fcb0 8bbd 461a 5ebd
00000060: 5b14 9a3c acd0 513d 80e5 96bd 7466 5b3d
00000070: aaba 39bc c0dd 4dbd 2ef5 37bd 377d 6c3d
00000080: 0693 723d 6b25 d7bd 3532 4a3d fc68 41bd
00000090: dd33 d13c 38c2 4e3a 9332 81bc 3caf 85bd
000000a0: 575c 7fbc 9884 a23c e48b 05be 7ace f03d
000000b0: b8e8 47bd 7df9 f5bc 5580 413e 8933 c03b
000000c0: 4cd4 1e3e 0ef3 e5bb 119d 5a3d 4d0a 023e
000000d0: 0b62 81bd 1852 5d3c a4aa 19bd ec83 dc3d
000000e0: 1f29 6e3b f602 39bc 3263 1a3d 733a 873d
000000f0: 383f 20bd e307 dcbd 2c87 64bd 156f 003d
00000100: f157 8fbd d3d1 efbc 1b0e f83c 8b87 01bb
00000110: 9170 153d 2e86 14bd 3248 23bc d09b 85bd
00000120: af56 163e 2a93 a43a 7766 09bc b9b4 e73d
00000130: 2871 6a3c 9e5c 793d 492a 833c f58c a8bd
00000140: 9735 83bd fc68 cfbc f546 9d3d 61ba 00be
00000150: bd95 fbbd b0c9 943d 36be a0bc 10ba b53d
00000160: 8558 633d c919 5dbd 027c 9b3d 31f9 d73d
00000170: 3b2a 293d a57c f0bd 6974 333d 5ca9 ef3d
00000180: 0dd5 10bd c0dc adbc b040 ecbb d651 20bd
00000190: d876 0a3d 3dd2 26bd fd60 afbc ae5d 93bd
000001a0: 56a2 b1bc ad43 283d 195e 62bd b109 fc3d
000001b0: 4d89 03be 19a8 0e3d 313c 863d 61de d43d
000001c0: e882 de3c 31cd e83c e711 363d 5dd2 f03c
000001d0: 494c 423d 8c39 543d 7934 c3bd 24c1 143d
000001e0: 32e2 bcbd 96c9 073c 848d 8c3c c575 103d
000001f0: b30c 353c 151d d7bd 306b d43c 22bf c4bd
00000200: 9443 a83d 79ca c43d 3f1e 313d cc20 f6ba
00000210: 6073 8bbd 6595 aa3c 8bd1 3f3d c968 093d
00000220: 0509 16be f806 bcbd 9f05 13bc e2a7 1f3c
00000230: a80b 20bd 7883 46bc 5515 f8bd 5bd9 1f3d
00000240: abab 3f3d c17c 3a3d d8fb 69bc 6c7a 253c
00000250: a2c3 383d 957a e4bc 5507 5cbd 0b18 183d
00000260: b235 893c e528 483c 76a2 5bbd b183 15be
00000270: 8d25 ce3c 29f9 cb3d 8026 ad3d d736 21be
00000280: 6671 783c b581 cbbc 065a ba3b cf4f a13c
00000290: 5ef6 983b 4402 60bd 34bc e13d a06d 4cbc
000002a0: c2f4 3d3d 2233 b3bc 4008 d93d 8af6 36bd
000002b0: 4bcf 8cbc 792e 47bd 25f1 f5bd 8c87 02be
000002c0: c4ef e4bd f151 f13d e6ac 02bd cd33 2ebe
000002d0: 2adc 9dbd 3cdb 53bd 1ebf ef3c cca9 dfbc
000002e0: 3cd4 d83c ca63 08be 30a9 2ebd 7b53 17be
000002f0: 28b5 11bd 0ac2 c2bb aabf 28bd 9e20 31bd
00000300: 80f5 e7bd 02d6 023d d81c c0bd 9e9c 06bc
00000310: 79f9 98bd 4cf9 a5bc 0b2f e23c c597 a8bc
00000320: 17d1 c1bd 5f6f d53d b0f3 c4bd 4b3d c2bd
00000330: 847a c33d 169a 10bd 1519 243d 500b 803d
00000340: b179 80bd d2fb 743b 3283 983c c03a 98bd
00000350: b307 953c 394a 3fbd 22cc 8b3d 4385 dbbc
00000360: 5d3d 6fbd 92bc b3bd 8fc4 e9bc 295a 8bbd
00000370: e5cd ef3d 4443 41bc 8a1c be3d 567a d13c
00000380: 8721 bcbd 3f5e 2a3e 42db 2cbe a76b ebbd
00000390: 45e0 b2bc 11e1 98bb b197 813d 7865 a1bc
000003a0: 1b10 1a3d b1a3 4d3d 74b4 92ba cc5f 9ebd
000003b0: dfd8 1f3d 6d4f fb3d a85c aabd 3e1e f5bc
000003c0: 73f0 78bc 50ce e03c 3cb2 4b3d 166d b43b
000003d0: 2a1a 763d 7c1b fb3c df4f 953d 745a 97bd
000003e0: ab4a b03d 62f5 31bd e24d 17bd d782 ddbc
000003f0: ba27 583d 0d80 f3bc 7924 de3d 6034 9ebd
0.040215634 -0.13364497 0.014130331 0.012537454 0.13029753 0.14661658 -0.058189675 -0.059850734
0.12038791 0.05232577 0.02034129 0.15596658 -0.027597915 0.011767611 0.13755873 -0.09176601
-0.06914995 0.07135305 0.111456335 -0.06311721 -0.093561515 0.026661286 -0.068208665 -0.054224275
0.018808534 0.051224396 -0.073679924 0.053564504 -0.011336008 -0.050260305 -0.044911556 0.0577366
0.059222244 -0.10505184 0.049364287 -0.04721926 0.025537426 0.0007887217 -0.015771186 -0.06527564
-0.01558598 0.019838616 -0.13041645 0.11758132 -0.048805922 -0.030026192 0.18896611 0.0058655185
0.15510672 -0.0070175 0.053372446 0.12699242 -0.06317528 0.013508342 -0.03751625 0.107673496
0.0036340428 -0.01129221 0.037692256 0.06602945 -0.03912279 -0.10743692 -0.055792972 0.031355936
-0.06999195 -0.029274857 0.030280164 -0.0019764628 0.036484305 -0.036260776 -0.009965943 -0.065238595
0.14681505 0.0012556065 -0.008386246 0.11313767 0.014309205 0.060879342 0.016011374 -0.082300104
-0.06406706 -0.025318615 0.076795496 -0.12571098 -0.1228442 0.07265031 -0.01962195 0.08873379
0.05550434 -0.05397967 0.07592012 0.10545576 0.04130004 -0.11742524 0.04381219 0.117022246
-0.03535943 -0.021223426 -0.00720986 -0.039140545 0.033804744 -0.040727843 -0.021408552 -0.07195602
-0.021683853 0.041080166 -0.05526552 0.12306536 -0.12845345 0.03482828 0.06554449 0.10393978
0.02716203 0.028418155 0.044450667 0.029397184 0.047436032 0.051812693 -0.09531493 0.036317006
-0.09222831 0.008287808 0.017157324 0.035268564 0.011050391 -0.10503594 0.025930017 -0.09606768
0.082160145 0.09608931 0.043241736 -0.0018778085 -0.068091154 0.02082319 0.046830695 0.033547197
-0.14651878 -0.09181017 -0.008973508 0.009744616 -0.039073616 -0.0121163055 -0.12113444 0.039025646
0.046794575 0.04552913 -0.014281236 0.010099988 0.045108445 -0.027890483 -0.05371793 0.037132304
0.016749237 0.012216781 -0.05362173 -0.14601018 0.02516439 0.09959633 0.08454609 -0.15743576
0.015163755 -0.024842123 0.005687001 0.019691376 0.004668041 -0.05468966 0.11022225 -0.0124773085
0.046375997 -0.021874968 0.10597277 -0.04466871 -0.017188689 -0.048628304 -0.12008885 -0.1274702
-0.11178544 0.11783207 -0.03190317 -0.17011948 -0.077080086 -0.05172275 0.029265936 -0.027302645
0.026468389 -0.13319317 -0.04264182 -0.14777939 -0.035573155 -0.0059435414 -0.04119841 -0.043243997
-0.11326122 0.031942375 -0.093805015 -0.008216051 -0.07469458 -0.020260476 0.027610322 -0.020580182
-0.09463709 0.10421633 -0.09616792 -0.09484347 0.095448524 -0.035303198 0.040062983 0.06252158
-0.06273211 0.0037381542 0.018617246 -0.07433081 0.018192148 -0.046701644 0.068260446 -0.026796943
-0.05840813 -0.08776201 -0.02853611 -0.06804306 0.11709193 -0.0117958225 0.09282787 0.02557103
-0.09186082 0.16637515 -0.16880515 -0.114951424 -0.021835456 -0.004665502 0.06327761 -0.019701704
0.037613016 0.050204936 -0.0011192695 -0.077331156 0.039025184 0.12271009 -0.08318454 -0.029921647
-0.015194046 0.027442127 0.049730524 0.005506168 0.060083546 0.030652754 0.07290625 -0.073902994
0.08607992 -0.043446906 -0.03693951 -0.027039928 0.05277226 -0.029724145 0.108468 -0.077248335

rnn_alpha.weight_hh_l0 f4 [512, 128]
00000000: 1228 51be be7a b6bd 207c 223e 5820 d7bd
00000010: 6225 53bc c580 c9bd 770d b6bd c180 1cbc
00000020: 7b9b 12bd 3ac2 913d 2d98 003e 9fb1 9bbd
00000030: a44c 253e 05a4 343e 9198 49be c542 4bbd
00000040: de76 943c d971 52bd 72b1 c43d d7b8 0f3e
00000050: 6eb2 473d 291b 8cbd 8656 213e e6b3 89bd
00000060: c3ab d1bd b31f 2a3d a8cd d9bd 7571 38be
00000070: dee8 b6bd 2f28 1d3d 6272 043e 5684 2c3d
00000080: 4e81 ab3c c484 ecbd 25b9 a43d 1c82 cfba
00000090: f12e 4f3d 37e1 403d 0cca 2cbe 6c42 2dbe
000000a0: 0f5d 213e f791 2abe 9b48 b63d 6a7c 48be
000000b0: bb4f a83d 6e28 c9bd 7188 f13d 7da5 7a3d
000000c0: bd57 a3bd 3d5e 2bbe 50b4 4cbd 42c6 c9bc
000000d0: 533e 953e 14b4 b2bd f5da 2c3e 5f23 163d
000000e0: ebc9 adbe 73f4 a6bb a36e 093e ba70 4e3c
000000f0: 0f45 b4bd c40d 95bd d94c 813d 730f b03d
00000100: 23e8 aabc e538 0dbe 05ea 4f3c 8cc0 e0be
00000110: 8dff 403d 97d8 a3bc db67 30be 8266 073e
00000120: e9bf 0cbb 1179 47be 0f59 4f3d 31a7 49bd
00000130: 4d97 d93d 56d9 aa3d 2517 8abb cc00 463d
00000140: e975 093c 389b 393e b807 f33d 293a 013e
00000150: 9699 0dbe a09f 4abd 0c53 75bc bd09 1a3d
00000160: 7373 173e 8d93 033e 1106 043e 5d5f 123d
00000170: 84e8 143b efbf cd3d 825e 5abe 40c7 e63c
00000180: 06dc 04be 83eb 43bc 087f bdbc 6cec 383e
00000190: 9975 a13d 73bf 30bb d2bf fdbc abb5 5b3c
000001a0: 5751 93bd cd65 fbbd 7f82 9ebd 7517 853d
000001b0: c810 e43d 5ece 0c3d cc73 123e eede 55be
000001c0: c575 173d e511 47be 07ce 32be 9a6e 7cbe
000001d0: 147d 993d 3e5e be3d 408c 39be 9881 40bd
000001e0: 09c5 84bd 4032 e33c c668 003a 5f09 96bc
000001f0: 0124 123d fa5f 1d3d 624e dfbd be9a 1e3e
00000200: d206 063e 61bf fd3c eae1 c53c 88da 073d
00000210: 9f50 6cbd b634 eb3d 7fc8 e43d 00ab 743b
00000220: 5518 3ebd 8d58 193e 287e 1dba 6efe 7ebc
00000230: 06e6 11bd 828e dfbd 9e9a 6d3c 9389 20bc
00000240: 9d56 08bc e5a8 8b3d d746 74bd a516 9cbd
00000250: ed9f 94bc 1aee 493d 5d3e d5bd 06fa cd3d
00000260: 56cf 1e3e 7ba0 a5bd 75fd f4bc e1c3 b23d
00000270: 0e84 1c3e b4b5 e13c 102f 4fbd 05fc bb3d
00000280: e6dc 99bd 4892 f4bc 42e8 9e3a 42e4 8a3c
00000290: a767 bebd 9fd3 f9bd 2845 05bb f7f0 81bd
000002a0: a9c4 0e3d 8a7a 2d3c 7904 7abd 72ed 1c3d
000002b0: 4254 773c add7 ba3d bf4b 84bd e8f0 f6bd
000002c0: c5e0 123e 1818 083e f4f8 693c 4e90 91bd
000002d0: 807c ebbd c7b4 a43d 4ac9 17bc 6aef 3f3d
000002e0: bb17 303e 9df7 0abd 6b85 003d 3614 e63d
000002f0: 002a 6abd 41b2 6dbd 15ff 8cbd 124b b73d
00000300: b06c 063d 88bc 00bd 1f29 d43c f875 4e3e
00000310: 5aa2 6ebd bb88 ee3d 3600 16bd ba19 7dbd
00000320: ebbe d43d 8e09 803c edad 07bd f9c9 01bc
00000330: 87c2 0ebe 2cf6 0bbe d3c4 0abd 8713 e6bd
00000340: acbf 88bd 6f54 bebd d4b4 e23c b1d0 d2bb
00000350: 5074 033e c6fb c23c 389e df3d ff91 34be
00000360: 47e1 f3bc 3b31 aabd 2661 a2bd 8f15 9dbd
00000370: 171b fabc e2b6 36bd 887f 213b eb7c 09bd
00000380: 77f4 473d 726e 3d3d 510d 6dbd 3fdb c23c
00000390: 2c7e 62bd 41b5 913d f68e babc 1eab 2ebd
000003a0: 0b84 9b3c 083a 5a3d b491 5d3b c03b 0ebe
000003b0: d23a 24bc 9754 0e3d 8221 1abd 2039 083e
000003c0: 04f0 a83d 6e2c dd3d 9c33 253e 7e2f e33d
000003d0: 3487 aabd c353 10bb 04a8 0d3e e11f 98bd
000003e0: b16c e83d 7627 7bbd e369 cbbb 29a7 9e3c
000003f0: cf2b b43b a2de 8ebd 84b3 34bd e8e6 fb3b
-0.20425442 -0.0891013 0.15867662 -0.10504216 -0.012887331 -0.09839014 -0.08889287 -0.009552182
-0.03579281 0.07117124 0.1255805 -0.07602238 0.16142517 0.17640693 -0.19687106 -0.049624223
0.018123087 -0.051378105 0.096041575 0.14035355 0.04875415 -0.06841118 0.15755662 -0.06723766
-0.10237839 0.041534137 -0.10634929 -0.1801203 -0.08931135 0.0383684 0.12934259 0.042118393
0.02093568 -0.115487605 0.08043126 -0.0015831622 0.050581876 0.04708978 -0.1687395 -0.16919869
0.15758155 -0.16657244 0.08900567 -0.1957871 0.082183324 -0.098221645 0.11793602 0.06119298
-0.07975719 -0.16735168 -0.049976647 -0.02463067 0.29149112 -0.087257534 0.168804 0.036654826
-0.33943114 -0.0050950586 0.13421111 0.012600118 -0.088022344 -0.07278016 0.06313486 0.08596697
-0.020862645 -0.13791235 0.012690072 -0.43896902 0.047118712 -0.020000739 -0.17227118 0.13222697
-0.0021476692 -0.19479777 0.050622042 -0.04923171 0.106245615 0.08342235 -0.004214185 0.048340604
0.008389928 0.18125618 0.118667066 0.12619843 -0.1382812 -0.049468637 -0.014973413 0.037606943
0.14790134 0.12849255 0.12892939 0.035735477 0.0022721598 0.10046374 -0.21325114 0.028171182
-0.12974557 -0.011958006 -0.023131862 0.18058938 0.07883758 -0.0026969581 -0.030975256 0.013410012
-0.07193249 -0.12275276 -0.07739734 0.06498615 0.11136013 0.034376495 0.14301986 -0.20885822
0.03697755 -0.1944042 -0.17461406 -0.24651566 0.0749456 0.09295319 -0.18119907 -0.04699859
-0.06482894 0.027733922 0.0004898425 -0.018315015 0.035678867 0.03842161 -0.10903622 0.15488717
0.13088539 0.030975046 0.024155576 0.033167392 -0.057694074 0.11484663 0.11171054 0.003733337
-0.046409924 0.14975186 -0.00060078735 -0.01556359 -0.035619758 -0.10915853 0.014502196 -0.009798425
-0.008321431 0.068193235 -0.05963787 -0.076215066 -0.018142665 0.049299337 -0.104122855 0.10057454
0.1550878 -0.0808725 -0.029906014 0.08728767 0.1528475 0.027552463 -0.05058199 0.09178928
-0.07512836 -0.029854909 0.0012123662 0.016954545 -0.09297114 -0.12198567 -0.002033541 -0.063447885
0.03485552 0.010588298 -0.06103942 0.038312383 0.015095772 0.09123168 -0.0645976 -0.12057668
0.14343555 0.13290441 0.014280546 -0.07107602 -0.11498356 0.08042293 -0.0092643 0.046859182
0.17196552 -0.03392755 0.031377237 0.11234324 -0.05716896 -0.058031324 -0.068845905 0.089498654
0.032818496 -0.031429797 0.025898514 0.20162189 -0.0582603 0.11647173 -0.036621295 -0.061792113
0.10387977 0.015629556 -0.033124853 -0.007921689 -0.13941394 -0.13668126 -0.033879112 -0.11234193
-0.066771835 -0.09293448 0.027674116 -0.0064335694 0.12837338 0.023801696 0.1091885 -0.17633818
-0.029770507 -0.08310171 -0.07928686 -0.076701276 -0.030530496 -0.044608004 0.0024642665 -0.033566397
0.048817124 0.046247907 -0.057874028 0.023786185 -0.055296108 0.071146496 -0.022773247 -0.04264366
0.018983861 0.053278 0.003380877 -0.1388998 -0.0100237895 0.03474864 -0.03762961 0.13303041
0.08248904 0.1079949 0.16132969 0.11093043 -0.08326569 -0.0022022582 0.13833624 -0.074279554
0.11348856 -0.06131693 -0.006207691 0.019366818 0.0054983865 -0.069760576 -0.044116512 0.0076874383

rnn_alpha.bias_ih_l0 f4 [512]
00000000: b297 093e 0e78 3ebc f5bf 14be 0908 bfbc
00000010: d85d 86bd 3290 013e 2eaa 0abe a0d1 3dbd
00000020: 096f 013b 2f66 4f3c 1b91 d1ba 73a7 14bd
00000030: 153d 85bd f7f2 c7bc f3d6 acbd b701 b6bd
00000040: 6439 d1bc 43d1 cebd 4cb5 253d cb1a b7bd
00000050: 71ea 483d 1e30 cebd d790 04bd b3a7 4bbe
00000060: f528 bebd c877 143d 5d7c 67bd a51f 8abd
00000070: 019d ecbd 248c b73c 7952 90ba 1120 15bd
00000080: e6c4 1abe 0a52 18be 2ec9 37bd b6eb ebbd
00000090: 8818 edbd 7bd1 27bc e295 473d 6586 803d
000000a0: 3d8e 483d 932e 25bd de8d 25be a4d3 20be
000000b0: b130 08bd 4300 31bd bbff 4dbd dc80 f3bd
000000c0: 0ed7 60bd c417 4bbd 35ef 9c3d 5580 0c3a
000000d0: ca1e 5bbc 95ca 9bbc 3fee 50bd 0c2c 8cbd
000000e0: ff66 18bc f119 2b3d 5779 363d 7027 543d
000000f0: 3e7f 75bd 68c0 12bc b811 8c3b 06cd d3bd
00000100: 762d 84bd 7425 22bd ef89 583c 8e2d a83d
00000110: 8809 65bd e4a7 eebc d976 223c 9497 1bbe
00000120: 1f44 15be c103 6dbd 4151 9ebd 52a9 d9bd
00000130: 35f4 e7bd a9c8 f6bd c818 a93c 594b 203c
00000140: df6e ca3c 5dd0 e7bd ae2c 1c3d a5aa 87bc
00000150: 99ff a9bd ec88 cebd f523 af3d 4997 e6bc
00000160: 1526 42be 7665 d93c 6985 a8bd 88fd ccbc
00000170: e926 dabd baa2 933d 7905 5bbd d3e3 da3c
00000180: f844 3c3d d886 54bd 7ab6 f7bd ec94 a3ba
00000190: c2f5 04bc 22f3 65be 1c77 48bd 363c a0bd
000001a0: 1a10 163d 796d 8cbd 7cf8 b6bd 6d2f 1b3d
000001b0: b103 02be e26d 25bd 2d2a adbd bb01 10be
000001c0: 27d8 c7bc 5354 e4bd 2221 e9bd 3c99 99bd
000001d0: ac46 fdbd 7799 87bd 6097 a4bd 92ae 98bd
000001e0: 7cc6 babd 5eff a0bd 0054 823c a7e5 10be
000001f0: 82f4 05bd 2a88 59bc 2eeb e0bd 11c3 bf3c
00000200: fcef 303d a0e5 f2bb dba0 bd3d df77 893d
00000210: b2cd 8fbd ad47 4a3e c909 f93d 1237 4d3c
00000220: 4970 e2bc 66bd a13d 1353 09bd 4582 a73c
00000230: b9dc 7dbd d67b 063d c520 523b 5648 9c3d
00000240: c051 853d 5fef 203d 066a ef3b 0c3e 9a3d
00000250: 8870 d33d 47a9 fdbc 9441 303e c548 0c3d
00000260: 25c8 043d add6 0b3e cb62 cbbc a80c 5c3d
00000270: 2414 9e3d 0a8a 333e 9c7c bfbc 6ac6 6b3c
00000280: 26be 78ba 8b76 9f3c f91d 073e 6639 6bbd
00000290: 60d7 0b3e 4ac4 3cbd a218 d83d 2c02 c13c
000002a0: 304c 573d 909f a53d d194 aa3c 5548 903d
000002b0: cf71 abbc fac6 ba3a 0342 d23b 87a6 ac3b
000002c0: e983 d83c 3c9d 033d c204 5a3d 5830 503b
000002d0: b735 7e3d af96 213b f80c 73bc 2ef3 2cbd
000002e0: b27e de3d 4ab7 843d fe23 22bc cd4f d93d
000002f0: 1bb4 c5bc f98e 4a3d e7e2 ddbc f525 703c
00000300: 4ac2 353d b720 9dbd 755f c53d 7fc8 023e
00000310: b71b 47bd 186f 763c f6a6 fbbb c5bc cf3d
00000320: f9bf b53c 1069 b1bc d54e 88bc 5337 893d
00000330: 56e8 eb3d fb44 2b3e ba1b 65bc 0e82 583d
00000340: d1dd 343e 202f 1b3e 984f c0b8 fa71 70bc
00000350: 2b18 bfbc 4be4 033e 9269 8fbd 84c7 333c
00000360: cf19 a4bd 2fd3 1d3e 5688 0abd 7aa3 973d
00000370: cb58 a6bc 4a84 d9bd 6b0c dd3d 14eb 84bc
00000380: a08c c53c d85d d63d 1be9 393a 0584 4fbd
00000390: 9ee3 82bd 7109 a63d 5513 593c 833a 553d
000003a0: 2d37 593d 80a0 75bc 061d 94bd eb81 653d
000003b0: 841e d73d 1923 85bd 141e aebc 1992 213c
000003c0: c0c1 9a3d bfa5 533d ea31 20bc 470d 443e
000003d0: 72d4 563d f7b6 8d3d c309 3d3c 61eb a43d
000003e0: 74e5 a23c 70b0 9fbd 32b8 f238 5923 94bb
000003f0: 80ae a43c 9d60 1e3d a47a bf3b c714 a23d
0.13436773 -0.011625303 -0.14526351 -0.023319261 -0.06560868 0.12652662 -0.13541481 -0.046342492
0.001975002 0.01265864 -0.0015988679 -0.036292505 -0.06505791 -0.024407847 -0.08439436 -0.08887046
-0.025540061 -0.10098507 0.0404561 -0.08940657 0.049051706 -0.100677714 -0.032364693 -0.19888191
-0.09285156 0.036247045 -0.056515086 -0.06744317 -0.115533836 0.022405691 -0.0011010907 -0.036407534
-0.15114173 -0.14875045 -0.044869594 -0.11519568 -0.115769446 -0.010242815 0.048726924 0.06275634
0.048963774 -0.04032762 -0.161674 -0.15705734 -0.03324956 -0.04321314 -0.05029271 -0.11889812
-0.054892592 -0.04958321 0.076628126 0.0005359699 -0.01337404 -0.019017497 -0.05100846 -0.06844339
-0.0093019 0.041772787 0.044549312 0.051795423 -0.0599358 -0.008957006 0.004274573 -0.103418395
-0.064539835 -0.0395865 0.01321648 0.08211814 -0.055917293 -0.02913279 0.009916031 -0.15194541
-0.14576767 -0.057864908 -0.07730342 -0.106279984 -0.11325876 -0.12049992 0.0206417 0.009783589
0.02471107 -0.11319039 0.038128547 -0.016560862 -0.083007045 -0.100847095 0.0855178 -0.02814831
-0.1895984 0.026537638 -0.08228571 -0.025023237 -0.10651953 0.07208772 -0.053472016 0.026719963
0.04596421 -0.05188641 -0.120953515 -0.0012480295 -0.008115234 -0.22456029 -0.048941717 -0.07823984
0.03663645 -0.06856818 -0.089341134 0.037887026 -0.1269672 -0.040387996 -0.0845531 -0.1406316
-0.024395062 -0.11148896 -0.11383273 -0.0749993 -0.12366995 -0.06621068 -0.08036685 -0.07455172
-0.09119889 -0.078612074 0.015909195 -0.14150105 -0.032703884 -0.013277093 -0.10982357 0.023408445
0.043197617 -0.0074126273 0.09259196 0.06712317 -0.07021655 0.19753905 0.121600695 0.012525337
-0.027641432 0.07897453 -0.03352649 0.02044786 -0.061978076 0.032832943 0.003206299 0.076309845
0.06509733 0.039290782 0.00730634 0.07531366 0.10324198 -0.030964507 0.17212516 0.034249086
0.032417435 0.13656111 -0.024827382 0.053723007 0.07718685 0.17533126 -0.023374848 0.014390567
-0.00094887835 0.019465705 0.13195027 -0.057427786 0.13656378 -0.046085633 0.10551573 0.023560606
0.052562892 0.08087075 0.020822914 0.07045046 -0.020928292 0.0014249973 0.0064165606 0.005268875
0.026430087 0.032132372 0.053227194 0.0031767096 0.062062945 0.0024656465 -0.014834635 -0.0422241
0.10864009 0.06480272 -0.0098962765 0.10610924 -0.024133733 0.049452756 -0.027085735 0.014657487
0.04437474 -0.076722555 0.096373476 0.12771796 -0.048610415 0.015041135 -0.0076798154 0.10143427
0.022186266 -0.021656543 -0.016639153 0.067000054 0.11518924 0.16725533 -0.013983661 0.052858405
0.17662741 0.15154696 -9.170099e-05 -0.014675612 -0.023326954 0.12880056 -0.07002558 0.010972861
-0.08012735 0.15412591 -0.033821426 0.074042276 -0.020306012 -0.10620935 0.10793384 -0.016225375
0.024114907 0.10467118 0.00070919254 -0.050663013 -0.06391071 0.081072696 0.013249238 0.052057754
0.053031135 -0.014991879 -0.07232098 0.056032103 0.10503867 -0.06500835 -0.021254577 0.009861493
0.07556486 0.05167174 -0.009777525 0.1914569 0.052448697 0.069196634 0.011537972 0.080527075
0.019884802 -0.07797325 0.00011573768 -0.0045208153 0.02010274 0.038666356 0.0058434773 0.07914119

rnn_alpha.bias_hh_l0 f4 [512]
00000000: 50d3 b43d 54c5 c1bd ccb6 59bd 10c8 ecbc
00000010: cae8 2ebe fd76 073e 2488 c0bc 3867 0bbd
00000020: 1bcc 43bd 4175 093d f683 81bd e34f dbbd
00000030: 2cad 88bd a694 c63c c711 1ebc 4c34 a7bd
00000040: f904 523d b406 07be b584 4bbc 8d31 31be
00000050: 0b9d 9fba 3f3e 0bbe ef49 97bd 89d5 06be
00000060: 94d1 cdbc 57ed 69bd cd7a d8bc 09e9 1abe
00000070: 2124 c6bd bf5b 3abd bcf2 2ebb 0a26 c9bc
00000080: 2988 c5bd 2c88 1bbe 4258 0c3d 7363 1fbe
00000090: e183 d3bd 9269 babd 807c bebd 86aa ae3d
000000a0: 3144 a0bb 164b 36bd 0384 15be c441 07be
000000b0: 54d4 fabd d263 d0bd e2c8 0fbe ba92 29be
000000c0: 1870 47bd d15b 2dbe 94b8 703b 249f 5ebc
000000d0: a07a 9c3c d275 76bd 9271 e8bd 00e9 e5bd
000000e0: 0160 02be 2a37 1cbd 6b98 cc3d 4559 b0bd
000000f0: 545c 1b3d 0263 e7bd 05e1 c2bc 99f5 2fbe
00000100: a8fd 27bd 49f7 0dbe 2f0e 22bd e2fc 8b3d
00000110: 989b 25be e17b 3b3d 1f2c 32bd efd8 c73b
00000120: 7811 70be 6283 a5bc 21f6 b8bc 6c26 063c
00000130: 99a0 8abd 47b0 00be bfb9 a2bd 22b6 0cbd
00000140: b2d0 a13d 7a77 6d3c 6bb4 993d 7b92 fabd
00000150: 22ca f3bc ec7f 0dbe d8f0 803d 022b dabd
00000160: 01a7 e3bd 229a 6bbb 0a5b eebd e6b3 c4bd
00000170: b252 f1bd 141f 9f3c 0aca 80bd bf9a e5bd
00000180: 8cdb 043c 3747 013d 3761 f4bd 239a 09bd
00000190: 343d aebd b5c5 e3bd d5b6 373c 2bf9 f4bc
000001a0: 4bfe 3dbc b5e7 193d 9f09 27bd 4929 b8bd
000001b0: a4c8 40be a58e 03be 54d0 f7bd 60f5 a7bd
000001c0: eadf bebd 4c6e afbd cb2f 2fbc 5b6d 983d
000001d0: 6ec6 1cbe aa06 03bd 2a06 26be 993b 333c
000001e0: 5599 dcbd c5c0 c2bd aecb 4d3d 1b66 86bd
000001f0: 5213 10be 6deb 6dbb f7db 84ba 1d62 f6bc
00000200: 32a6 e53d e61d 9cbd 7a45 b4bc 7f36 d2bc
00000210: 01e3 123d 6d45 1e3e 9df5 b53d f702 063c
00000220: f3dc 7fbc 587a 8c3d 3014 5a3d 0ad4 7d3d
00000230: dffa 54bd 3ab1 583d 474a 893d ab47 8f3d
00000240: a62b c13d 5013 5bbd 7c70 113e 0ee9 643c
00000250: 1d5d 153e 9a38 6bbd 5601 3d3e 6634 31bb
00000260: c6e3 1bbd 93f0 fb3c 19ac 943d 6c23 c93c
00000270: f65e 96ba 4b6a 023e b246 293d 8602 f93d
00000280: c723 0a3e 2481 2abd e3c7 833d 749c c43c
00000290: 63b4 443c 67e8 33bd 8dbc 4a3d 2509 3f3e
000002a0: b0e7 e93d 5592 a63c a01b cc3d 3f90 d33d
000002b0: bc77 4f3c 07ca fe3d fd42 4bbc bcaf 943d
000002c0: 30c5 eabc b8fd de3c 69f2 e53d e80e a73d
000002d0: 0675 db3d 818a 2e3c 5326 cd3d ae96 6cbd
000002e0: 4dd9 0d3e 4968 8e3c 9426 a33c c31e ad3d
000002f0: 476a 133e 4ba5 7d3d 21ee 1ebd dc0b 043d
00000300: 7ae1 fb3c 7f1f ac3d 3e78 0a3e 45c2 3c3e
00000310: f78b d63c d04b 8dbd 1e4f b43d c145 cd3d
00000320: 6b85 15bc cc12 7f3c 625c 443d 8565 3839
00000330: a872 943d 9608 d43d 40f7 1e3d 1705 ec3d
00000340: e0e7 373e c717 313e a802 773d 5c4f 793d
00000350: 83e3 a63d e134 7c3d d54a b6bc 6bb8 0b3d
00000360: 9a51 ecbd da4b be3d 164b f4bc 9215 5cbd
00000370: 0770 12bd 092e 91bd 8f75 e03d 09e0 ecbc
00000380: 6819 413b 4b49 fa3d fb96 3dbd edf4 943d
00000390: 2021 8c3d 39b3 c63d 5950 583d 7dd7 b13d
000003a0: e12a 9e3d 2816 93bc bfca 95bd fcb5 99bb
000003b0: ddc8 9f3d 31c5 2fbb eb55 d13b 95e4 033d
000003c0: ae98 f0bc 99bb 063d 5403 8238 c3a7 cf3d
000003d0: 4d96 0abc 7721 7f3d 212f e73d e870 903d
000003e0: 309d 28bc 695c 88bd 706c 063e d29c a23d
000003f0: d5ee b53c 8dce 013e d0e8 083d b369 743c
0.08829367 -0.094614655 -0.053152844 -0.028903991 -0.1708099 0.13228984 -0.023502417 -0.034033984
-0.047802072 0.033559088 -0.06323998 -0.107085966 -0.06673655 0.024240803 -0.009647793 -0.08164272
0.051274274 -0.13186151 -0.012421777 -0.17304058 -0.001217754 -0.13597964 -0.073871486 -0.13167395
-0.025124349 -0.05711111 -0.026425743 -0.15127958 -0.0967486 -0.045497652 -0.0026694974 -0.024554271
-0.09645111 -0.15188664 0.034263857 -0.1556528 -0.10327888 -0.09102167 -0.0930109 0.085286185
-0.0048909415 -0.0445052 -0.1460114 -0.13208681 -0.122475296 -0.10175289 -0.14041474 -0.16559878
-0.048690885 -0.16929556 0.003673111 -0.013587747 0.01910144 -0.060170956 -0.11349787 -0.11226082
-0.12731935 -0.038138546 0.09990009 -0.08610777 0.037929848 -0.11298181 -0.023788938 -0.17183532
-0.04101339 -0.13863863 -0.039564308 0.06835343 -0.16172636 0.045772437 -0.04349911 0.0060988585
-0.23444164 -0.02020425 -0.0225783 0.008187871 -0.06768913 -0.12567244 -0.079455845 -0.034353383
0.079011336 0.014493817 0.07505115 -0.1223497 -0.02975947 -0.1381833 0.06295937 -0.10652734
-0.11115838 -0.0035950025 -0.11638458 -0.096046254 -0.11783351 0.019423999 -0.06288536 -0.11211156
0.008108985 0.031562056 -0.11932605 -0.03359426 -0.08507767 -0.11121694 0.011213024 -0.029903969
-0.011596273 0.03757449 -0.04078066 -0.089922495 -0.18826538 -0.12847383 -0.12100282 -0.082010984
-0.09320052 -0.08565959 -0.010692547 0.07442733 -0.1531007 -0.031988777 -0.16213289 0.010939502
-0.10771433 -0.09509424 0.050243072 -0.06562444 -0.1406987 -0.0036303655 -0.0010136355 -0.030076081
0.1121334 -0.0762289 -0.022005785 -0.025660751 0.03586102 0.15456171 0.08884738 0.008179418
-0.015616643 0.06859273 0.05324191 0.061969794 -0.05199706 0.05290339 0.067036204 0.069960915
0.094321534 -0.053485215 0.14203066 0.01397158 0.14586301 -0.057427026 0.18457541 -0.0027039289
-0.03805902 0.030754363 0.072593875 0.024553023 -0.0011472392 0.1273586 0.041327186 0.121586844
0.1349021 -0.041627064 0.0643461 0.024000384 0.012005898 -0.043922808 0.049496222 0.18655832
0.11421144 0.020333448 0.099662066 0.10330247 0.012662824 0.124408774 -0.012406108 0.07260081
-0.02865848 0.027220592 0.11227877 0.0815714 0.1071568 0.010653139 0.100170754 -0.057760887
0.13852425 0.017383711 0.019915856 0.08453133 0.1439601 0.061925214 -0.038801316 0.032237872
0.030747164 0.08404445 0.13522431 0.18433483 0.026189787 -0.06899226 0.08804153 0.1002307
-0.009126048 0.015568446 0.047939666 0.00017585426 0.072484314 0.103532 0.038810015 0.11524408
0.17959547 0.17294227 0.060305268 0.0608667 0.08148863 0.061573867 -0.02225248 0.03411142
-0.11539002 0.09291811 -0.02982096 -0.05373151 -0.03575137 -0.07088859 0.109599225 -0.028915422
0.0029464606 0.12221011 -0.046286564 0.072732784 0.068422556 0.09702153 0.052811 0.08683679
0.07723022 -0.0179549 -0.073140614 -0.0046908837 0.078019835 -0.0026820416 0.006388416 0.032200415
-0.029369678 0.03289375 6.199503e-05 0.1013942 -0.008458686 0.062287774 0.11288286 0.07052785
-0.010291383 -0.06658251 0.13127303 0.07940067 0.02220861 0.12676449 0.033425152 0.014917779

rnn_beta.weight_ih_l0 f4 [512, 64]
00000000: 71d5 5abd 8eee 8f3b 28c3 2bbd bbf8 b6bd
00000010: ab3a 39be 278c 3bbe 9e41 aebd 9488 d03c
00000020: 4aca c9bd 3a92 0fba bbbe 76bd 690e 0abe
00000030: c060 1a3e 905e 97bd f75f f7bc 9b0c 7e3d
00000040: 902e 1fbe cf37 473b 212f f7bd e376 15bd
00000050: 115c cf3d b106 cf3c c8ce cf3d 6940 b3bd
00000060: 29b6 d9bc 55bc dcbd 1e31 7ebc 8c5e b0bc
00000070: 111a fabb 68e8 d63d 56dc 173e 04f0 10be
00000080: 58d6 84bd 4cfe a73d 9db2 eabc a245 cb3d
00000090: 58ea 21bc 2661 1fbd 3b32 ba3d 17ef 5d3d
000000a0: 2186 fc3d 6432 b33d 7251 d53d 4445 08bb
000000b0: 4ad2 223e 1530 dd3d 26d0 91bd d7c5 a9bd
000000c0: a452 1dbe 1cc7 af3c f6af eebc ebd6 87bd
000000d0: b359 18be 4b98 72bd c2bf 303e aed7 04be
000000e0: 5edb e23d 7113 04bd 70ad 15bd 2008 15be
000000f0: c6bc b73b 1503 7fbd 43d3 923d 1dff c53d
00000100: 1db7 85bc 18bf d83d bb7a 693d 37be 60bc
00000110: d091 9c3c da32 11bd 0d26 233d a484 d23d
00000120: 08f6 553b 8c7d 5c3c 5b46 173a c7a4 813c
00000130: 0378 e13a 6cbb f3bb 9c5d 93bd 9c28 f639
00000140: 535d 103d a966 8abd ade1 323c 6295 3d3d
00000150: 9993 4a3d 890a 63bd 7cfa c0bb 5788 58ba
00000160: da21 193c 4792 1c3d 3f26 e9bc 9be7 d8bd
00000170: 7bfc 793c 8475 723d 9404 8abc c9bb c4bc
00000180: d0f3 fa3a e935 983d 30a4 f7bc dc62 b13d
00000190: 25ef c3bd 704d 3abd c053 a53d 9ac2 15bd
000001a0: e12d c1bc 5818 1abd f3da 9c3d 50b2 1ebc
000001b0: a7ac ac3d 8ca6 44bc 7e02 e3bd 1a42 5cbd
000001c0: ab1a 153d 6201 893d 715f 2cbd 9d3f f83b
000001d0: 53dd 5abd 509e c1bd 9c3c 78ba 8cad 803d
000001e0: 8c30 c13d e172 d0bc cf1e 39bd 5954 d4ba
000001f0: 3d5d 8e3d fdd9 15bd 551c 5d3d 4c41 483d
00000200: 9a04 febd 17ca cc3c 365a 20bd c304 85bd
00000210: 4560 0abd 2668 b1bd 8c0c a0bd d5c7 4c3d
00000220: c7a5 bebd 4c49 9b3c 4f14 b2bd 5d63 203d
00000230: 72d9 dd3d 930b 6a3d e24f 51bd 8fc1 ab3c
00000240: 99be 9e3d 1762 003d aede 78bd fe50 b43c
00000250: a86a 5e3d 7227 02bd 8273 9f3d 5ee7 04bd
00000260: 4133 d43d 7f89 b4bd 4a5e a5bc af05 883d
00000270: 99be 763c 9066 653d e5fb 183e 7572 b2bd
00000280: 87f4 adbb a969 bbba 54b9 c8bd e7d4 cdbd
00000290: 9502 1bbe 304a 70bd d9ca d7bc 0024 f6bc
000002a0: ef07 1e3e d45c 693d 4749 a13c 16a6 d93c
000002b0: 44e4 153d fd0c 753d 9595 e9bc 68ac 98bd
000002c0: f460 c7bd bb12 ae3d fa9d b03d fc28 903d
000002d0: 61b2 f4bc d9db 31bd 7803 4ebd 3733 62bb
000002e0: 1a5b fbbc 5b27 dabd ef9d 053d db01 8bbd
000002f0: 1b66 5f3d ecb1 5d3c 24c5 ea3d 960d f63c
00000300: af25 9f3d f1bb 203d 2f96 db3d a093 2e3d
00000310: badf aebd 4343 ec3c eb92 d13d c27f 69bd
00000320: a42e afbd 9c15 3abd e935 cdbc 3622 96bd
00000330: 6929 7b3c 770b e4bd b07e dfbd 53e7 c13b
00000340: f893 833b cc82 a3bd a927 fdbd dbbf 833d
00000350: cd70 69bd 68c1 90bd 2812 93bd 905b 5c3d
00000360: 92b9 c2bc a9bc b3bb 9a6a 803d cc2e ecbb
00000370: 25da 52bd 4ec4 a8bd 09dd d5bd f93f b7bd
00000380: 24dd 203c c0ef 6ebd 3719 833d f740 6f3d
00000390: f552 693c 336c 8ebc d39b c23c 8e3e 823d
000003a0: 0e99 5bbd 045b 0cbc a82d ee3d 51e3 a1bd
000003b0: e826 723d 6a81 f9bd 4d8d 4bbd 8e0a 193c
000003c0: 61f7 1b3d 9169 d93c 1e1a 663c add4 dbbd
000003d0: ba00 d8bc 90e0 763d 5ad4 e5bd c5be 3d3d
000003e0: 5d98 4f3d 2664 b0bd b741 b7bd 3a12 e0bd
000003f0: 55fa 303d 4e15 ad3c de11 6f3c 4933 a2bc
-0.05342621 0.0043924516 -0.041934162 -0.0893416 -0.18088786 -0.18315183 -0.08508609 0.02545575
-0.09853037 -0.00054768065 -0.06024049 -0.1348206 0.1507597 -0.07391083 -0.030197127 0.06202374
-0.15545106 0.0030398255 -0.12069536 -0.036490332 0.10124982 0.025271745 0.10146862 -0.0875252
-0.026576119 -0.10778109 -0.01551464 -0.021529458 -0.007632502 0.10493547 0.14830145 -0.14154059
-0.06486195 0.082028 -0.028649623 0.09925391 -0.009882532 -0.038911007 0.09091612 0.054183092
0.123302706 0.087498456 0.10415925 -0.0020793239 0.15900531 0.108001865 -0.07119779 -0.08289688
-0.15363556 0.021457247 -0.02913664 -0.06632789 -0.14877968 -0.05922727 0.1726065 -0.129729
0.11076997 -0.032245103 -0.036542356 -0.1455388 0.0056072203 -0.0622588 0.07169201 0.096677996
-0.016322667 0.10583323 0.05700181 -0.013717226 0.019112498 -0.035448886 0.03983121 0.102792054
0.0032647867 0.013457667 0.00057706767 0.015825642 0.0017201904 -0.007438114 -0.07195589 0.00046951033
0.03524525 -0.06757862 0.010918063 0.04628504 0.049457166 -0.05542997 -0.005889235 -0.00082600623
0.00934645 0.03822544 -0.02846062 -0.1059105 0.01525795 0.059194103 -0.016847886 -0.024015324
0.0019146148 0.074321575 -0.030229658 0.08661434 -0.095670976 -0.045484006 0.08072615 -0.03656254
-0.023581447 -0.037620872 0.07658949 -0.009686068 0.08431368 -0.0120025985 -0.1108446 -0.053773977
0.036402386 0.06689717 -0.042083208 0.0075759427 -0.053433727 -0.09454024 -0.0009469481 0.062831014
0.09433088 -0.025445404 -0.045195397 -0.0016199454 0.069513775 -0.036584843 0.053982098 0.048890397
-0.124032214 0.024998708 -0.03914853 -0.06495049 -0.033783216 -0.08662443 -0.07814893 0.049995262
-0.09308963 0.01895585 -0.0869528 0.03915726 0.1083249 0.057139944 -0.051101573 0.02096632
0.07751197 0.031343546 -0.06075924 0.022011276 0.054300934 -0.0317759 0.07785703 -0.03244721
0.103613384 -0.08815288 -0.020186562 0.06641709 0.01506009 0.056006014 0.1493984 -0.08713237
-0.005308691 -0.0014298457 -0.098009735 -0.100503735 -0.15137704 -0.0586645 -0.026341842 -0.030046463
0.15432714 0.056973293 0.019688262 0.026568454 0.036594644 0.05982684 -0.02851371 -0.07454759
-0.09735289 0.08499666 0.08623882 0.07039067 -0.029870214 -0.043422554 -0.050296277 -0.003451539
-0.030683089 -0.10652038 0.03262132 -0.06787463 0.054540735 0.013531189 0.11463383 0.030035775
0.077708595 0.039241735 0.107220046 0.042621255 -0.08538766 0.028840667 0.102331005 -0.057006605
-0.08553818 -0.045430765 -0.02505012 -0.07330744 0.015329697 -0.11134999 -0.109128356 0.0059174686
0.004015442 -0.07983932 -0.1236108 0.06433078 -0.05699234 -0.07068139 -0.071811974 0.05379826
-0.023770127 -0.0054851365 0.06270333 -0.007207727 -0.05147757 -0.08240567 -0.1044255 -0.08947749
0.009818349 -0.058334112 0.06401294 0.058411565 0.01424097 -0.017385578 0.023755943 0.063595876
-0.05361276 -0.008566622 0.11629802 -0.07904685 0.059119135 -0.12182887 -0.0496953 0.009340895
0.038077716 0.026539596 0.014044313 -0.10733924 -0.026367534 0.060272753 -0.112221435 0.04632451
0.050682414 -0.08612852 -0.08948081 -0.109409764 0.043207485 0.021128323 0.014591662 -0.019799845

rnn_beta.weight_hh_l0 f4 [512, 128]
00000000: 6002 c23d e8fb 4f3d 539d b43b 6272 ccbc
00000010: e0ac babc 0024 1d3d 2dee 0b3e 0fc8 36bd
00000020: dbc1 cfbb f00b a5bd 7da6 f73b 2559 b93d
00000030: 329a ef3d 7633 8a3c ccf1 84bd 41d7 8c3d
00000040: 2e7c 57bd cea8 ebbc e9b7 a63d 324f dd3d
00000050: a5fe 033b 4472 f93c ba4d 66bd 7692 d63b
00000060: 5519 4a3b ef18 6abc 19d4 cb3d 62dc 2cbd
00000070: 97c7 e4bb cc54 84bd 59f0 11bd 8a59 aebd
00000080: 3dbe c9bc 5fae fd3b 1035 663d 999e 27be
00000090: e8db 6fbd cb98 1c3d c2ed cc3d a9bc 323d
000000a0: d45a c63c a934 9f3d af42 87be be60 10bd
000000b0: c23f fabd 3f92 93bd 9fe1 0bbe 6da7 673c
000000c0: e937 88bd 2e20 06bd 1858 8cbd 9a37 b4bc
000000d0: 5e2e 093e a359 abbc 1d8d 9a3d e766 0e3d
000000e0: d899 4bbd 8a4a 543e 8638 883d 31ef b43c
000000f0: 5d84 e33c 2f3a c2bd a1cb 433e 8012 173d
00000100: f63b 283e 204c 84be db68 a73d f100 dcbd
00000110: 6b46 7e3c 313d 0abe d202 ccbd a483 32be
00000120: b046 5ebd d825 a73d cb83 c0bd e49a 87bd
00000130: 457c daba e1ff db3c fb73 c8bd 20fb 843d
00000140: c5ee cb3c 0417 72bc 71e7 3dbd 8759 f53c
00000150: 06ed 23be 239d 1dbe 1e18 48bd e3cd 12bb
00000160: b897 96bd 30b8 f3bc fb29 1e3d c7f0 f63d
00000170: 9442 f63c f16e 29bd 8c33 95bd 673f 3abd
00000180: 3247 f1bc 1447 2f3e f21b 71bd 542f 3f3d
00000190: 9feb 9a3d 5d74 b53d 4780 393d 2657 8dbc
000001a0: 5069 8bbd 3ec9 413d ba42 aa3c fcea 0e3d
000001b0: a5ed 55bd 7944 f7bc a6e0 0bbd 1756 c239
000001c0: 0159 323d 4be5 30bc a87c 9bbc 52ff 033e
000001d0: 27e2 9abc 0efb e33b 6d94 eb3b 4b72 c8bd
000001e0: 0fc5 43be 9f5f 523e cdfe ddbd 257c a63d
000001f0: bd30 61bd 5ee8 4f3e f62a 2abd a351 babb
00000200: 6f9a f23d dc10 073e 48d4 c6bd 5253 33bd
00000210: 854f 22be badb 0d3c 70de 053d bdc8 43be
00000220: bfbd 0d3e 70c6 1fbe a19c c5bd 6842 c5bc
00000230: 7ca4 f03d e2e3 7fbe c33c d93d ec1a ee3d
00000240: 0665 1dbb d719 0e3e b213 27be 8ba0 73be
00000250: 7d4f a13e a5d1 1a3e a90f 4fbe 7bee a43e
00000260: bbff a8bd ce48 10be e98b f53d 051d 803e
00000270: 9667 2a3d 8f96 8a3c 2bf2 453e e574 db3d
00000280: cbb9 253e ee3d 3d3a a432 fc3d e5b3 25be
00000290: fdb7 0cbe 269c f1bc 9c87 8dbc 93a2 0ebd
000002a0: 7676 af3e 2a99 82be 0742 833d 6402 07be
000002b0: 685c 8ebd a496 9dbd 15ce 5e3d a553 053e
000002c0: 25cc 2d3d ac8b 54be e953 dd3d 32f3 6ebd
000002d0: 8954 4a3e 81ae c3bd 8b0f 54be 19a4 32be
000002e0: e53b 8c3e d6a9 abbd aa59 a23e e55e ce3a
000002f0: b75f 39be 48d2 73bd 11ad 903e 2b96 a83d
00000300: f17b 45bd 0672 993e 830e ac3e a00d 07bd
00000310: 4176 0d3e 2679 f8bc 40e9 953d 9a81 30be
00000320: 9029 06be 766d b23d 1c25 21be cbb3 053d
00000330: f953 2d3e cf39 d6bd 29c1 6ebe 6407 963e
00000340: 5942 1a3e c0ac 313e c957 a9bc e2fe d33d
00000350: bd61 3fbd 7039 0bbe ff88 3c3e c4fe 3dbd
00000360: 5e66 c4bc 46fe d6bd f9cf 413e 6a9c 4a3e
00000370: 9e45 23be c129 15be a51a fb3c 3922 0c3f
00000380: dc64 39be a3a9 203e 574b 92be e0f1 57be
00000390: 85be 80be 241d c63d 45ea 7e3d ef4b a83e
000003a0: ee19 413e 73ad 8ebe c8ac 8f3e 2986 573e
000003b0: 8963 bfbe 8103 ce3d 9eee f13c 3a95 27bd
000003c0: 3981 a2be 3976 4d3e 3d6f 883e 48f0 553d
000003d0: 9414 babd c240 933e 9ada 333e ea02 39be
000003e0: a3ca cfbc 10fa 713c d132 edbd 8eff d03c
000003f0: 5812 8fbd 03db d1bc 53a1 353c dc39 a73e
0.09473109 0.050777346 0.0055119186 -0.024956886 -0.022787511 0.03836441 0.13665076 -0.044624384
-0.006340248 -0.080589175 0.0075576887 0.09050206 0.11699332 0.016870242 -0.064914316 0.06876994
-0.05260866 -0.028767016 0.08140547 0.10806121 0.0020140794 0.030449994 -0.05622647 0.006548221
0.0030837853 -0.014288171 0.09952564 -0.04220236 -0.006981801 -0.06461486 -0.035629604 -0.08513172
-0.024626845 0.007741734 0.056202948 -0.16369094 -0.05855933 0.038231652 0.10006286 0.04363695
0.024213232 0.07773716 -0.26418063 -0.03524851 -0.12219192 -0.072056286 -0.13660286 0.0141390385
-0.06651289 -0.032745533 -0.0685274 -0.02199917 0.13396594 -0.020916766 0.075464465 0.034766104
-0.049707264 0.2073156 0.06651406 0.022086712 0.027773077 -0.09483754 0.19120647 0.036882877
0.16429123 -0.2583933 0.081742965 -0.10742367 0.015519719 -0.13499905 -0.099614754 -0.1743303
-0.05426663 0.08161515 -0.094001375 -0.0662134 -0.0016669115 0.026855411 -0.097877465 0.06493211
0.024894128 -0.014775995 -0.046363298 0.029949917 -0.16008386 -0.15391974 -0.048851125 -0.002240055
-0.07353157 -0.029750913 0.038614254 0.120576434 0.030061044 -0.041365568 -0.072852224 -0.04547062
-0.029452894 0.17116958 -0.05886454 0.046675995 0.075644724 0.08860085 0.04528835 -0.01725347
-0.06807196 0.04731106 0.02078377 0.034892067 -0.05222859 -0.030184017 -0.03414979 0.00037066705
0.043541912 -0.010796855 -0.01898034 0.12890366 -0.018906666 0.0069574183 0.0071893246 -0.09787425
-0.1911814 0.20544289 -0.10839615 0.081291474 -0.05497812 0.20303485 -0.041544877 -0.0056860014
0.11845862 0.13190025 -0.09708458 -0.043780632 -0.15850647 0.008658344 0.032682836 -0.19119544
0.13841914 -0.15603042 -0.09649015 -0.024079517 0.11750123 -0.24989274 0.106072925 0.11626229
-0.0024016513 0.13877045 -0.16316107 -0.23791711 0.31505957 0.15119036 -0.20220818 0.32213196
-0.08251902 -0.14090273 0.11989576 0.2502214 0.041602693 0.016917495 0.19330661 0.10715655
0.16184156 0.0007219006 0.123143464 -0.16181906 -0.13742061 -0.029493403 -0.017276578 -0.03482301
0.34270066 -0.2550748 0.06409078 -0.13184506 -0.06951219 -0.07694748 0.054395754 0.13020189
0.042431016 -0.20756406 0.1080702 -0.058337398 0.1975881 -0.09554768 -0.20709054 -0.17445411
0.27389446 -0.08382003 0.31709033 0.0015744834 -0.18102919 -0.05952671 0.2825704 0.08231767
-0.048213903 0.29969805 0.33604822 -0.03297198 0.13814642 -0.030331206 0.073198795 -0.17236939
-0.13101792 0.08712284 -0.15736812 0.032642167 0.16926564 -0.10460245 -0.23315872 0.29302514
0.15064372 0.17351055 -0.020671742 0.103513494 -0.04672407 -0.1359613 0.18411635 -0.04638554
-0.023974594 -0.104977176 0.18926992 0.1978623 -0.15944526 -0.14566709 0.030652354 0.5473972
-0.18104881 0.15689711 -0.28573105 -0.21088362 -0.25145355 0.09673527 0.062235136 0.32870433
0.18857548 -0.27866706 0.2806151 0.21047272 -0.37380627 0.10059262 0.029532727 -0.040913798
-0.31739214 0.2006463 0.26647368 0.052231103 -0.09085956 0.28760344 0.17563859 -0.18067518
-0.02536518 0.014769092 -0.11581958 0.025512483 -0.06985921 -0.025617128 0.011085826 0.3266133

rnn_beta.bias_ih_l0 f4 [512]
00000000: 9cb9 653d 3f84 263e 4bb0 873b 1170 29be
00000010: 0b36 673c b626 9e3d 9e53 cabd a359 073d
00000020: a675 fdbd b286 4a3d 51cb e03c 6ae6 a6bd
00000030: 2d5d 21be 5c50 403c 3a0e 4f3d d3bf 3abd
00000040: 2a72 f0bc 0bf1 1dbe 8fb8 2cbc 29b2 cc3d
00000050: ee51 fdbd cde9 73bd c9bf 00be e978 30be
00000060: a4f7 f93d bf2d 5ebd ba48 3bbc 2231 9bbd
00000070: bf60 ec3c 0244 1cbd 9135 c8bc 6525 063d
00000080: fbda 2abd 0de0 b83c 8f30 01be 5fe9 a13a
00000090: 7ee4 823d 5e23 4abe 4590 e73d 8775 88bc
000000a0: 9a56 dbbc 8a8b f2bd bd3a 083e d62f 38be
000000b0: 69e5 00be 2433 40bc 04dc bebd 1a13 c4bc
000000c0: 4797 acbc 6438 f1bd ed54 84bc b8bb 54bd
000000d0: ab09 b7bc 5a9c 703e e4ea 353d 0d24 c2bd
000000e0: 703a 56bd 28f5 4ebd 63c1 f13c a945 3fbe
000000f0: 77ab eabd 222c d8bd 56c6 05be 5b6b fc3c
00000100: d429 983d c140 903c 09ab ecbd 3713 90bd
00000110: 20a9 353e bd78 e73d f09c 65bc 1bb2 e5bc
00000120: 475a 81bd 2eef e9bd e3be cd3d d966 c33d
00000130: db5f ce3b bf14 f7bc d120 f13d 36a0 11bd
00000140: 87c9 44bd dd69 bdbd a24c 8c3d f009 e5bd
00000150: 3e57 6a3d 0c4a d1bd 281d 213d 7d8e 513d
00000160: 5960 aebd fc12 38bd 7d3c 2b3d 90bf a93e
00000170: 29b3 ecbd 79e7 1c3d 6183 f6bd ddc0 883c
00000180: 64dc f43d 016d 69bd d4ec f9bd 7d3f bb3c
00000190: 1286 f33d bc79 48bd db28 11be 6224 b13c
000001a0: 9b35 09be 3497 1c3d 30d6 53bd 7d44 91bd
000001b0: 02e4 863d b5a1 313d 6306 1bbd b400 583d
000001c0: 5f1a d7bd 4363 c0bc 4b07 72bd de94 803d
000001d0: 6e39 4cbe cc29 29bc 9203 d1bd cf17 18be
000001e0: 1a58 bfbd b2fe 08be d268 d43d 15dc 2d3e
000001f0: 2064 a1bd 0bd9 af3d d9ad 99bd 25ea 253d
00000200: 3f19 203e e492 12be d152 753d db31 8bbc
00000210: be8c 593d 717c e23d 56e4 a93d 63e7 833e
00000220: 89c7 053d ac71 623d e0d5 7b3d f068 a7bd
00000230: a32b 973c 6615 af3d cf5d b53d 65b9 c93d
00000240: ac5a 1c3d 336d b9bd b247 ee3d 4d65 9bbd
00000250: 2cf1 a33d 3f62 13bb 638d ab3d 93cb c53d
00000260: 1972 8c3d 363a aebd 1929 363e 2129 b53c
00000270: 10e0 a23d c133 343d 477c ef3d eb19 c03d
00000280: 4ae1 1c3c 43e7 6ebb c7af 093e 2905 303e
00000290: 5e33 053e cc11 bebd ca5c 10be 814c 7e3d
000002a0: f956 c63d 1a65 803d 6396 1fbe a3f7 413e
000002b0: 3970 5abd 96cc ae3d aa6a 433e 8786 593d
000002c0: 6920 853d df9a fdbc 2083 003e 02eb ee3d
000002d0: 8786 653d bccc 44be feef ea3c b3ce 8c3d
000002e0: c161 333c 43a9 56bc 00a9 8a3d 6fd5 9dbd
000002f0: 0fb6 993d 2269 d53d ea3a 263e c607 803c
00000300: 6f5f 30bc c6b8 043e 9995 d6bb bcfb 723d
00000310: 383a ff3d be14 68be dea7 54bd fb70 713d
00000320: aef6 343c 721f 0abd 9207 fabc bd48 00bd
00000330: e6e9 f63c 1991 5bbd 3f0f fa3d a0e6 183e
00000340: 8531 1f3e 9b9e 38bd d54d e0bd f8cf c3bd
00000350: 6fa0 03be d6f2 023e 60df d53d 9253 d73d
00000360: 07fb b73c 98d8 1b3e 44a1 c13d b9e4 22be
00000370: fcb3 c13c 434d 043e ebb5 0d3e 4e08 cb3d
00000380: 4ee9 123e f0d9 b73d 9bd9 0d3e 7b46 453d
00000390: cfe6 eb3c d8ee a13d aaba 673d 889e bc3d
000003a0: 6339 703e 8a03 94bc f181 1d3e dc36 2bbb
000003b0: 8205 f93d a0ba c63d dbbb b33d 16f5 023e
000003c0: b5bd 883c a39c 693d a72e 1c3e a7e6 173d
000003d0: d0f5 74bb 4db5 c93c a52b 8e3d 2620 14ba
000003e0: e3b6 513d 3701 ad3c f815 1b3e 4139 12be
000003f0: e85c 0f3b ef47 27bd 3a8e 113e 235b f33c
0.056085214 0.16261385 0.004140889 -0.16546656 0.014112006 0.07722227 -0.0987923 0.03304447
-0.12375955 0.04944486 0.027440699 -0.08149417 -0.157582 0.011737909 0.050550677 -0.045593094
-0.029351313 -0.15423982 -0.010542049 0.09994919 -0.123691425 -0.05954914 -0.1257316 -0.17233624
0.12205437 -0.054242846 -0.011430914 -0.07577731 0.028854726 -0.038150795 -0.024439605 0.032750506
-0.041712742 0.022567773 -0.1261618 0.0012352875 0.06391238 -0.19740054 0.11306814 -0.016657604
-0.026774693 -0.11843021 0.13303657 -0.17986998 -0.12587513 -0.011730943 -0.093193084 -0.02393489
-0.021068228 -0.11778334 -0.016153777 -0.051936835 -0.022343477 0.23497143 0.044413462 -0.094795324
-0.052301824 -0.050526768 0.02951116 -0.18678917 -0.114584856 -0.10555293 -0.1306394 0.03081291
0.07429853 0.017609002 -0.1155606 -0.07034915 0.17740297 0.11302326 -0.014014468 -0.028039029
-0.06316047 -0.11422573 0.100461744 0.09541101 0.006298048 -0.03016126 0.11773837 -0.03555318
-0.048043754 -0.092487074 0.06850554 -0.11183536 0.057212107 -0.102192014 0.039334446 0.051161278
-0.085144706 -0.04493998 0.041805733 0.33153963 -0.115576096 0.038306687 -0.12036777 0.016693527
0.11956099 -0.05698872 -0.122033745 0.022857422 0.11890806 -0.04894422 -0.14175741 0.021623794
-0.13399355 0.038230136 -0.051717937 -0.07093141 0.06586458 0.043367106 -0.037847888 0.052735046
-0.10503077 -0.023484832 -0.059088986 0.06278394 -0.19943783 -0.010324907 -0.10205759 -0.14852832
-0.09342976 -0.13378409 0.103715554 0.16978486 -0.078804255 0.085863195 -0.07503862 0.0405065
0.1563463 -0.14313847 0.059893433 -0.016991546 0.053112738 0.110588916 0.08295505 0.25762472
0.032660995 0.055284187 0.061483264 -0.08174312 0.018453425 0.08549003 0.08855783 0.09849814
0.03817241 -0.09054031 0.116347685 -0.07587681 0.08004984 -0.002248898 0.08376577 0.09657969
0.068577 -0.085071966 0.17789115 0.022114338 0.07952893 0.04399467 0.11693626 0.093799435
0.0095751975 -0.003645376 0.1344596 0.17189468 0.13007876 -0.09280738 -0.14097896 0.06208468
0.096845575 0.062692836 -0.15584712 0.18942122 -0.05332968 0.085351154 0.19083658 0.05310681
0.06500322 -0.030957637 0.1255002 0.11665918 0.0560365 -0.19218725 0.02867889 0.06875362
0.010948599 -0.013101879 0.067705154 -0.07706725 0.07505428 0.10420443 0.16233411 0.015628707
-0.010764941 0.1296111 -0.006548595 0.059322104 0.12462276 -0.22664163 -0.051917903 0.058945637
0.011045141 -0.033721395 -0.030521188 -0.03131937 0.030140828 -0.053605173 0.12209939 0.14931726
0.15546234 -0.045073133 -0.10952345 -0.09561151 -0.1285417 0.12787947 0.10442996 0.10513987
0.022458566 0.15219343 0.09454587 -0.15907563 0.023645394 0.12920098 0.13838927 0.09913693
0.14346811 0.08977115 0.13852541 0.04816292 0.028796582 0.07906884 0.0565745 0.09209925
0.23459391 -0.018068094 0.153816 -0.0026125228 0.12159254 0.09703565 0.08776065 0.12788805
0.016692022 0.057034146 0.15252171 0.0370852 -0.003737796 0.024622584 0.06941918 -0.00056505424
0.051199805 0.021118743 0.15145099 -0.14279653 0.0021875445 -0.040840086 0.14214411 0.029706543
