processing/models/weights/idiab_2_idiab/retain/RETAIN_idiab2.pt (torch_old, 831550 bytes, 13 tensors)

embeddings.weight f4 [64, 3]
00000000: c105 cabe 8b06 ba3e 3a23 db3e 3fca c93d
00000010: 6a02 11bf 0262 9a3e 8237 42bc 9e24 0abf
00000020: 131a d73d bd8c 0f3e 4ef1 f4be 5556 32be
00000030: 3f7f 5a3e b899 143f 677c cbbe 5196 fd3e
00000040: 59d7 32be 9af7 dbbe 71d5 ce3b dedf c13e
00000050: 1f2d ed3d 4106 7f3e 08b3 0b3f eb67 0e3e
00000060: 75cf 0bbf c405 d23e 82dc 92bc 445b d8be
00000070: 191a 083e 9a4e 0f3e a2d4 aa3d 0248 09bf
00000080: 7feb 1bbe 8e8f e1bc 7fbb 113f b8b6 013f
00000090: 1cbc a03e 9854 9cbe 446c 983e 3d6a 94be
000000a0: 6151 093e 5560 0d3d 5cc3 6fbe 58a9 d83e
000000b0: 60cf 34bd 534e 703e 6f8e 093f c87c dcbd
000000c0: 7e81 9f3d 66c0 0abf 9766 8a3d 2897 2a3e
000000d0: 62e6 ea3e 6eaa 113f 0fe7 fdbe 719f d13e
000000e0: 662a ab3e 7434 00be f9a1 7bbd 4914 28bc
000000f0: 4e7b ab3b ada6 8e3d 83ba 273e 5b0c f53e
00000100: 30ea b1be 1f9f 10bf 558a f4bd 9df5 c3be
00000110: 9d77 bebd e34d 083f eb5b 84bd 55e7 383d
00000120: 60c9 a4bd 5236 6bbe cea2 bdbe 6c3a e03e
00000130: 84e3 1abe 8666 083e 202b 753e ce99 953e
00000140: c08b 8dbe 05c4 973e 898e cf3e bad1 21be
00000150: a4eb 843e 5a1d 6a3e 91d2 8b3e 328d a5bd
00000160: 129a 37be ec87 c6be c52c 00bf 373b 09be
00000170: bd86 cb3e 0481 393e a31f 8dbe 4d2c fc3d
00000180: ce14 0b3f d7df bebe fe3b c1be 9a89 e2bd
00000190: 2546 10bf bc08 ad3e b2e4 9cbe 3664 aebe
000001a0: 90df a53e 3dd8 c6be fd81 eb3e b6cc e23d
000001b0: 721c ee3e 320d 223e cc7c 76be 91cd e6be
000001c0: 2384 c5be 2847 81bb b43c c6be 0c0e 25be
000001d0: 4235 debe fb93 953d 4dba 603e 3453 8fbe
000001e0: 106f 30bd 8549 cbbe 94d7 0b3f a554 993d
000001f0: 426e 543e 92fe e93e b5ba 013f 0a21 4e3b
00000200: 6fee 0c3f 3f3a 083f 670a 4b3e 4123 f13e
00000210: cc3a ab3e 817f 47be 556f 983e f7dc 3abc
00000220: 9969 b13d e03b 0ebc b150 8abe 0623 14bf
00000230: 6653 c8bc 6cc3 e0be a3d0 9cbe a99f fabe
00000240: c537 2bbd 6623 09be a97b 0a3f b725 e0be
00000250: b6dd 01bf 1bb1 a1be 0e68 813e bf84 13be
00000260: 31c3 c3be aab0 25be fac2 90bc 00a8 ec3e
00000270: ba64 aebe 10be 7ebd 55c9 cb3e 06a8 113e
00000280: 40e1 fa3d 2cfd 0d3f 2ffa 8e3e 49aa 70be
00000290: abb6 b8be 01bb 0c3f 9c6c 71bd 90f8 b3be
000002a0: 922f df3e 0abc 02bf 5033 4f3e b941 ae3e
000002b0: 2a2c f83e a5c6 73be 71f9 d23e 97eb 973d
000002c0: 3bc4 c43e ebdd 11be ae10 bd3c 8e97 c5be
000002d0: 4262 dc3d efeb afbe 96d9 993d c4bb fb3b
000002e0: 3d48 253e 39da cf3e 3687 0dbe 7384 113f
000002f0: c81c 753e b0bb f4be 2416 483c f472 4a3e
-0.39457515 0.36333117 0.42800313 0.098530285 -0.5664431 0.301529 -0.011854054 -0.53962123
0.1050302 0.14018531 -0.4784035 -0.17415746 0.21337603 0.58047056 -0.3974335 0.49528745
-0.17464961 -0.42962343 0.0063120653 0.3786611 0.11580872 0.2490473 0.54570055 0.13906829
-0.5461343 0.41020024 -0.017927412 -0.4225713 0.13291205 0.13994828 0.08341338 -0.536255
-0.15226553 -0.027534273 0.5692672 0.5066943 0.31393516 -0.3053329 0.297701 -0.28987303
0.1340995 0.034515698 -0.23414367 0.423167 -0.04414308 0.23467378 0.5373296 -0.10765988
0.077883705 -0.54199827 0.06757849 0.16659224 0.45878893 0.5690068 -0.49590346 0.40941957
0.33430785 -0.1252001 -0.061433766 -0.010258743 0.005233205 0.06965385 0.16379742 0.4786099
-0.34748983 -0.564928 -0.11940447 -0.38273326 -0.09300158 0.53243846 -0.064628445 0.04514249
-0.08046222 -0.2296994 -0.37038273 0.43794572 -0.15125853 0.1332036 0.23942232 0.29218906
-0.27645683 0.2964174 0.40538433 -0.1580266 0.2596103 0.22862759 0.27309087 -0.080835715
-0.17929867 -0.38775575 -0.5006831 -0.13401495 0.39751235 0.18115622 -0.275632 0.12313137
0.5432862 -0.3728015 -0.37741083 -0.11061402 -0.5635703 0.33795726 -0.3064323 -0.3406083
0.32397127 -0.38836852 0.4599761 0.11074202 0.46506077 0.15825346 -0.24071044 -0.4507871
-0.38577375 -0.00394525 -0.38718188 -0.1611864 -0.43400007 0.07303616 0.21946068 -0.27993166
-0.043074667 -0.39704528 0.5462582 0.07486848 0.20745185 0.45702034 0.5067552 0.0031452798
0.5505132 0.53213876 0.19828187 0.4709721 0.33443296 -0.19482233 0.2977244 -0.011405221
0.08662719 -0.0086812675 -0.27014688 -0.5786594 -0.02445383 -0.43899095 -0.30627927 -0.48949936
-0.041801233 -0.1339241 0.5409494 -0.43778774 -0.5072893 -0.31580433 0.252747 -0.14406107
-0.38234857 -0.16180673 -0.017671097 0.46221924 -0.34061223 -0.062192976 0.39802042 0.14224252
0.12249994 0.55464435 0.2792525 -0.23502459 -0.36076865 0.54972845 -0.05894147 -0.35150576
0.4359098 -0.51068175 0.20234418 0.34034517 0.48471195 -0.23806246 0.41205934 0.07417982
0.38430962 -0.14244811 0.023079243 -0.3859219 0.10760929 -0.3435969 0.07512204 0.0076822955
0.16140838 0.40596178 -0.1382111 0.56842726 0.2393676 -0.47799444 0.01221231 0.19770414

rnn_alpha.weight_ih_l0 f4 [512, 64]
00000000: b1f4 ac3d 8248 d83a 5534 a23d 6c43 473d
00000010: b926 233d 276a d8bd 5ddc 683a 78be a03d
00000020: 242a 14bd 4852 c53d 95fb 1ebd 2937 fdbc
00000030: 0a67 01bd a616 28bd f83d 1a3d d7c0 38bd
00000040: 4809 b0bc 6291 c33d 8dba b13c 0562 823b
00000050: deb6 693d 1b3f a4bb 294d 063c 2c1c 533d
00000060: 1cf6 393d 8f74 b33d c6d6 88bd 687d 0d3c
00000070: 6dd6 acbb 7bdc 963c dab7 a3bb ccb1 e23c
00000080: dc92 a1bc 59c6 b7bd 3564 a6bd ac56 c83d
00000090: 9919 5fbd 8781 6d3d 34aa 383c 17a1 0dbd
000000a0: dea7 223d 8517 543d ed1e 843d 643f 0fbc
000000b0: b4a7 1a3d a420 19bd 98ea 6a3d a5de 64bc
000000c0: c0a8 913c f7cb 0a3d 42fe cbbd 411e 4ebd
000000d0: f34c c23d ba41 7d3d 3ef1 09bd 9c3b 6c3d
000000e0: cf43 93bd 8dcf aabd 26c2 59ba 58cc a6bd
000000f0: 9290 133d 6ec3 573d e712 cd3d c49e eb3c
00000100: 7c0d 523a f591 c2bc a91f 50bd d261 6a3c
00000110: 0c52 43bd 871b b03b 44d7 3e3d d2dc 523c
00000120: fd47 85bd bded cd3c c2b6 debb ac1a b8bd
00000130: d813 6e3c c413 783d 1fff 31ba 72bd a63c
00000140: 31a1 a5ba 326f f6bc f2d7 8c3c ea84 423d
00000150: 51ea aebc 906c ba3b aea6 683d df53 d5bc
00000160: 4072 bb3c ac7d e93c 76f4 353d 5a80 aabd
00000170: 90c9 a2bd 8dbe ef3d 7a05 bb3d 3b78 0dbb
00000180: e54e 36bd d2bc c03c f606 dc3c 64a7 26bd
00000190: a655 52bd 52ff 2dbd a442 dd3c 2d56 183d
000001a0: c3e6 9e3d 3603 87bd db62 7fbd 219e 3b3b
000001b0: 9354 b9bd e49b 7dbc e314 ac3d 7894 a33d
000001c0: 8d3f bcbb cf81 0b3d 9eb1 043d 994e 69bd
000001d0: 0fea 503d 4b03 e9bd fb24 7fbd 1302 c6bc
000001e0: d154 45bb dd92 d23c 3753 b8bd 84b4 013c
000001f0: e7fb af3d 7071 8fbd 3078 c8ba 351a adbc
00000200: d109 973b 7c25 5cbd 724c 72bd 0ea5 693d
00000210: dc75 b3bd 4609 9b3c acc4 ae3c ece0 ed3c
00000220: 8f18 313d 9277 023c 4b6b 4ebd fe1c 6a3d
00000230: 0f0b bfbc 79fc d7bc 231b 8cbd 9e78 b5bd
00000240: 0e71 c9bc 5444 84bc 3aea a6bd 900a 8e3c
00000250: d855 e7bc a03c 76bd bbb2 883d 2097 a4bd
00000260: 2c90 463d 8da9 923d a5ae b4bd ad9a 03bd
00000270: e486 d83a 84ed aa3c 82cb c53d 8284 ae3d
00000280: a677 75bd c408 633d d511 af3d b18b f33b
00000290: f233 2f3d 051e 4abd 40b7 c63c 454f 10bd
000002a0: 393e 35bd c88b 9fbd 65ca 02bd b6f8 78bd
000002b0: 121a ba3c b8bd 4cbd 51b7 883d e7b3 923c
000002c0: 01b8 17bd 1a6f 2fbd bd9c 633b bde4 d53d
000002d0: ad5e 5f3d ca6a 01bd 26dd 5b3c 3fe1 93bd
000002e0: 857d 683d a68b 573d a1bd 52bb 169b 873d
000002f0: aeb2 a7bc e5fd 99bc 7852 ee3c b71e 2e3d
00000300: f297 64bd adc4 dabd 7f4a f13c e539 6e3c
00000310: d054 853d 5f56 f23d 1d7d e63c 2b2d e2bc
00000320: 6770 933d f01e 51bc 37c4 b43c 6619 dc3c
00000330: bb53 aa3d c7dc dfbd e8d4 963b 337d 5d3d
00000340: d057 ccbc 1677 733d d558 013d b7ab 41bd
00000350: 6a94 82bb 5e00 a33c b146 c93c a4e2 f73d
00000360: 3028 0b3c 9ac0 a93d c473 553d 4b14 da3c
00000370: cd24 dfba e855 8d3d 5aa0 a0bd f130 a1bd
00000380: 02d7 26bc 8d89 6abd b9a1 11be bbbb c3bd
00000390: 123e e73d e649 7dbd 3e60 bbbc 4942 873d
000003a0: 33a7 b6bc 66bd a5bd e9f3 a03d 974b eb3d
000003b0: 1724 48bb 85b3 cfbc 31f5 ad3a 6268 90bd
000003c0: 201e a4bd 4d5a 30bd a665 c03d 760b a5bd
000003d0: 174e cdbc 1603 3e3d a061 a5bc 161e 4e3c
000003e0: ea16 97bd 1e4b e13d 4d76 d8bc 8789 7a3c
000003f0: bf71 1d3d e91d 06bd 8cab 5e3c da9b 15bb
0.08445109 0.0016501101 0.07920138 0.048648283 0.03983185 -0.10567122 0.00088829343 0.07848829
-0.036173 0.096348345 -0.038814146 -0.030910091 -0.031592406 -0.041037224 0.037656754 -0.04510578
-0.0214888 0.09549214 0.0216954 0.00397897 0.05705916 -0.0050124056 0.008197107 0.05154054
0.045400724 0.08762466 -0.0668159 0.008635856 -0.005274585 0.01841568 -0.004996282 0.02767267
-0.019723348 -0.08973379 -0.08124582 0.09782156 -0.05446777 0.057984855 0.011271048 -0.034577455
0.039710872 0.051780242 0.06451211 -0.008743141 0.03775759 -0.037384644 0.057352632 -0.013969098
0.017780662 0.033885922 -0.09960605 -0.05032182 0.09487333 0.06183026 -0.033677332 0.057674035
-0.07190668 -0.083403684 -0.00083068234 -0.08144444 0.036026545 0.05267661 0.10013371 0.028762229
0.00080128736 -0.023751238 -0.050811443 0.014305549 -0.047685668 0.0053743753 0.046592012 0.0128700305
-0.06507871 0.025137777 -0.006796689 -0.08989462 0.014531098 0.060565725 -0.000679003 0.020354006
-0.001263654 -0.030082319 0.017192814 0.047490038 -0.021351965 0.005689211 0.056799583 -0.02604097
0.022881627 0.028502308 0.04442259 -0.08325262 -0.07948601 0.117062666 0.09131904 -0.0021586556
-0.044508833 0.023527537 0.026858788 -0.04068698 -0.051351212 -0.04247982 0.027009316 0.03719156
0.07758858 -0.06592409 -0.062350135 0.0028628188 -0.090493344 -0.015479062 0.08402421 0.079873025
-0.0057448805 0.034059342 0.03239595 -0.056959722 0.051004466 -0.11377581 -0.062291127 -0.024170911
-0.003011037 0.025704795 -0.09000247 0.007916573 0.085929684 -0.07004058 -0.0015294608 -0.02113066
0.0046093245 -0.053746685 -0.059154935 0.057042174 -0.08762714 0.01892532 0.021334015 0.029037915
0.04323631 0.007963078 -0.05039529 0.057156555 -0.023320703 -0.026365506 -0.068411134 -0.088608965
-0.024590041 -0.016145863 -0.08150144 0.017339021 -0.028239176 -0.06011641 0.06674715 -0.08036637
0.048477337 0.071612455 -0.08822373 -0.032129932 0.0016519693 0.02086521 0.09657957 0.085213676
-0.05992856 0.05542828 0.08548323 0.007432424 0.04277415 -0.049345035 0.024257302 -0.035231847
-0.044248793 -0.07790333 -0.0319313 -0.060784064 0.02271751 -0.049985617 0.0667559 0.01790805
-0.037040714 -0.042830564 0.0034730874 0.10444019 0.05453365 -0.031595983 0.013419425 -0.07220697
0.05676033 0.052623414 -0.0032156485 0.06621377 -0.020470943 -0.018797824 0.029092059 0.04250976
-0.05580897 -0.10682044 0.029454468 0.01454017 0.06510317 0.1183288 0.02813583 -0.027609428
0.071991734 -0.012763724 0.022066219 0.02686758 0.083167516 -0.10930782 0.004603017 0.054074477
-0.024944216 0.05943974 0.031578857 -0.0472829 -0.0039849775 0.019897636 0.024569841 0.12103775
0.008493468 0.08288689 0.052112356 0.026621005 -0.0017024517 0.06901151 -0.07843085 -0.07870663
-0.010183098 -0.057260085 -0.14221849 -0.09557291 0.11291136 -0.061838053 -0.02287304 0.0660444
-0.022296524 -0.080927655 0.07859022 0.11489027 -0.003053909 -0.025354156 0.0013271925 -0.070511594
-0.080135584 -0.043054868 0.09394388 -0.080588266 -0.02506165 0.04638966 -0.020188153 0.012580415
-0.073774174 0.110006556 -0.026423598 0.015291578 0.038438555 -0.03274337 0.013590705 -0.002282849

rnn_alpha.weight_hh_l0 f4 [512, 128]
00000000: c9df abbc 8255 debd d0b4 12bc af11 b8bc
00000010: 39fe bf3d cc39 6dbd 63d5 2cbd f88b 833d
00000020: 3fe0 9bbd f004 48bd 553b d6bd 5b5e 8ebb
00000030: c906 78bd c56f 07bd 2fac 953d 1918 71bc
00000040: 460e bd3d a433 753d 1231 e2bc 4143 b23c
00000050: 424f 943c 152d 8c3c 70ef d83c 0064 b63d
00000060: d140 4a3d 840f 5e3d 614e 3ebb 8f2b 063c
00000070: c8c8 ac3d 30fc 15bd 87d8 c4bc 3ad4 24bd
00000080: 8594 6d3d 5965 17bd aff5 6bbd 2910 d53d
00000090: 28aa 443d 3f65 733d 027a eebc a8be 0fbc
000000a0: 609a 003d 2d41 503d b676 efbd 676f 20bd
000000b0: 3c0c 00bd 2c37 9a3d 48c3 3c3d 07a3 9b3d
000000c0: 71bd 7dbd eb5c 8b3c cb31 6abd d1c9 d8bd
000000d0: c235 c23d 584d 163d 2dd4 febc 08f3 a5bc
000000e0: 1aeb 753d 81a8 4ebd 657f 0ebd 4be8 223b
000000f0: 6e68 0a3e 16d9 583d 0394 e83d e2e8 833d
00000100: 9d54 9d3d 8104 59bd 82ed 7bbc c094 bfbd
00000110: 4658 89bd 1643 cebd 98a5 d6bd f0e8 85bd
00000120: 0bf4 513d bddf 99bd eb78 f5bc ee05 0e3b
00000130: 1399 973d 4128 90bd 081c 0bbe 55ff 13bd
00000140: c556 55bb cb18 0dbd dc55 0d3d 0854 63bd
00000150: a16d d9bd e478 953d 0752 2ebd 2f25 b83d
00000160: ceda 463d e004 feba fffb 593d fbb6 b2bc
00000170: d08d a83c f394 46bd cfbf a03c 04c8 633d
00000180: 5b1c a83d 610d 7abd 80dc 0d3d e82a b4bd
00000190: f87a 7d3d e557 74bd 85f1 bd3c bf81 34bd
000001a0: 399f eebc 4843 0ebd f258 15bd 1787 79bd
000001b0: e1c9 4fbd 5110 81bc 932f 123d 8544 d4bd
000001c0: f6da d0bd af61 7ebc 0b97 d03c 33c8 cdbd
000001d0: 1761 d5bc a3a2 233d c9ba 903b 037f 933d
000001e0: 87fb 0bbc c6b6 0439 811f 4c3c d017 24bd
000001f0: 2a19 1dbe 7b23 5c3d 505c a1b9 3b3d 823d
00000200: 7aec 33bd a8aa 453d 8cdf 603d f825 3dbd
00000210: f0b0 22bd 64c1 b73c 79fa 9c3c 0bd3 9dbc
00000220: f97e 52bc 7048 923d c840 dabd 4f1b 803d
00000230: 2e52 cdbd 8f07 aabc adce ecbb 6cf5 513d
00000240: cba9 b63d e128 b7bd e7d8 3b3c 762b 9bbd
00000250: 547a 70bd a194 95bd 1937 60bb e1e1 803c
00000260: 49b2 a5bc 9f6f cb3d 9f8e a73d 5e57 3bbc
00000270: aaea fa3d bd30 2c3c a4ad f5bd f124 3ebd
00000280: 8e4a 383c 677d a53b ead8 36bc 4cf0 2abd
00000290: d13d 68bc 8c57 193c 539b 353d 6b58 77bd
000002a0: 4b2d c93c 42ba e0bc dacc 2dbd e7fc 75bd
000002b0: 7548 48bd 90f1 a63d bf18 12bc 45ae 0f3e
000002c0: 73da 3e3d a85d 05be 8e34 693d 4906 1bbd
000002d0: 00f3 efba fc62 8cbd 248e f6bc 4fcb 273d
000002e0: 9aae 273c 5861 dabb 3828 17bd 6531 c1bd
000002f0: 41e6 e33d 72c9 f0bd f40d 123d 8457 80bc
00000300: 63ca 483d f189 38bd f088 7fbd ad71 40bd
00000310: b5d0 11bc 6a05 edbb 790d 99bd b5a1 1cbd
00000320: 2948 383d 3ac2 90bd 91bd 7cbd e201 453c
00000330: 3b79 de3d 32d3 98bd 7a37 86bd ced7 8c3d
00000340: f0f7 043d 4129 9d3d c7d0 4bbd acf0 94bd
00000350: a889 643d ad88 5ebd 3dc2 6a3c 2bf4 c8bc
00000360: 99b8 6a3d 9178 f7bd 0ecf ba3c 9cde f2bb
00000370: 4ebe 10bd 071b eb3c 04a2 25bb e0fa f2bc
00000380: 0f35 173d 7881 4f3c f83b c7bb 2fd8 913c
00000390: b4f8 9abd 2a53 cc3c 6a20 473c 35c0 273a
000003a0: 127f df3d 6dee 12bc d4f0 88bb e4d2 4bbd
000003b0: 986b 393b cec6 90bd dd8c aabc 5c24 bd3b
000003c0: a28a 9ebc bb8d 1f3d cd54 dc3c 2ad2 643c
000003d0: c65a 853b de3e 243d 4628 203b 6f1f 383d
000003e0: f40c 52bd 7191 8c3d ed73 2abd 271a 123d
000003f0: 4aca 3abd b21f 3e3d 8b23 89bd 0d2c 043d
-0.020980733 -0.10856153 -0.008954242 -0.02246937 0.09374661 -0.057916448 -0.04219569 0.06423181
-0.07611131 -0.048832834 -0.104605354 -0.004344744 -0.060553346 -0.033065576 0.07308232 -0.014715218
0.09231238 0.0598637 -0.02761129 0.021760585 0.0181042 0.01711134 0.02648136 0.08905792
0.04937822 0.054214016 -0.0029038417 0.008189096 0.084367335 -0.036617458 -0.02402903 -0.040241458
0.058002967 -0.036961887 -0.05760735 0.10403473 0.048013836 0.059422728 -0.029110912 -0.008773483
0.031397223 0.050843406 -0.11692564 -0.03916874 -0.031261668 0.075300545 0.046084672 0.075994544
-0.061948244 0.01701208 -0.057176393 -0.105853684 0.0948291 0.036694854 -0.031107033 -0.020257488
0.060038663 -0.050453667 -0.03478946 0.0024857696 0.135164 0.052941404 0.11356356 0.06440903
0.07682154 -0.05298281 -0.0153764505 -0.09354544 -0.0670629 -0.100713894 -0.10480803 -0.0653857
0.051258128 -0.07513378 -0.029964885 0.0021671015 0.074022435 -0.07038928 -0.13584912 -0.036132175
-0.003255294 -0.034447473 0.03450571 -0.05550006 -0.10616613 0.07298449 -0.042558696 0.08991467
0.048548512 -0.0019380115 0.053218838 -0.021815768 0.020575434 -0.048481893 0.019622711 0.05561067
0.082085334 -0.061047915 0.034634113 -0.08797246 0.06188485 -0.059654135 0.023186455 -0.044069048
-0.029128658 -0.034732133 -0.036461778 -0.060919847 -0.050729636 -0.01575485 0.0356899 -0.103646316
-0.101980135 -0.015526219 0.025462648 -0.100479506 -0.026047273 0.039950024 0.004416798 0.0720196
-0.0085438555 0.0001265659 0.012458683 -0.040061772 -0.1534163 0.053744774 -0.0003077709 0.06359335
-0.043926693 0.048258454 0.05490069 -0.046178788 -0.039719522 0.022431083 0.019162403 -0.019265672
-0.012847655 0.071427226 -0.10656887 0.06255209 -0.1002544 -0.020755557 -0.007226786 0.051259443
0.08919104 -0.08943344 0.011465288 -0.07576649 -0.05871041 -0.07303739 -0.0034212528 0.015732707
-0.020226615 0.099333994 0.081815 -0.011434404 0.1225179 0.010509667 -0.1199601 -0.04642195
0.011248244 0.0050503495 -0.011160115 -0.04173307 -0.014174894 0.009359252 0.04433758 -0.060387056
0.02455773 -0.027432565 -0.04243169 -0.06005564 -0.048897225 0.08151543 -0.008917033 0.14031322
0.04659505 -0.13024008 0.056934886 -0.03784779 -0.0018306673 -0.06854817 -0.030097075 0.040965375
0.010234499 -0.0066644363 -0.03690359 -0.094332494 0.11127902 -0.11757173 0.035657838 -0.01566673
0.049021136 -0.045053426 -0.062386453 -0.04698341 -0.008899857 -0.0072333114 -0.07473273 -0.038240153
0.044990692 -0.07068296 -0.061704222 0.012024375 0.108629666 -0.07462157 -0.0655355 0.06877099
0.032463014 0.07673884 -0.049759652 -0.07272467 0.05579534 -0.054329563 0.014328537 -0.02453049
0.057304952 -0.12083543 0.02280381 -0.007411791 -0.03533774 0.028699411 -0.002527357 -0.029660642
0.036915835 0.012665145 -0.006080147 0.01780328 -0.075669676 0.024942 0.012153724 0.00063991855
0.109129086 -0.008967978 -0.0041790996 -0.049761668 0.002829289 -0.07069169 -0.020819122 0.0057721566
-0.019353215 0.038953524 0.026895905 0.013966123 0.004069659 0.040099017 0.0024438067 0.044951852
-0.051281884 0.06863678 -0.04161446 0.035669472 -0.045603074 0.046416946 -0.066962324 0.032268573

rnn_alpha.bias_ih_l0 f4 [512]
00000000: 9bc3 3f3d 4b99 aebd f782 823d 0aa9 7b3c
00000010: 1582 803b cd5e bcbc 3b2e 82bd 4cbd bfbd
00000020: 71fd a13d b4de 003d 0457 86bd 62e0 cbbd
00000030: 3dd2 9fbd 8727 9cbd 3289 b6bd 64ff f8bd
00000040: 3ea2 a0bc 4eb9 08be f0d7 cabd e826 eebd
00000050: 8bdc f3bb 0ba3 99bc 09ee 09bb f827 523c
00000060: 3e35 cdbd 0eef 78bc b53e 4abd 182a aa3a
00000070: f909 9d3d b5e9 a5bd 011a aabd e0c2 92bd
00000080: 99a2 ebbd bbfb 843d 14a7 40b9 9a56 59bd
00000090: e1f0 f53c af0a 5fbd 2e9c 3fbd 6b18 8abd
000000a0: a4b5 adbd bdd0 7dbd 11f8 88bd ae6c b2bd
000000b0: 4105 04bd 9dac 71bd 14c7 b1bc 076a 9c3c
000000c0: 2aed 2c3d 5a9f 61bd 45e5 d7bd 5366 d8bd
000000d0: 9aba 8fbd 501d 6039 9a65 75bc 8c9e 4c3c
000000e0: 19d6 fdbb fff3 59bc 1471 663d 15e2 103d
000000f0: 4843 60bd 0498 9e3c 7d31 52bd 156f 01bd
00000100: ae64 8ebd aef6 cfbd 073c cdbd 3848 c4bd
00000110: c52d 883d 9841 4e3d 1cbf 9a3c efdf a43c
00000120: 2c3f 38bd 9f68 003d c271 15bb 848a f8bc
00000130: a5b5 d7bd 790b 7abd d9cf e9bd 3eda 9b3c
00000140: 3d23 20bd 8e8a 8a3c 8094 f53c fa2f 97bd
00000150: b29e bebd 1691 383c dfa0 21bd 258b dc3c
00000160: 5b76 dabd d50d 0e3d 68ea 673d 187e 853d
00000170: 122b 26bd 52a9 13be 6683 cdbd 5dee 993d
00000180: fb24 d0bc a52b 143d 9ed9 913d aa5d 1bbc
00000190: 07fd 813d 72ed 8cbd a283 e9bc 88af 85bc
000001a0: 7efb 4abc 7112 11bd 6602 4c3d 51b5 3dbd
000001b0: aef7 03bc 8f66 12bd 8691 9bbd 313e 543d
000001c0: ca9e 7ebd ffa4 debd ef48 413d 208e 03be
000001d0: b606 f3bc 0084 a43c 92f2 37bd 6288 793d
000001e0: 75f6 903d 548e 0e3d cceb 97bd 4ee3 b03d
000001f0: 587b e2bd e53e d13c 057d dc3c 2594 69bd
00000200: 3325 acbd 1bcb cf3c d5bd 7dba bcac a03d
00000210: 267b 013d a0f1 373c 1a8d d8bd 4fb2 f5bc
00000220: 5e11 233d 6837 753d 9450 16bc 2145 983d
00000230: 8eec 69bc 53e9 883c 168b b73d 3a08 af3d
00000240: 0cc0 953d 8231 88bd 728a 873d 78ea d4bc
00000250: 2518 9fbc 2bb8 ba3d f82e 74bd 5eb4 25bc
00000260: 7b81 273d 5885 9abd 925d 0abb 9687 be3d
00000270: 1005 0d3c 967e 0b3d 4f93 243b a807 aebd
00000280: 8959 80bd dcda 5a3c 57b9 55bd 9882 aa3d
00000290: 9686 40bd bb0f 11bd cd6f 31bd 9c86 643d
000002a0: aa59 053e 318b ee3d e19f bfbd f172 cf3c
000002b0: 5ce3 9c3b f550 953d 9df5 073e 5a0d b2bc
000002c0: ee63 ba3d fe80 473c b05b ad3c 3185 a33d
000002d0: 0c67 64bd 610c 19bd dc28 9bbd 8977 363d
000002e0: 3857 793d d9bf 533d 2782 433d 5d37 7b3d
000002f0: f8bf a7bc 8514 533d 8563 823c 82f6 753d
00000300: 8a7c 7bbd 0703 b0bc b3be 853d ca97 fdbb
00000310: ae5f 8fbc 4a93 c13c eb4e ef3d b9a4 9d3c
00000320: d2ea 09bd d996 b3bc f8ae 893d de41 803d
00000330: 99c8 183d 907d 613d a492 b8bc 6d07 31bd
00000340: 2a4a 53bd 6546 3c3d 0ed2 a6bd eaea d0bc
00000350: 8950 0d3d 4288 333d 1138 4abd c1ef 1dbd
00000360: a2a5 5dbd 2f46 3d3d fad0 31bd 0cfd 89bc
00000370: a5b2 90b9 d151 953d 7690 ae3c 83ae 6d3d
00000380: 1d74 f13d f6d3 913c 2158 bb3d 697f c83d
00000390: 12d2 1ebd 3b7e d8bd a458 c63d 4d75 853d
000003a0: c627 1abd 4d69 c8bd eb64 b93c 0a25 6a3c
000003b0: 22d3 f1bc 4577 a73d 3cf3 bbbc 07a3 453d
000003c0: 672a bdbd 70d2 e73c 9cc7 c13d acc1 513a
000003d0: 9438 c43c b03d 2ebd d920 64bd 5fd0 27bd
000003e0: 2e54 22bd 4dac 823d 9fec c8bb 8067 f63d
000003f0: 145f 5d3c 420b ab3d 5813 c23d 97e8 80bd
0.046817403 -0.08525332 0.06372636 0.015360126 0.003921757 -0.022994423 -0.06356474 -0.093622774
0.07909668 0.031462386 -0.06559566 -0.09954907 -0.07803772 -0.07624727 -0.08912887 -0.12158087
-0.019608613 -0.13351938 -0.09904468 -0.116285145 -0.0074420623 -0.018754503 -0.002104642 0.012826912
-0.10019921 -0.015193714 -0.04937621 0.0012982516 0.07667918 -0.08101217 -0.08305741 -0.07166076
-0.115056224 0.06493326 -0.00018372788 -0.053061105 0.030022087 -0.054453548 -0.046779804 -0.067429386
-0.08481911 -0.061966646 -0.0668794 -0.08712135 -0.032231573 -0.059002507 -0.021701373 0.019093527
0.042218365 -0.05508361 -0.105417766 -0.10566392 -0.07018013 0.00021373224 -0.014977837 0.012488972
-0.0077464697 -0.013302802 0.056260183 0.03537186 -0.054751664 0.019359596 -0.051316727 -0.031600077
-0.06952797 -0.10154472 -0.10021215 -0.09584087 0.06649355 0.050355524 0.018889956 0.020126311
-0.04498212 0.031349774 -0.00228034 -0.030339487 -0.10532693 -0.061046097 -0.11416597 0.019024964
-0.039096106 0.016911771 0.029978037 -0.07382198 -0.093076125 0.01126506 -0.03946006 0.026921818
-0.10667106 0.03468116 0.05662003 0.06518191 -0.04056842 -0.1442006 -0.10034828 0.07516167
-0.025408259 0.036174435 0.07121585 -0.0094827805 0.06347089 -0.068812266 -0.02850515 -0.016319051
-0.012389062 -0.035417978 0.049806975 -0.046315495 -0.008054657 -0.03574234 -0.07596116 0.051817123
-0.06216315 -0.10871314 0.047188696 -0.12847185 -0.029666286 0.020082474 -0.044909067 0.06092108
0.07078258 0.034803703 -0.074180216 0.08637105 -0.11058682 0.025542686 0.026915083 -0.057026047
-0.08405533 0.025365403 -0.0009679471 0.078454465 0.031611584 0.0112270415 -0.10573788 -0.02999225
0.039811485 0.059867293 -0.009174485 0.0743506 -0.01427759 0.01671282 0.089620754 0.08546491
0.07312021 -0.06650068 0.06618203 -0.02599071 -0.019420693 0.091171585 -0.059615105 -0.010113804
0.040894967 -0.075449646 -0.00211129 0.09303205 0.008607164 0.03405627 0.0025112217 -0.08497554
-0.062670775 0.013357844 -0.052178707 0.0832569 -0.04700335 -0.035415392 -0.043319512 0.055792436
0.13022485 0.116476424 -0.09356666 0.025323363 0.0047878455 0.07290832 0.13277288 -0.021734882
0.09101091 0.01217675 0.021161884 0.079843886 -0.055762336 -0.03736532 -0.07576153 0.04454759
0.060874194 0.051696632 0.047731545 0.061332095 -0.02047728 0.05153324 0.015916595 0.06004954
-0.061398067 -0.021485819 0.065305136 -0.007739042 -0.017501678 0.023629803 0.11684974 0.019243585
-0.033671208 -0.021922516 0.06722826 0.06262563 0.03730068 0.055051386 -0.022530861 -0.043219972
-0.0515844 0.04596557 -0.081455335 -0.02550264 0.034500632 0.043831117 -0.049369875 -0.038558725
-0.054113038 0.04620951 -0.043412186 -0.016844295 -0.0002759892 0.07290996 0.021309119 0.058027755
0.11789725 0.017801266 0.09147669 0.097899266 -0.038774557 -0.105709516 0.096848756 0.06516514
-0.037635587 -0.097857095 0.02263113 0.014291057 -0.029519621 0.08177046 -0.022943132 0.048251178
-0.09236603 0.028298587 0.094619006 0.00080015766 0.02395276 -0.0425393 -0.05569539 -0.040970203
-0.03963106 0.0638052 -0.006131723 0.1203146 0.013511438 0.08351757 0.09476346 -0.06294363

rnn_alpha.bias_hh_l0 f4 [512]
00000000: 77bc cebd a6c1 babb 4b4c 97bd 9129 4d3d
00000010: b0d7 71bd 43f8 a2bd a640 11bd 7f1f d6bc
00000020: 3f71 19bd 7e38 5cbb 93a2 cfbd 1915 e2bd
00000030: dbf1 6a3c ba07 863d fde4 a2bc d696 f4bd
00000040: 2091 1abc cd86 6fbd 8b39 dabd 9a1f 0fbd
00000050: 0ac4 9cbb 73a4 b0bd d039 31bd a7ee 99bd
00000060: 437f 8fbd e87e 14bc 6ed7 0ebe 9535 44bd
00000070: 4d5e b43d f924 9ebd 8d5b c8bc bb80 77bd
00000080: 833e 4cbd 7090 a3bd e0b2 e53b b532 a9bd
00000090: 9664 463d c2dd d13c 2a9a 28bd 7016 3fbd
000000a0: 334a 303d f43e 1b3c 2c16 00be 032c 113d
000000b0: d4c4 3bbc 70be bbbd 5450 f4bc 14d6 8b3d
000000c0: f62f 6b3d cdbe a0bd 5799 bfbc 7d44 bcbd
000000d0: 9e1a ca3a 3340 61bc c668 c9bd 8f99 a8bd
000000e0: 9115 79bd 8616 c4bd ce60 a4bd 4c6d 86bd
000000f0: 9291 3abd d75d 51bd b910 87bd ac91 c7bc
00000100: eeb2 25bd 8a35 683c 19dc 21be b6f3 72bd
00000110: 1ea8 7e3c 8d02 5dbc 0b70 a1bd a868 4bbd
00000120: cde8 9fbc c99c 9d3d dc58 e8bd 6698 0e3d
00000130: c8d5 a5bd 16c7 dfbc 75cb 22bd 7a45 a93c
00000140: c69a 99bd 05c7 a6bc 6cda f4bd f947 07bd
00000150: f51b dcbd 5c25 183c 906e b6bb db83 a1bd
00000160: 183e d0bd 6eab a3bc 8ca0 073d 1c8a 9a3b
00000170: ec96 483d 27b4 a8bd 74fd 00be d8fb a8bc
00000180: 8331 ddbd 8a01 06b9 03c1 8abc 269b 243d
00000190: a167 553d 428a aabd 4105 f5bd 478f 1d3d
000001a0: 1fb2 19bc c039 823c ae59 483c 9431 b1bd
000001b0: 2c7e 09be 9c8c 27bd 9575 2ebd 0f0e ac3d
000001c0: a4bb 62bc 40b3 ffbc 94c6 fc3d 5788 bcbd
000001d0: 5f24 eebd 1c5b ebbd b988 debd e3a8 9abd
000001e0: d1f9 34bd 87b8 00bb db87 e4bd 1007 6bbd
000001f0: d50a 023d 5d44 9cbc 0b8a b83d e30e cc3c
00000200: 583a 59bd 0aca a7bc 9b97 cf3d 4a3d e93c
00000210: 2d3c 563d 1689 5f3d 7881 883c bbab 433d
00000220: c692 033e 9be1 94bc 066d 87bc a902 9e3d
00000230: 1307 8ebd 69ed 9dbc fff2 ab3d fbc3 823d
00000240: 8bd9 ecba 1348 dbbc a124 1d3b 8eca b13c
00000250: 8b8e a03d b985 47bd ddc5 8fbd afe5 a3bd
00000260: 124f 92bd 6877 ae3d 5482 4cbb 0843 22bc
00000270: 172e fb3d 8536 d9bc 3736 033e a68e 5fbd
00000280: 9938 bc3d 4e26 f5bc 52a9 5bbd 61a8 41bd
00000290: 01ff 31bc f243 a23d 01cd 60bd cf28 8e3d
000002a0: c87e 733d ea13 363c 7bb6 b33c 6321 d63c
000002b0: a6b9 f9bd 6ac3 ac3c 7b7f a23d 20d2 5c3d
000002c0: ba1e 873d 692f fd3d 2812 503d 9c55 cd3c
000002d0: af4e c8bc 6a0c f7bb 963e 233c a8d8 afbd
000002e0: 4193 69bd a262 26bd 3975 6dbd c511 9f3c
000002f0: 0f25 103d 545a 603c f90b e03d cf24 66bd
00000300: d597 863d f654 303d 867d 1fba 2d95 3b3d
00000310: 018f 143e 0cdc 9b3d 8ac2 4a3d 357b d6bc
00000320: 53a0 debc 8112 513d 1fd4 993c 44c9 813d
00000330: 9e1e bcbd 5a42 a83d 89c2 633d c7f9 dd3d
00000340: bd89 db3c 3d22 813d 80b4 1bbd 63af c93d
00000350: 318d 9dbd 8093 3cbd bc7f 1fbd a6c0 cfbd
00000360: ee87 a03d 3ebf d53a db94 01bd ab6b f4bc
00000370: 59d4 143c df93 e33c 2b6b bcbc 7f1f 06ba
00000380: 240c 0dbd 4d59 10bc bf7b cc3d 512c e23d
00000390: 9546 0b3b 783e 2f3c 27cb a93b a9e6 ac3d
000003a0: 0aaa 4a3c 35c4 d8bc f362 ba3d 221e fc3d
000003b0: b399 78bd b4ef 8abd e90c d43d 1c7e a73d
000003c0: f3bc 1fbd ec34 a53c 1461 2b3c 26ec 273d
000003d0: 3ac5 59bd 586e 4ebd 306c 923d 5acc 933c
000003e0: 7e34 12bd 8867 8cbc d2c0 2a3d f3f2 953d
000003f0: 78f0 0e3d 44fa cb3d 6f14 1c3c cf3f c6bc
-0.100945406 -0.005699354 -0.073875986 0.05008847 -0.059043586 -0.079575084 -0.035462044 -0.026138065
-0.037461516 -0.0033603008 -0.101384304 -0.1103918 0.014339889 0.065444425 -0.01988458 -0.11942832
-0.009434015 -0.058478165 -0.10655507 -0.034942247 -0.004784112 -0.08625116 -0.043268025 -0.075162224
-0.07006695 -0.00906346 -0.13949367 -0.047902662 0.08807049 -0.07721896 -0.024457717 -0.0604255
-0.049864303 -0.07986534 0.007009849 -0.08261625 0.04843577 0.025618438 -0.041162647 -0.046652257
0.043039512 0.009475458 -0.12508458 0.035442363 -0.011460502 -0.091671824 -0.02982346 0.068279415
0.057418786 -0.07848892 -0.023388548 -0.091927506 0.001541931 -0.013748216 -0.09834437 -0.08232414
-0.060811583 -0.095746085 -0.080262765 -0.065638155 -0.045548983 -0.051114883 -0.065949865 -0.024361454
-0.040453844 0.014172921 -0.15806617 -0.059314452 0.015543012 -0.013489378 -0.078826986 -0.049660355
-0.019520188 0.0769592 -0.113450736 0.034813307 -0.08097416 -0.027316611 -0.039744813 0.020663012
-0.07500224 -0.020358572 -0.11955723 -0.033027623 -0.1074752 0.009286251 -0.0055673793 -0.078864776
-0.101680934 -0.019979205 0.033112094 0.004716171 0.048972055 -0.08237486 -0.12596685 -0.020627901
-0.10800459 -0.00012779809 -0.016937738 0.040187024 0.05210078 -0.08327152 -0.11963893 0.038466718
-0.009380846 0.015896678 0.012228413 -0.086520344 -0.13427037 -0.04090558 -0.042592604 0.08401119
-0.013838682 -0.031213403 0.12342563 -0.09205692 -0.11628031 -0.11491987 -0.108659215 -0.07551744
-0.044183556 -0.0019641237 -0.11158725 -0.057379782 0.03174861 -0.019075567 0.090107046 0.024909442
-0.053034157 -0.020482082 0.10136338 0.028471608 0.05230348 0.054574095 0.016663298 0.047771197
0.12848958 -0.018173983 -0.016531479 0.07715351 -0.06934943 -0.019278245 0.08395957 0.063850366
-0.0018070204 -0.026767766 0.0023978131 0.02170303 0.07839688 -0.048711512 -0.07020161 -0.08002793
-0.07143988 0.08518869 -0.0031205611 -0.009903677 0.1226465 -0.026515255 0.1281365 -0.0545794
0.09190483 -0.029925492 -0.053628273 -0.04727972 -0.01086402 0.07923116 -0.054883007 0.06941377
0.05944708 0.011113146 0.0219376 0.026138967 -0.12193613 0.021089274 0.07934471 0.05391133
0.065976575 0.123625584 0.050798565 0.025065236 -0.024451582 -0.0075393217 0.009963652 -0.08586246
-0.057025198 -0.040621407 -0.05797312 0.019417653 0.03519159 0.013693411 0.109397836 -0.056187447
0.065719284 0.043049775 -0.0006084073 0.045796562 0.14507677 0.0761033 0.049501933 -0.026181797
-0.027176058 0.051043037 0.018777905 0.063372165 -0.09185527 0.082157806 0.055605445 0.10838657
0.026799077 0.063053586 -0.038013935 0.098479055 -0.07692946 -0.046039104 -0.038940176 -0.10144167
0.078384265 0.0016307605 -0.0316361 -0.029836496 0.009083831 0.027780471 -0.02300032 -0.00051163876
-0.034435406 -0.008810353 0.0998454 0.11043609 0.0021251787 0.010696046 0.0051816883 0.084424324
0.012369642 -0.026460746 0.09100904 0.12310435 -0.060693454 -0.06784001 0.10354025 0.0817835
-0.038998555 0.020166837 0.010460157 0.040996693 -0.053166606 -0.0503982 0.071495414 0.018041778
-0.03569459 -0.017139211 0.041687794 0.073217295 0.034897298 0.09959844 0.009526356 -0.024200348

rnn_beta.weight_ih_l0 f4 [512, 64]
00000000: cff0 a23b 4d4b 85bc 7564 a83c cd96 25bb
00000010: 920d 22bd 7d88 b5bb da97 79bc bd17 2dbc
00000020: 0fd0 933c 86f0 62bd e7d5 bfbd 321d b5bd
00000030: 58aa d2bd ff70 b93c cc1a 683d 9110 3bbd
00000040: 20c4 f4bc bad1 073d 19ad bb3c b2c4 c33d
00000050: f11d 6cbd b8b4 d9bc 6484 2cbc f928 8fbd
00000060: 85d0 7d3d 0122 81ba acfd 153d d9ce 183d
00000070: a39e a0bc 01fa 94bd 9036 c03c dc09 74bd
00000080: 9253 493d ec03 2b3d 822a 84bd f068 483d
00000090: 5a74 2d3d 7d3e b83d 1a08 afbb 4771 11bc
000000a0: 9173 8ebd a1ce cabc e3e3 133d 2a09 c5bd
000000b0: 2768 6c3d cf61 633c 7f2f 363d 030f c13d
000000c0: c4b1 afba 363d d03d e9ef c5bc 8a18 c03c
000000d0: e0d2 9e3d 3db9 c43c 1d7f b7bd f63e 663d
000000e0: afec b7bc 996f 52bc c3df 9ebd 0253 10bd
000000f0: 7417 773c 3d8f c9bc a778 fe3b 4bf8 713d
00000100: 6e71 f63c 4396 f63c 4845 6abd cb26 eabc
00000110: 6869 9d3b 9b93 ab3c 9e18 9d3c e9e3 d33c
00000120: 5465 d73d ee64 6bbd ede2 a9bd fd7f 35bd
00000130: d384 21bd 9e7f 403d f64f 23bd adf4 9d3d
00000140: 3fe4 8cbd b892 a2bd b871 c43d b0e7 5d3d
00000150: aa74 45bc 72c1 2c3d 986f 89bd bf7c 3d3d
00000160: ee65 bc3d bb4b c1bd 94da 9c3d b09f 5e3d
00000170: 015a 833d 755f 25bc a9a8 bf3c 3048 85bd
00000180: e942 56bc 37ac a53d cc21 09bd 5728 6bbd
00000190: 2d42 89bd 4685 78bd e469 cc3d 8c30 adbc
000001a0: cfab 51bc bc60 9abd d701 debb 18b4 06bd
000001b0: 603c b43c 8bc1 9fbc cfa2 02bd dd1e 4b3d
000001c0: d19d 4c3d 48e8 153d 0c07 02bd cde0 d33b
000001d0: eb0d 8b3d 8b75 713c 97e7 0ebd fa4a edbc
000001e0: df9f 90bd 9ff8 cf3c c111 db3c 0144 42bd
000001f0: e3a9 183d 5bd2 c0bd a422 be3b 86ec 343c
00000200: 27de 023d e5d3 0f3d 8a59 1cbd fea4 7dbd
00000210: 6ca6 98bd da2f b7bc f27c acbd eea3 f4bb
00000220: 650d d0bc 89c7 f3bc f2fc b23a 5372 59bc
00000230: 632d 233d 0544 c0bd 1b41 74ba 682b d6bc
00000240: f002 233d 555c bfbd e22a 7dbc d662 cc3a
00000250: a67d 1a3d 0d0c 993d 2962 81bd 0e2a 3f3d
00000260: 6697 d1bc 153c 163d 5f87 5abd 8209 b2bc
00000270: 00a4 a6bd 34a4 983d 8ca9 f93c 8f63 23bd
00000280: ec79 2c3d 888e 39bb a795 1dbd babd ab3c
00000290: e5a8 d53c a16c 4ebd 22d2 0b3d 84db 01be
000002a0: d954 b33d ed3b 9ebd 4516 e63c 9ed4 493d
000002b0: 0229 803d 0087 2abd dc3a 2dbd 3300 cabb
000002c0: b17a 573d d848 603c d6d4 ff3b 22b6 893d
000002d0: 8423 73bd 4ff5 1f3d 942f c33b f640 393d
000002e0: d1b7 943d 4e43 02bc 1ce6 a73b 698c c5bd
000002f0: 116f b53d b924 a43d 5466 423b 8338 4b3d
00000300: f7b3 bc3c 566c 71bd fa28 5e3c 63d9 18bd
00000310: 4948 8e3d 1dec 18bc 508a fe3c 7ba9 48bd
00000320: 683e 69bd a8a0 b13d ef24 d4bc 16b9 2c3d
00000330: 64be 85bc 0b0a debc 00b1 183d c43b f93c
00000340: f07b 8dbd 2bd1 9b3c f7ff 42bd 39d3 da3d
00000350: 9c1e f53c 22ab b53d 247d 813d cbe4 bdbd
00000360: 52bc b2bc 04f8 cbbd 54f8 79bd 7b8e 1e3d
00000370: 30df 4b3d daa3 a53d 4987 ba3d 330e 9dbd
00000380: 75ae c83c 492f 1a3d f14e 9eba ff02 a23d
00000390: b007 9bbc 379a 82bc 256d d03d d834 493d
000003a0: 73a9 b5bd ec76 653d 093c a2bd 1102 cebb
000003b0: 467c 2b3d 9d21 493c e478 9ebc ba1f 4c3d
000003c0: fa61 5e3c fe51 143d ca92 a13d 5ad2 733d
000003d0: ffb0 9abd 1695 e3bd 601a 55bd d339 173d
000003e0: edb5 87bd df95 673c 1ad6 2abd d76c 793d
000003f0: ea8a c23c f87c d5bd c6ab 993d f7fb 96bd
0.0049725543 -0.016271258 0.020555714 -0.0025266886 -0.039563723 -0.0055399523 -0.015233958 -0.010564742
0.018043546 -0.055405162 -0.093669705 -0.08843459 -0.10286397 0.022636889 0.05666618 -0.045670096
-0.029878676 0.033158995 0.022909688 0.09559001 -0.05764574 -0.026575431 -0.010529611 -0.06990237
0.061966438 -0.0009852053 0.036618873 0.03730664 -0.019606894 -0.07274247 0.023463517 -0.059579715
0.049151964 0.041751787 -0.0645342 0.0489282 0.04234729 0.08996294 -0.005341542 -0.008877105
-0.06955636 -0.024756731 0.036106 -0.096208885 0.057716515 0.0138783 0.04447889 0.094266914
-0.0013404419 0.10167925 -0.02416225 0.023449201 0.07755065 0.02401411 -0.08959792 0.056212388
-0.022451727 -0.01284399 -0.07757523 -0.035235412 0.015081275 -0.024604434 0.0077658477 0.05907468
0.030083384 0.030100947 -0.057194978 -0.028582951 0.004803825 0.020944407 0.019176777 0.025865512
0.10517374 -0.0574693 -0.08295236 -0.044311512 -0.03943331 0.046996705 -0.03987118 0.07712684
-0.06879472 -0.07938141 0.09592003 0.054176033 -0.012051741 0.04217667 -0.06710738 0.046261545
0.09199129 -0.094382726 0.07658878 0.05435151 0.06413651 -0.0100935595 0.023395853 -0.06507909
-0.013077476 0.08089488 -0.033479497 -0.057411518 -0.06702075 -0.060673974 0.099811345 -0.021141313
-0.01279731 -0.07537982 -0.0067751217 -0.032886595 0.022001445 -0.019501468 -0.031893548 0.04958998
0.049955193 0.036598474 -0.031745 0.0064660073 0.06789764 0.014737497 -0.03488883 -0.028966416
-0.07061743 0.025387106 0.026741864 -0.047428135 0.03727139 -0.09415122 0.0058024693 0.01104272
0.031950142 0.035114188 -0.03817133 -0.061924927 -0.074536175 -0.022361685 -0.08422269 -0.007465831
-0.025397012 -0.029758232 0.0013655706 -0.013271886 0.039838206 -0.09387974 -0.0009317563 -0.026143745
0.039797723 -0.09343783 -0.015452119 0.001559342 0.037717484 0.07473002 -0.06317551 0.046670966
-0.025584888 0.036678392 -0.053351756 -0.02173305 -0.08136749 0.07453194 0.030476354 -0.03988987
0.04210846 -0.0028313715 -0.038472798 0.020964492 0.026081512 -0.050396565 0.034135945 -0.12681395
0.08756418 -0.07726274 0.02808679 0.049275033 0.062578216 -0.041632652 -0.04229246 -0.0061645745
0.052607242 0.013689242 0.0078073544 0.06724192 -0.059360042 0.039052304 0.0059565995 0.045227967
0.07261623 -0.007950617 0.0051238667 -0.09645922 0.08859075 0.08014817 0.0029663043 0.04961444
0.023035033 -0.058941208 0.013559574 -0.03731669 0.06947381 -0.009333638 0.031071812 -0.048989754
-0.05694428 0.08673221 -0.025896518 0.0421687 -0.016326137 -0.027104398 0.037278175 0.030424006
-0.06908405 0.019020637 -0.04760739 0.10684819 0.029921822 0.088705316 0.06322697 -0.092721544
-0.021818314 -0.099594146 -0.06102784 0.0387101 0.049773395 0.08087893 0.09107835 -0.07668724
0.02449725 0.03764275 -0.001207797 0.07910728 -0.018924564 -0.015942676 0.10177068 0.04912266
-0.088702105 0.056021616 -0.07921607 -0.0062868674 0.041866563 0.01227608 -0.019344755 0.049834944
0.013573164 0.036211006 0.07889326 0.05952678 -0.075532906 -0.1111242 -0.052027106 0.03692038
-0.066264965 0.014134853 -0.04170809 0.060894813 0.02374788 -0.104242265 0.07503466 -0.07372277

rnn_beta.weight_hh_l0 f4 [512, 128]
00000000: 08e9 b73b 1823 283d 19a8 43bc cfd5 863d
00000010: 0642 69bd 1fba da3d 6cb3 8e3d 320d ab3c
00000020: ae3d c7bd db0f dabd 2501 893c 2074 8cbd
00000030: 5431 6f3d 1a1c 273d ca69 b53d a763 803b
00000040: 6941 92bd 4e68 abbd ff7b 03bd ce47 62bc
00000050: aa6d d9bd adb3 c6bc e335 7fbb 642c 8abd
00000060: b95f 053c bb67 493d 951f 8cbc c4ff 393d
00000070: 1a30 6e3d 9478 0fbd 02c3 0f3d 4cf3 88bc
00000080: 56b9 29bd 505c 243c e512 6f3d f87d d43c
00000090: 06fc 533d ae66 85bc b9e6 c73c 998f 3cbd
000000a0: b6ed 8e3c 0b47 52bd a9c3 3b3c a837 a3bb
000000b0: 12ab 1d3c 6e61 58bb da91 a2bc 5549 20bd
000000c0: abbd dd3c 6137 abbd ee08 44ba b4a1 183d
000000d0: 4623 ddbd e567 dfbc 2625 efbd b157 53bb
000000e0: 629b 97bd fb99 b53c 4a85 cebd c263 79bd
000000f0: 996e 963c 49e5 6e3d cf89 00bd c4a2 e1bb
00000100: 931a 84bd d39a b0bd c545 073e 8932 8c3d
00000110: e7df 09bc 16a7 0abd d3b1 32bd 54b7 1a3d
00000120: 018d 7ebb 9a13 ad3d 5f33 02bc 1e97 67bd
00000130: eb7f 283d 9d51 883d 9d0e 76bd f00e c83d
00000140: f80d 593d e6b4 b4bd 8a58 783d 836a a83d
00000150: 9b68 e63b 48c5 bbbd a9d7 173d 5005 5cbc
00000160: d5c6 3cbd 9b02 de3c 4920 5f3d 7b55 b03d
00000170: 4ecb 063d 8acb c1bd d305 a8bb 68ee 013e
00000180: bcc0 943d b31f 003d 836d 0fbc c54a c23b
00000190: edaa 473d 3a15 98bc 36d7 09bd 37ab c73d
000001a0: 140e 253d b565 463d 19e8 9dbd 7dd8 8939
000001b0: 23eb b03d 7794 debd cc05 443d e31a 023d
000001c0: 515b 44bd 7166 cf3d 3b34 6dbd feb1 88bd
000001d0: 5e08 903c 50b0 e7bb fbd5 9ebd 5c2a ff3d
000001e0: 3129 50bd d269 27bc 4963 81bc 27e4 b1bd
000001f0: 178b b4bc c0dc 05bc b34f 2bbd 2be1 a4bd
00000200: fa6d 253c b96d cebc 9bb1 d83c 522b 373d
00000210: fde2 e4bd e815 ac3c f9c2 0abb fd06 2e3d
00000220: e9bf 00bb 1683 bd3b 6e82 2cbd e946 51bd
00000230: 403b d9bd 4886 85bc 2f74 88bd a5cb ed3c
00000240: 3c1a 92bd 2813 5fbd bb91 ca3d 5ce6 103d
00000250: 77ca a3bd 9a4e 6cbd b6be b93c cfc9 3bbc
00000260: 1c38 4ebd 776e d5ba 9730 043e 118d d0bc
00000270: 4c81 bd3d 6d9e 55bd 7f6f 8d3d 6781 293d
00000280: 662a 95bc 0fe6 1a3d 2ce1 cebc ad31 593d
00000290: a29a e63d 13d7 6cbc cf08 9e3d e563 9dbd
000002a0: b67c aa3d 3289 fdbd 5e18 303d edca 4b3c
000002b0: 38cf 8c3d a4b0 ba3d 6730 c5bd e87f d93b
000002c0: b0e6 533b bed8 823b 8b8d aebd 9ae2 c1bc
000002d0: 3868 e8bd 2989 8fbc 9913 cabd 5fe8 c7bd
000002e0: 40a2 c73c db52 0f3d 096a 153d 4550 04bb
000002f0: a4d2 ee3c 6ed4 883d bdc9 65bc 5514 863c
00000300: fb29 14bd eee9 88bc e91b c83c c3de b43d
00000310: 8588 f0bc dd48 913d 9e1e 56bd 6b6a 023e
00000320: 12f6 73bd d0c7 f13d cf1f dcbc b050 5b3d
00000330: 19e7 603d a24b d1bc b5bb 9cbd 14ea 43bc
00000340: f124 ccbc 0574 b83c 3db0 d3bc 7bd8 fc3d
00000350: 2872 d4bc 91a1 313d 7fde 4f3d cb0f 6d3d
00000360: 5cc9 9a3d e55f 9ebd fbfc 613c 67ab 953d
00000370: 2a87 883c 4d34 1abd 4ad6 1d3d 4f38 d93d
00000380: 71ae d0bc 912c f7bd f39c d33d 47f5 b0bd
00000390: 879e 4abc 5cb4 313d 19ad c6bb 68e5 9f3d
000003a0: 09d9 f23c 2b7a 8cbb 944e 62bd 9757 a73c
000003b0: 13d4 e83b 2c32 aabd 8408 e2bb da4a 2d3c
000003c0: 8850 df3d aae8 083d c7fa d8bd f8af b23d
000003d0: 8602 183c 7daa 093d ab3f 423c 12a5 e8bb
000003e0: a76f 8c3d 22c1 063d 93cd 3d3d e8d2 d0bd
000003f0: d3dc 1a3d 985c 833d 439e 073c c2f2 343c
0.0056124963 0.041049093 -0.011941933 0.065837495 -0.05694773 0.10680031 0.06967816 0.020880315
-0.09728561 -0.106475554 0.016724179 -0.068580866 0.058396652 0.040798284 0.08858068 0.0039181295
-0.07141382 -0.08369504 -0.032100674 -0.013811065 -0.1061662 -0.024255598 -0.003894203 -0.06746748
0.008140498 0.04917119 -0.017104903 0.045409933 0.058151342 -0.0350271 0.035098083 -0.016717575
-0.041436516 0.010031775 0.05836763 0.025938973 0.05175402 -0.016284313 0.02440201 -0.046035383
0.017447334 -0.051337283 0.011460223 -0.004981 0.009623306 -0.0033017057 -0.019844938 -0.039132435
0.02706798 -0.08360172 -0.0007478137 0.037263587 -0.107977435 -0.02727122 -0.116770074 -0.0032248313
-0.07402684 0.02216815 -0.100840166 -0.060886152 0.018363284 0.058324132 -0.031381425 -0.0068858583
-0.06450381 -0.086232804 0.13210209 0.06845576 -0.008415199 -0.03385075 -0.043626618 0.03777249
-0.003884137 0.08451004 -0.007946818 -0.0565406 0.041137617 0.066561915 -0.06007253 0.09768474
0.052991837 -0.08823566 0.060631312 0.082234405 0.007031513 -0.09168488 0.037070904 -0.013429001
-0.04608806 0.027100852 0.05447415 0.08610054 0.03290873 -0.0946265 -0.0051276474 0.12688601
0.07263324 0.03128023 -0.008754137 0.0059293234 0.048746992 -0.01856481 -0.033652507 0.097494535
0.04029663 0.04843684 -0.07710285 0.00026291973 0.08638599 -0.10868161 0.04785709 0.031763922
-0.04793865 0.10126961 -0.05791114 -0.06674574 0.017582115 -0.0070705786 -0.07755657 0.12459251
-0.050820533 -0.010218101 -0.015794413 -0.08686095 -0.02203898 -0.008170307 -0.041824054 -0.0805076
0.010097021 -0.025198804 0.026451876 0.044719048 -0.11176107 0.02100654 -0.0021173342 0.042487133
-0.0019645637 0.005783449 -0.042116575 -0.051093016 -0.10607004 -0.016299382 -0.06662785 0.02902777
-0.0713391 -0.05446163 0.09891077 0.035375938 -0.079976015 -0.057692148 0.022673946 -0.011461689
-0.05034648 -0.0016283531 0.1290916 -0.02545789 0.09253177 -0.05215304 0.06906032 0.041383173
-0.018208694 0.037817057 -0.025253855 0.05302589 0.112599626 -0.014455575 0.07716524 -0.07685069
0.08324568 -0.123796836 0.04299199 0.012438518 0.06875461 0.09115723 -0.09628373 0.006637562
0.0032333545 0.003993123 -0.08523091 -0.023667622 -0.11348003 -0.017521458 -0.09867019 -0.09761118
0.024369359 0.034991127 0.036478076 -0.0020189446 0.029153176 0.06681143 -0.014025149 0.016367117
-0.03617285 -0.016713109 0.024427371 0.08831551 -0.029361973 0.07093976 -0.052275293 0.12735908
-0.059560843 0.11805689 -0.026870636 0.053543746 0.054907892 -0.02554876 -0.0765299 -0.011957664
-0.024919959 0.02251626 -0.025840873 0.12345978 -0.02593334 0.043366972 0.0507493 0.05787639
0.075579375 -0.07733134 0.013793225 0.07308083 0.016666014 -0.037647534 0.03853444 0.10606443
-0.025473805 -0.12069047 0.1033267 -0.08640533 -0.012366897 0.043384895 -0.0060631153 0.07807428
0.029644506 -0.0042870245 -0.05525072 0.020427508 0.0071053593 -0.08310351 -0.006897988 0.010576928
0.10904032 0.03342501 -0.10594707 0.087249696 0.009277945 0.033609856 0.011856 -0.007099756
0.068572335 0.03289903 0.04633863 -0.10196477 0.03780825 0.06414145 0.008277479 0.011044206

rnn_beta.bias_ih_l0 f4 [512]
00000000: 2864 d33d bc83 c43d ab16 753c ac46 723d
00000010: dcbf 60bd 85ad 8dbc 7503 d43c 8019 5b3c
00000020: 4ca8 0d3d c532 953d 1d18 51bd 5e5b 213d
00000030: c887 613d 1693 19bd 4bd0 bf3d 89ed 2bbd
00000040: 69d0 f03c 7769 943d be31 8bbd f1f9 613d
00000050: 6f14 45bd 9d75 dbbc ec75 a23d ca0e 85bb
00000060: d1bb 50bd b3ce 59bb ebf1 973c 4ad1 6e3d
00000070: 864d 113d 7027 11bd 667c 3fbd d576 8ebc
00000080: 82b4 843d e3d6 22bc 5ab9 6d3d fa55 a93d
00000090: d84a fb3c 198e 5a3d cadf d6bc d759 4b3d
000000a0: 1b8c 86bc 2e7e c43d 85b6 a53c ed6a 7dbc
000000b0: a3f3 f6bc 9b6d 21bd 3351 e73c 9c11 713c
000000c0: 6538 0abd d148 083d 8c40 8d3d 48ad 08bd
000000d0: e429 9c3d 9030 d43b aa68 753d 611d 96bd
000000e0: f445 9d3d a786 693c 80f1 bc3d 42ca 1cbc
000000f0: 160d 2fbd 321c ad3d e47e 153d 5c53 b03b
00000100: cb55 e33c 0c71 2b3d 2e25 69bd 5b55 353d
00000110: 51b3 9ebc 1d93 c03c dae0 36bd f739 30bd
00000120: 3104 6a3c 524e 39bd 92c2 b23d d05b 52bd
00000130: 2dd8 44bd 2760 c53d beb4 973d e440 48bb
00000140: 4339 ba3d 97c9 58b7 0d5e ae3d c335 cd3d
00000150: 76e2 b33d 7b10 b93d f05f 823d cbe4 79bd
00000160: 52bf 513d 6030 8c3c 6e13 9d3d 5ccf e33c
00000170: bf04 85bd a015 913d f4bf 94bd 2a34 87bc
00000180: b1bf 8bbd 34bb 03bd 506e 7dbd 6da1 993d
00000190: 8620 58bd 3e30 82bd a0db 143d f488 943a
000001a0: da34 9a3d 0983 f43c ba76 6bbd de6d 233c
000001b0: 124c e23c e663 8d3d f86f 89bd 1098 8a3d
000001c0: 9a5e 623d 6846 343d 7bd9 373a 7f29 dc3c
000001d0: 0075 17bd ad28 f63c fc96 b43d f30d 733d
000001e0: aa13 37bd 44ba 64bc 4008 863d 2dd7 68bd
000001f0: 0610 a03d f88f 19bc 183f 64bd e9b5 923d
00000200: e461 8e3d a68a 5d3d d238 cc3a 5751 2cbd
00000210: 903b bcbc 9368 c43d a5c2 24bc 0fa8 e23d
00000220: 9892 0abd 7e8f 49bd 1df7 163c 73ce 24bd
00000230: 01d6 e43d 7e07 1a3d f097 fb3d 3011 f03d
00000240: 1b5b 933d 93c0 65bc 2fd4 9cbd 82a3 8a3d
00000250: 8679 2b3c c575 ec3c 2199 e53d 4f93 b03d
00000260: 8a3c 983c 5672 c43d ffdf aebc 8c5f 133d
00000270: 7e31 acbc 697d e5bc f59b e13b da86 9a3c
00000280: 05b1 e13c 61ab 0abd cc6b 4a3d 0b30 a039
00000290: a89a 9cba adca 9cbd 4391 213d da71 9a3c
000002a0: 4881 d63d 2fa1 0d3d 7bea 75bd 9991 52bd
000002b0: 2511 ce3c fb67 cd3c 01f9 e03b a61c a93c
000002c0: dbd9 2f3c 4a7d c1bc 0d59 863c 321f 213d
000002d0: 386e 0bbd f086 c33c e755 b1bc 0bd6 03bd
000002e0: e62f 3a3d 6e5f e5bc 58b8 3cbc 0f19 89bd
000002f0: cda2 43bc 7cb5 dc3c 2415 613c 28c7 81bc
00000300: c37c 75bc 8a5f b63d 5857 01bd 68cd 873d
00000310: 28c8 213c 078b 0dbd cb6b 07bd 2437 fa3d
00000320: 51d1 9abc 86da 673d 314d 2f3d 85c2 023e
00000330: b8fa c0bc 49ac 403c 901f 663b f143 e13d
00000340: f7ed 5d3d 2ccc 413d f5ba 9fbc ea49 c63c
00000350: c2a4 5abb 1dc9 b9bc 08f9 4dbd 902e c83d
00000360: 6f9a df3d 7817 abbc 9773 da3d 2146 39bd
00000370: 1631 8b3c ee42 263d 04d5 d3bc cd0b 003b
00000380: a0fc 953d 2f64 1c3d 8797 1d3d 5720 c93c
00000390: 39f6 c23d ab43 a8bd 0638 12bd 075b 983b
000003a0: 95df 53bd 63eb afbd fa9a 073d 25ba 4ebd
000003b0: f41a 013c 2082 383d 0a27 b83d 20f4 debc
000003c0: 373b 9f3d ae90 523d 71f1 46bd 3080 8b3d
000003d0: b54b cd3d cb3f 04bd 6889 893a 0c3e 243d
000003e0: be7f b63d f86a 693c 85a0 783d 4c20 dd3d
000003f0: a5ca 8f3c d1c5 a73d 3969 b8bd ae18 8a3d
0.10321838 0.09595439 0.014959018 0.05914943 -0.05487047 -0.017294655 0.025880555 0.013372779
0.03458433 0.07285074 -0.051048387 0.039393775 0.05506113 -0.037493788 0.093659006 -0.041974578
0.029396253 0.07246678 -0.06796597 0.055170003 -0.04811519 -0.02678948 0.07932648 -0.004060601
-0.050960366 -0.0033234775 0.018547973 0.058305062 0.035474323 -0.035438 -0.046749495 -0.017390648
0.06479742 -0.009938928 0.058038093 0.08268352 0.030675337 0.05335817 -0.026229758 0.049646225
-0.01642423 0.09594379 0.020228634 -0.015467388 -0.030145472 -0.03941117 0.028236961 0.014713671
-0.03374519 0.033272568 0.06897077 -0.03336838 0.076251775 0.0064755157 0.05991427 -0.07329822
0.07679358 0.014253295 0.0922575 -0.009569706 -0.04273709 0.084526435 0.036497965 0.005381031
0.02775087 0.041855857 -0.056920223 0.044270854 -0.019372614 0.02350765 -0.04464803 -0.04302403
0.014283226 -0.045240708 0.087285176 -0.05135709 -0.048057724 0.0963748 0.07407521 -0.0030556256
0.09092953 -1.292154e-05 0.085140325 0.1002002 0.08783428 0.090363465 0.06365955 -0.06100921
0.051207848 0.01711291 0.076697215 0.027808838 -0.06495046 0.07084203 -0.07263175 -0.016504366
-0.068236716 -0.032160953 -0.06187278 0.07501493 -0.05276539 -0.06356858 0.036342263 0.0011332319
0.07529612 0.029847639 -0.057486273 0.009974925 0.027624164 0.0690382 -0.067108095 0.06767285
0.055266 0.044012457 0.0007013303 0.026875256 -0.036976814 0.030048693 0.088178605 0.059339475
-0.044696487 -0.013960425 0.06544542 -0.056845833 0.07815556 -0.009372704 -0.055724233 0.07163603
0.06952265 0.054087304 0.0015580899 -0.04206976 -0.02297762 0.095902584 -0.0100561725 0.11067211
-0.03383121 -0.04920911 0.00921419 -0.040235948 0.111736305 0.0376048 0.12284839 0.11722028
0.07195111 -0.014022964 -0.07657658 0.06769468 0.010465985 0.02886475 0.11210848 0.08621847
0.018583555 0.0959212 -0.021347044 0.035979792 -0.021019693 -0.028013902 0.0068850466 0.01886313
0.02755023 -0.033854846 0.04941921 0.00030553373 -0.0011947947 -0.07655845 0.039445173 0.018853117
0.10473877 0.034577545 -0.06003807 -0.051408384 0.02515466 0.025073996 0.006865621 0.020643543
0.010733093 -0.023619313 0.016399885 0.03933639 -0.03404066 0.023868054 -0.021647407 -0.03218655
0.045455836 -0.027999606 -0.01151856 -0.06694233 -0.01194067 0.026942007 0.0137379505 -0.015842035
-0.014983359 0.089049414 -0.031577438 0.06630975 0.009874381 -0.034556415 -0.033061784 0.122175485
-0.018898638 0.056604885 0.042798225 0.12769516 -0.023557052 0.011759826 0.0035114028 0.10999287
0.05418202 0.047313854 -0.019498328 0.024205167 -0.0033362363 -0.022678906 -0.050286323 0.09774506
0.10918128 -0.020885214 0.10666578 -0.045232896 0.01699118 0.040591173 -0.02585841 0.0019538284
0.07323575 0.03818148 0.038474586 0.024551554 0.095196195 -0.08216032 -0.03569796 0.004649523
-0.051726896 -0.08589818 0.03310678 -0.05047049 0.007879961 0.045045972 0.08991821 -0.027216017
0.07774966 0.05140751 -0.0485701 0.06811559 0.100242056 -0.0322874 0.0010493221 0.040098235
0.08911084 0.014246695 0.06069996 0.10797176 0.017552683 0.08192027 -0.09004445 0.067429885
