tmp/checkpoints/RETAIN_ATL_8363637.pt (torch_old, 832319 bytes, 13 tensors)

embeddings.weight f4 [64, 6]
0	0xbe19e7e4	-0.15029866
1	0xbd97c0f7	-0.07409852
2	0x3cc61449	0.024179595
3	0x3e406ea2	0.18792203
4	0xbe1824db	-0.14857809
5	0x3eb0bfbc	0.34521282
6	0x3eafc55e	0.34330267
7	0xbe686479	-0.22694577
8	0x3e6775bf	0.2260351
9	0x3d269b71	0.040675584
10	0xbd0e34f2	-0.03471846
11	0xbb88e406	-0.004177573
12	0x3e3b625a	0.18299237
13	0xbd38473f	-0.04498982
14	0x3e6d269b	0.23159258
15	0x3e84fe42	0.25975233
16	0xbe38273a	-0.17983714
17	0x3e788eec	0.2427327
18	0xbe5b396b	-0.21408622
19	0x3e181c12	0.14854458
20	0x3ecd8a7f	0.40144727
21	0xbe64d14b	-0.22345464
22	0x3ed54bc7	0.41659376
23	0xbdfaa3d4	-0.12238279
24	0x3ed04822	0.40680033
25	0xbd81db89	-0.06340701
26	0x3dbb9748	0.09159714
27	0xbe882667	-0.265918
28	0xbed5c2d4	-0.41750205
29	0xbe00e0e4	-0.12585789
30	0xbbb347bb	-0.0054711974
31	0xbda1f29c	-0.07907602
32	0xbeef3d61	-0.46726516
33	0x3ecd2048	0.4006369
34	0xbe6865c6	-0.22695073
35	0xbe717946	-0.23581418
36	0x3eb0542c	0.34439218
37	0x3e70081d	0.23440595
38	0x3e8437de	0.25823873
39	0x3eb3e744	0.3513738
40	0x3d7b3c10	0.061336577
41	0xbcdbdae1	-0.026837768
42	0x3e86e27e	0.26344675
43	0x3ef5dd90	0.480206
44	0xbe98bf19	-0.29833296
45	0xbe8401c2	-0.2578259
46	0xbe1dd784	-0.15414244
47	0xbdf9f505	-0.12204937
48	0x3e4f88b3	0.2026699
49	0xbde79184	-0.11307052
50	0x3ef51adb	0.47872052
51	0xbe4d42dc	-0.20045036
52	0x3d4cfe5d	0.050047267
53	0x3e5b078f	0.21389602
54	0xbece1841	-0.4025288
55	0x3eb3be21	0.35105994
56	0xbe298ac9	-0.16556849
57	0x3e2e1336	0.16999516
58	0xbea7e3c8	-0.3279097
59	0x3e1a3124	0.15057808
60	0xbea8940e	-0.32925457
61	0x3e8cd6d0	0.2750764
62	0x3d37db01	0.044886593
63	0xbe322132	-0.17395476
64	0xbe00e1cc	-0.12586135
65	0x3e1b38e3	0.1515842
66	0x3e9afe8a	0.30272323
67	0xbe6cb7e5	-0.23117025
68	0x3da99abe	0.08281468
69	0x3d98d400	0.07462311
70	0xbd85203f	-0.06500291
71	0x3e51769f	0.20455407
72	0xbe6d3717	-0.23165546
73	0x3ee71e6a	0.45140392
74	0x3e59da6b	0.21274726
75	0x3e2261d4	0.15857631
76	0xbd0aac96	-0.033855997
77	0xbe04e6f6	-0.1297873
78	0x3cfa6667	0.030566407
79	0x3f1e39a0	0.6180668
80	0x3e5023c6	0.20326146
81	0xbe02982d	-0.12753363
82	0x3e689c51	0.2271588
83	0x3db7f978	0.08983129
84	0x3e5145e9	0.20436825
85	0x3e932cbc	0.28745067
86	0xbdb06c34	-0.08614388
87	0x3e45152e	0.1924636
88	0xbe096888	-0.13418782
89	0x3ddf3fa2	0.10900809
90	0xbed4c248	-0.41554475
91	0x3e88378d	0.26604882
92	0xbe397881	-0.18112375
93	0xbe3e2997	-0.18570553
94	0x3e9a8386	0.3017847
95	0xbe57b474	-0.21064931
96	0x3e7533b7	0.23945509
97	0x3e8ef184	0.27918637
98	0x3f04b46f	0.5183782
99	0x3d9093ac	0.07059416
100	0x3d34f0c7	0.044174936
101	0xbdda0b03	-0.106466316
102	0x3df275ae	0.11838852
103	0x3dddc974	0.1082944
104	0x3eaa5d8f	0.33274505
105	0x3e8c7b4b	0.27437815
106	0xbe16dee9	-0.14733471
107	0x3c67b590	0.014142409
108	0xbc441d81	-0.011969925
109	0x3ea28009	0.31738308
110	0xbe0e9599	-0.13924254
111	0x3be2247d	0.0069013224
112	0x3e4459d0	0.19174886
113	0xbe3e19d8	-0.18564546
114	0x3dd9ac20	0.10628533
115	0xbf0a830d	-0.5410622
116	0xbe5d7ce4	-0.21629673
117	0x3eaad773	0.333675
118	0x3cdaaed6	0.026694696
119	0x3dbfb146	0.09359984
120	0xbc4b1b75	-0.012396683
121	0x3ec77a0f	0.3896031
122	0x3f0e98fe	0.557022
123	0x3cc0c42c	0.023531042
124	0xbcf234f5	-0.029566268
125	0xbe8843c6	-0.26614207
126	0x3e13b208	0.14423382
127	0xbe563b86	-0.20921144
128	0x3df6f1bd	0.12057827
129	0xbe4bbdc9	-0.19896616
130	0x3e9df580	0.30851364
131	0x3e996b30	0.2996459
132	0x3def8399	0.11695022
133	0x3dcf98ea	0.10136588
134	0xbdca4804	-0.09877017
135	0xbd5029ea	-0.050821222
136	0xbe196050	-0.14978147
137	0x3e5cc15a	0.21558133
138	0xbe94b966	-0.29047698
139	0xbe3450a3	-0.17608885
140	0xbea49302	-0.32143408
141	0x3ec6ab5b	0.3880261
142	0xbca0a198	-0.019608304
143	0xbbd6cad3	-0.0065549402
144	0xbec1ebb0	-0.37875128
145	0xbe70d999	-0.23520507
146	0x3dcf666f	0.101269595
147	0x3e49b145	0.19696529
148	0x3e114595	0.141867
149	0xbdee592c	-0.11638102
150	0x3cb0c811	0.021579774
151	0x3eaf5e44	0.34251606
152	0x3ea7014e	0.32618183
153	0x3e2939e7	0.16525994
154	0xbdb569ab	-0.08858045
155	0xbe01cc76	-0.12675652
156	0x3c0bea02	0.0085396785
157	0xbb91be64	-0.004447745
158	0xbea56c2f	-0.323091
159	0x3ebf7a7c	0.37398136
160	0x3dea4222	0.11438395
161	0xbe9e4449	-0.30911472
162	0x3df299b3	0.11845722
163	0xbe0a317c	-0.1349544
164	0x3e532a1d	0.20621534
165	0x3d99acf1	0.07503689
166	0xbe8fbc9e	-0.2807359
167	0xbe8c97e6	-0.2745964
168	0x3d80745a	0.06272192
169	0x3d8349aa	0.06410535
170	0x3f04857a	0.5176617
171	0x3e444cbd	0.19169898
172	0xbe3d9418	-0.18513525
173	0xbccb2af6	-0.024800759
174	0xbe9c2202	-0.30494696
175	0x3ed2abd5	0.41146722
176	0x3e466880	0.19375801
177	0xbce446b2	-0.027865741
178	0xbe1ff60a	-0.156212
179	0x3c55dcbe	0.013053117
180	0xbeba4e86	-0.36388034
181	0xbd97210f	-0.07379352
182	0x3ee73da1	0.45164207
183	0x3e053f4f	0.13012432
184	0xbe5244d2	-0.20534065
185	0x3ec017c4	0.37518132
186	0x3e94686b	0.28985915
187	0x3e9b4c20	0.30331516
188	0x3c2cf4dc	0.010556426
189	0x3d63d239	0.055620406
190	0x3e8cf5e9	0.27531365
191	0xbecf104d	-0.40442124
192	0xbe5bc754	-0.21462756
193	0x3e7b89fb	0.24564354
194	0xbee2d0c0	-0.4429989
195	0xbeb5ce0c	-0.35508764
196	0xbe6456f6	-0.22298798
197	0xbd96263d	-0.07331512
198	0xbea173c1	-0.31533626
199	0x3e92842b	0.2861646
200	0xbe6cc257	-0.2312101
201	0x3e65f7b7	0.22457777
202	0xbe375f4f	-0.17907451
203	0x3eae74e7	0.34073564
204	0x3eacc9e6	0.33747786
205	0x3da2b804	0.079452544
206	0x3eba5908	0.3639605
207	0xbe86cbc5	-0.2632734
208	0x3ea1de11	0.31614736
209	0xbe894d8c	-0.26816976
210	0x3e9a6b03	0.30159768
211	0x3e4af38a	0.19819465
212	0x3e9b6f98	0.30358577
213	0x3eb5e9bc	0.35529888
214	0x3da9de78	0.08294386
215	0xbc5b23e2	-0.013375254
216	0x3e4964a8	0.19667304
217	0xbeef067d	-0.46684638
218	0xbe42ce74	-0.19024068
219	0x3d98bb0d	0.07457552
220	0xbe82f41a	-0.2557686
221	0x3d950857	0.07276981
222	0x3e054cf1	0.13017632
223	0xbef374c5	-0.47550026
224	0xbef425af	-0.47685
225	0x3d6e182c	0.05812852
226	0xbe9a6446	-0.30154628
227	0x3e233862	0.15939477
228	0x3e5ed2b5	0.21760066
229	0x3e036d32	0.12834623
230	0xbd8e6265	-0.06952361
231	0x3eac1749	0.33611515
232	0xbedb37b6	-0.42815942
233	0x3e8d3011	0.27575734
234	0x3e69e25b	0.22840254
235	0x3eada3e0	0.3391409
236	0xbd94815f	-0.07251238
237	0x3ebdf169	0.37098244
238	0xbe8b9832	-0.27264553
239	0xbe8c2e3a	-0.27379018
240	0xbea9e7ed	-0.33184758
241	0xbeeccfd4	-0.4625231
242	0xbe9b4a3d	-0.30330077
243	0x3eac7914	0.33686125
244	0xbeac7ca6	-0.3368885
245	0xbe15097a	-0.14554396
246	0x3e96fe4a	0.29490882
247	0xbdeac141	-0.114626415
248	0xbe6e6064	-0.23278958
249	0xbe917db6	-0.28416222
250	0x3d8fcc43	0.07021382
251	0x3e813dc6	0.25242442
252	0xb9bfa060	-0.00036549848
253	0xbe91bd53	-0.28464755
254	0x3ec94bfa	0.39315778
255	0xbdc8b903	-0.09800913

rnn_alpha.weight_ih_l0 f4 [512, 64]
0	0xbd924c2e	-0.07143436
1	0x3d2ee091	0.042694632
2	0xbd8f668b	-0.070019804
3	0xbda52e82	-0.08065511
4	0x3d80669a	0.0626957
5	0x3d5ebd3f	0.054379698
6	0xbdc8961d	-0.09794257
7	0x3d1d482f	0.038398918
8	0xbd54b8db	-0.051934104
9	0xbc74715a	-0.014919603
10	0x3cbc0af9	0.02295445
11	0xbd05b489	-0.032642875
12	0x3bdbee4c	0.006711757
13	0xbc151624	-0.009099517
14	0x3ca53d3f	0.020170806
15	0x3d73e30b	0.059542697
16	0xbc518529	-0.0127880955
17	0xbd468e00	-0.048475266
18	0xbb94d946	-0.0045425026
19	0xbd45df9e	-0.04830896
20	0xbdf8f158	-0.12155408
21	0xbbdd2121	-0.006748334
22	0xbcafe93a	-0.021473516
23	0xbcbfaefb	-0.023398867
24	0x3c1f1449	0.009709426
25	0xbd0193a4	-0.03163494
26	0x3d7725c5	0.060338754
27	0xbdc6b4cf	-0.09702455
28	0xbce56b39	-0.02800523
29	0x3cf24617	0.029574437
30	0x3d9b5602	0.07584764
31	0xbd9fa893	-0.07795825
32	0xbc554925	-0.013017927
33	0x3d99629d	0.07489512
34	0xbddcc783	-0.10780241
35	0xbd947225	-0.07248334
36	0x3d88ed37	0.0668587
37	0xbc98ee1a	-0.018668223
38	0xbbc2bb31	-0.005942725
39	0x3d2a9ed6	0.041655384
40	0x3bf42a90	0.007451363
41	0x3c45df08	0.012077101
42	0x3c7c152e	0.015385909
43	0x3d59bc0d	0.053157855
44	0xbce54229	-0.02798565
45	0xbd5967f1	-0.053077642
46	0xbdbc043c	-0.09180495
47	0x3d39ad0a	0.04533104
48	0x3c8f4fd0	0.017494112
49	0xbc91f455	-0.017816702
50	0x3c9a019a	0.018799592
51	0xbccf47a1	-0.02530271
52	0x3d643209	0.05571178
53	0xbcbbe56a	-0.022936542
54	0xbdb101a2	-0.086428896
55	0xbd1dbca0	-0.038509965
56	0x3d03b1d7	0.032152023
57	0xbbcf2d5d	-0.0063225464
58	0x3d9ebdce	0.07751046
59	0x3ccf852c	0.025332056
60	0x3b707b31	0.0036694522
61	0xbddae683	-0.10688498
62	0x3d92205b	0.071350776
63	0xbd3036aa	-0.04302088
64	0xbd81b8cc	-0.06334075
65	0xbd1b0d7c	-0.037854657
66	0xbd60ead3	-0.054911446
67	0x3d54b195	0.051927168
68	0x3c289a9e	0.01029077
69	0x3dbacabf	0.09120702
70	0xbd025234	-0.031816676
71	0xbd5b69e2	-0.053567775
72	0x3cf1fe10	0.029540092
73	0x3ccb73b7	0.02483545
74	0xbd1593a6	-0.03651776
75	0xbc809f17	-0.01570086
76	0xbd0707d7	-0.03296646
77	0x3d1db4c6	0.038502477
78	0x3d05668b	0.032568496
79	0xbd38363e	-0.044973604
80	0x3ce9e8f9	0.028553473
81	0x3c766e64	0.015040968
82	0xbda8ce17	-0.082424335
83	0x3d5b8632	0.053594775
84	0xbd674312	-0.056460448
85	0x3d6f5555	0.05843099
86	0x3da30fd1	0.07962001
87	0xbcb8d271	-0.022561284
88	0xbd3e8a69	-0.046518717
89	0xbde78bde	-0.113059744
90	0xbcf51774	-0.02991841
91	0x3d3b6f39	0.045760367
92	0xbdecbc59	-0.11559362
93	0x3cc78875	0.02435706
94	0xbd0a34f8	-0.03374192
95	0xbc6d9381	-0.0145005
96	0x3cced039	0.025245773
97	0x3d519e3d	0.0511763
98	0xbdd56bdf	-0.104209654
99	0x3ccd59cd	0.025067234
100	0x3c82dc86	0.015974294
101	0x3d8f9076	0.070099756
102	0xbd3742ff	-0.044741627
103	0xbda64093	-0.08117785
104	0x3d47add6	0.048749767
105	0x3d345e8e	0.044035487
106	0x3d2172de	0.039416187
107	0xbc1bcab6	-0.009508779
108	0xbd764159	-0.060120914
109	0xbd2a0ed4	-0.041518047
110	0x3984e43a	0.00025347044
111	0x3cd87d46	0.026426923
112	0xbc577733	-0.013150978
113	0xbd34ceba	-0.044142462
114	0x3c989227	0.018624378
115	0x3ce2147b	0.027597656
116	0x3d6f8dd4	0.058484867
117	0x3d575740	0.052573442
118	0x3d79bef9	0.06097314
119	0x3c247355	0.010037263
120	0xbd34ff22	-0.044188626
121	0x3d9dbeb0	0.077023864
122	0xbda24f55	-0.07925288
123	0x3d004a2a	0.03132073
124	0x3dd722cf	0.10504686
125	0x3c9a2e80	0.018821001
126	0xbd895e31	-0.06707419
127	0x3d9b8c61	0.075951345
128	0x3c40c2d8	0.011765204
129	0xbd185700	-0.037192345
130	0xbd294e74	-0.041334584
131	0x3d17998b	0.037011664
132	0xbda8ec69	-0.08248217
133	0xbdf3bc81	-0.11901189
134	0xbd49ae83	-0.049238693
135	0xbd4ec3fc	-0.050479874
136	0x3ce3c086	0.027801763
137	0x3d5abdbe	0.05340361
138	0x3d42c725	0.0475532
139	0xbde3a548	-0.11115509
140	0x3e05486d	0.1301591
141	0x3d8e933c	0.069616765
142	0x3d9802a3	0.07422378
143	0xbcc90416	-0.024538081
144	0xbd935afb	-0.071950875
145	0x3d2f0233	0.042726707
146	0x3cc3558a	0.0238445
147	0xbd669aeb	-0.056300085
148	0xbc9b5309	-0.018960493
149	0xbd918ffa	-0.071075395
150	0x3c3e8cea	0.011630276
151	0x3b92afe0	0.0044765323
152	0x3cdf653a	0.027269948
153	0xbcf368f7	-0.029713137
154	0xbb399cfc	-0.002832233
155	0xbdcb015e	-0.0991237
156	0xbc32038a	-0.010865102
157	0x3d686853	0.056740116
158	0x3db9e0ef	0.09076106
159	0xba0027e3	-0.0004888756
160	0x3cdbd733	0.026836013
161	0x3db42e5a	0.08797903
162	0xbdc00430	-0.09375799
163	0x3d2b4416	0.04181298
164	0xbd3beca6	-0.045879982
165	0xbcd3bef1	-0.025847884
166	0xbd1e7a49	-0.03869084
167	0x3ca7296d	0.020405496
168	0x3dcb33cb	0.09921988
169	0x3cf701b0	0.030152172
170	0x3d1b9c3f	0.037990805
171	0xbe014529	-0.12624039
172	0xbda2a708	-0.07942015
173	0x3df16798	0.11787337
174	0x3db274fb	0.087137185
175	0x3d6d1666	0.05788269
176	0xbbef82e3	-0.007309304
177	0x3cd6dcb3	0.026228284
178	0xbd83223e	-0.064030156
179	0x3be143b6	0.006874527
180	0xbc0aa372	-0.00846182
181	0x3d12c560	0.035832763
182	0xbd0a091d	-0.033700097
183	0x3dbbe9eb	0.09175476
184	0x3b95cae8	0.0045713075
185	0x3d264652	0.040594406
186	0xbd049db1	-0.03237695
187	0xbb20346f	-0.0024445315
188	0xbc9dc029	-0.019256668
189	0x3d89d315	0.06729714
190	0x3cbf230d	0.023332143
191	0x3d4cdb82	0.050014026
192	0x3d6967d5	0.056983788
193	0x3c4d4715	0.012529154
194	0xbd6889f4	-0.056772187
195	0x3c6fbcbe	0.014632402
196	0xbd1c3b44	-0.038142458
197	0x3cd7bac8	0.026334181
198	0x3d238483	0.039921295
199	0x3d710149	0.058839116
200	0x3ceef5ef	0.029170005
201	0x3d9b0f72	0.07571305
202	0xbdb49abb	-0.08818575
203	0x3b88be60	0.004173085
204	0x3ca188bf	0.019718526
205	0x3d0b5874	0.034019902
206	0x3d0d1cd1	0.03445131
207	0xbdc6594d	-0.096850015
208	0x3d72edd9	0.05930886
209	0x3d61ba3a	0.05510924
210	0xbdc832ec	-0.097753376
211	0xbd7c817b	-0.06164692
212	0xbc09d217	-0.008411906
213	0x3d050ddb	0.032483917
214	0x3cc7d844	0.024395116
215	0x3d12477c	0.035712704
216	0xbde20714	-0.11036506
217	0x3d39bee7	0.045348074
218	0xbca00fc4	-0.019538768
219	0x3d95d57e	0.07316111
220	0xbd714964	-0.05890788
221	0xbca96c4e	-0.020681527
222	0xbc4ed4a1	-0.012623937
223	0xbca819a8	-0.020520046
224	0xbc4ccc7b	-0.012499924
225	0x3d2f86ce	0.04285317
226	0x386eab27	5.690302e-05
227	0x3d6d6ff2	0.057968087
228	0x3dd0d218	0.10196322
229	0xbcc3a018	-0.02388005
230	0x3d3a6197	0.045503225
231	0x3cc25cdd	0.023725921
232	0xbc141558	-0.009038292
233	0x3bbd11f2	0.0057699615
234	0x3cf65163	0.030068105
235	0xbdd3b84f	-0.103378884
236	0x3dd28206	0.10278706
237	0x3cd88af2	0.026433442
238	0xbda1a738	-0.078932226
239	0x3cb7bdf9	0.022429453
240	0xbcf457cd	-0.029827023
241	0x3d133f51	0.035949055
242	0x3cf00455	0.02929894
243	0xbcb9bee0	-0.022674024
244	0x3c8e6f44	0.01738704
245	0x3b9b8b21	0.00474681
246	0x3c44acc4	0.012004081
247	0x3d7b12ad	0.061297107
248	0x3d8187f5	0.0632476
249	0xbd34938a	-0.044086017
250	0xbdaaba9f	-0.083363764
251	0x3d7e14ef	0.062031683
252	0x3d9b9e29	0.07598526
253	0x3c79488d	0.015215051
254	0x3d3ed71d	0.046591867
255	0xbd6d9d2c	-0.05801122

rnn_alpha.weight_hh_l0 f4 [512, 128]
0	0x3cb20962	0.02173299
1	0xbd1390f1	-0.0360269
2	0xbd351212	-0.044206686
3	0x3a8325fd	0.0010005828
4	0x3defa881	0.117020614
5	0x3d2e7fd1	0.042602364
6	0xbd0ff18d	-0.03514247
7	0x3d788876	0.060677014
8	0xbcd8443d	-0.026399726
9	0xbd6d7e63	-0.05798186
10	0x3d63606a	0.05551187
11	0xbc094237	-0.008377603
12	0x3d4d5fd9	0.050140236
13	0x3d1d376f	0.038382944
14	0xbde80365	-0.113287725
15	0x3ddd773f	0.1081376
16	0xbdcbef46	-0.09957747
17	0x3d212bf4	0.039348558
18	0x3d4c0f35	0.04981919
19	0x3c97ea91	0.018544467
20	0xbc786b6a	-0.015162328
21	0xbcb4121b	-0.02198129
22	0xbb2e3d81	-0.0026586952
23	0x3d695a36	0.056970797
24	0x3ce1fa39	0.027585136
25	0xbd87d948	-0.0663324
26	0x3c978714	0.018497027
27	0xbc36c5d8	-0.011155568
28	0x3dbe294d	0.09285221
29	0x3ddf4ea6	0.10903673
30	0x3e136bbf	0.1439657
31	0xbdfd4053	-0.123657845
32	0xbd9acda3	-0.07558753
33	0xbde29471	-0.11063469
34	0xbd863206	-0.0655251
35	0x3cbaccef	0.022802798
36	0xbda30202	-0.07959367
37	0x3d270c9d	0.040783513
38	0xbcb66719	-0.022265958
39	0x3c059570	0.008153304
40	0xbdb05982	-0.08610822
41	0x3c0e821c	0.008698013
42	0x3db50268	0.088383496
43	0x3d35b58b	0.044362586
44	0xbe1ab2e1	-0.151073
45	0xbd14b9c1	-0.03630996
46	0xbdcdecb8	-0.10054916
47	0xbd7da2d1	-0.061922852
48	0xbc7d013b	-0.015442188
49	0xbd8740f7	-0.06604188
50	0x3d2d2725	0.04227366
51	0x3df43b3a	0.11925359
52	0x3e0c1c4a	0.13682666
53	0x3cf97855	0.030452887
54	0xbd4b053c	-0.04956554
55	0x3d17da67	0.03707352
56	0x3d2d633b	0.04233096
57	0x3d6342be	0.055483572
58	0x3c9989dc	0.018742494
59	0xbc4a43fa	-0.012345308
60	0x3d34190a	0.04396919
61	0x3db0b514	0.08628288
62	0x3df4d60a	0.11954887
63	0x3d656a16	0.056009375
64	0xbc8462d9	-0.016160415
65	0xbc6ded6e	-0.01452194
66	0xbda9c7dc	-0.08290073
67	0x3d86a3ca	0.06574209
68	0x3db6e9ab	0.089312874
69	0x3d4db4c7	0.05022123
70	0xbd8bb421	-0.06821466
71	0xbde9fcdf	-0.114251845
72	0x3cdb08bd	0.026737565
73	0xbe0a67b8	-0.13516128
74	0x3d922f78	0.0713796
75	0x3e23fd35	0.1601456
76	0xbd3fa8f2	-0.04679198
77	0x3dcf45c3	0.10120728
78	0xbd65478d	-0.05597644
79	0xbc1bbe06	-0.009505754
80	0x3e0d2bcd	0.1378624
81	0x3d95084e	0.072769746
82	0xbb7043ee	-0.0036661583
83	0x3dd7ca50	0.10536635
84	0x3d6be8cc	0.05759506
85	0xbd17058c	-0.036870524
86	0xbc094560	-0.008378357
87	0x3deffd7b	0.117182694
88	0x3d24de8c	0.0402513
89	0xbcbe72b4	-0.023248054
90	0xbdbfabd8	-0.093589485
91	0xbd0ceeb8	-0.034407347
92	0xbd05040d	-0.032474566
93	0xbdd4ace3	-0.10384538
94	0x3da40f71	0.08010758
95	0x3d94d07b	0.07266327
96	0x3d51674d	0.051123906
97	0xbdc4af7c	-0.096037835
98	0xbd248d45	-0.040173788
99	0xbce06c20	-0.027395308
100	0x3df9d9c5	0.12199739
101	0xbd99e946	-0.075151965
102	0xbd4cadc4	-0.049970403
103	0xbd7be0dc	-0.06149374
104	0x3d332f73	0.043746423
105	0xbe0d56c3	-0.13802628
106	0xbd830da0	-0.06399083
107	0x3dfecc80	0.12441349
108	0xbd44286d	-0.047890116
109	0x3d03f440	0.032215357
110	0xbcf7f90e	-0.030270126
111	0xba4aaa30	-0.00077310484
112	0xbb05e991	-0.0020433406
113	0x3d452853	0.04813416
114	0x3cf1268d	0.029437328
115	0x3c195619	0.009358906
116	0xbd2535cd	-0.04033451
117	0x3e1623ca	0.1466209
118	0x3d5546b8	0.052069396
119	0xbd8e2838	-0.06941265
120	0x3dc5a560	0.096506834
121	0xbd86ce5f	-0.06582331
122	0x3deb0dfd	0.114772774
123	0x3c1cc5ae	0.009568615
124	0xbdae72c2	-0.08517982
125	0xbbeb1355	-0.0071739354
126	0x3d3e7007	0.046493556
127	0xbdd7276b	-0.10505565
128	0x3dbc4d77	0.09194463
129	0xbd61651f	-0.055028077
130	0xbd9d093c	-0.07667777
131	0x3cda2c88	0.026632562
132	0x3d244907	0.040108707
133	0xbd9d1b6c	-0.07671246
134	0x3cae214f	0.021256117
135	0xbcd4a6eb	-0.025958499
136	0xbe0d2727	-0.13784467
137	0xbd6065ba	-0.054784514
138	0xbcceb5ac	-0.025233112
139	0xbb85aea6	-0.0040796576
140	0x3c40344a	0.011731217
141	0xbe349404	-0.17634588
142	0xbc8f83bb	-0.017518869
143	0x3c7b8b74	0.015353072
144	0x3d3521ea	0.044221796
145	0xbc79a28f	-0.015236511
146	0x3d2318ad	0.039818455
147	0x3d294b0f	0.041331347
148	0x3dc56236	0.09637873
149	0xbd8a4d1a	-0.06752987
150	0x3d9f223b	0.07770201
151	0x3b8422d9	0.0040324745
152	0x3cb1293f	0.021626113
153	0x3c9e6a3c	0.019337766
154	0xbcae26bb	-0.021258703
155	0xbc8938e1	-0.016750755
156	0x3c7878d1	0.015165524
157	0xbbf65276	-0.0075171543
158	0xbd7c16e8	-0.061545283
159	0x3ca0175b	0.019542387
160	0xbd5cae42	-0.053877123
161	0xbcd69730	-0.026195139
162	0xbddd1b74	-0.10796252
163	0xbdf24c46	-0.11830954
164	0xbcf58b12	-0.02997354
165	0xbca63476	-0.020288687
166	0xbcbc9741	-0.023021342
167	0x3d551c96	0.052029215
168	0x3d48fa9f	0.049067136
169	0x3d1c1887	0.03810933
170	0x3a8ce7e4	0.0010750261
171	0xbd732d8a	-0.0593696
172	0xbdfd830f	-0.12378513
173	0xbd8075a9	-0.06272442
174	0x3b835499	0.0040078876
175	0x3d511296	0.051043116
176	0x3b8ba99c	0.0042621624
177	0xbdb09e36	-0.08623926
178	0xbe0aa51d	-0.13539548
179	0xbc729dbc	-0.014808115
180	0xbd52e3cb	-0.05148677
181	0x3da12c69	0.07869799
182	0xbd910d36	-0.07082598
183	0xbe2935c8	-0.16524422
184	0x3d1e9d7c	0.038724408
185	0x3cb40109	0.02197315
186	0x3c42c074	0.011886705
187	0x3c5baab6	0.0134074
188	0x3c6bd0ee	0.014393074
189	0x3e09f720	0.13473177
190	0x3c2ebea5	0.01066557
191	0xbd879d07	-0.066217475
192	0xbd7d9da7	-0.061917927
193	0x3db007f9	0.08595271
194	0x3dd97560	0.10618091
195	0xbd39c97a	-0.04535816
196	0x3e041497	0.1289848
197	0xbd0d9f0b	-0.034575503
198	0xbd81c314	-0.06336036
199	0x3d10e617	0.03537568
200	0xbcc77419	-0.024347352
201	0xbc9a5b93	-0.018842494
202	0x3d8b8eb2	0.06814326
203	0x3d91a749	0.07111985
204	0xbd24be1a	-0.040220357
205	0x3dedaadd	0.11604855
206	0xbddc2a31	-0.10750235
207	0xbd09de1c	-0.033659086
208	0xbde8875f	-0.11353945
209	0x3d8b1112	0.06790365
210	0x3ca4d2d4	0.020120062
211	0xb9dac0a3	-0.00041723726
212	0x3cf3ca51	0.029759558
213	0xbd9edc55	-0.07756869
214	0x3dad636b	0.08466228
215	0x3dbd712d	0.09250102
216	0x3c9a3581	0.01882434
217	0x3d4016a2	0.046896584
218	0xbdae617b	-0.08514687
219	0xbe0bb98a	-0.13644996
220	0xbd092beb	-0.03348915
221	0xbda89995	-0.082324184
222	0x3d3f9e3b	0.04678176
223	0x3d8a219b	0.06744691
224	0x3e11aa6c	0.14225167
225	0x3d8c9b87	0.06865602
226	0xbe04b11d	-0.12958188
227	0xbd018c7a	-0.03162811
228	0x3deef59f	0.11667942
229	0x3caa7cfe	0.020811554
230	0xbda719a6	-0.08159189
231	0x3a0c4634	0.0005351037
232	0xbcbb023f	-0.02282822
233	0xbc0d34d3	-0.008618551
234	0x3de84dff	0.113430016
235	0x3d60eace	0.054911427
236	0xbca75ee4	-0.02043099
237	0x3c9f0464	0.019411273
238	0xbe0a2ed0	-0.1349442
239	0xbd378fd5	-0.044814903
240	0xbd65b843	-0.05608393
241	0xbc850726	-0.01623876
242	0x3dad04b8	0.08448166
243	0xbe0068d3	-0.12539987
244	0xbd2d2ad6	-0.04227718
245	0xbc45f0ce	-0.012081338
246	0x3d677ede	0.056517474
247	0xbd3ece9f	-0.046583768
248	0x3d96f934	0.073717505
249	0x3d43f1bb	0.047837954
250	0xbda8af37	-0.082365446
251	0xbdbd4214	-0.09241119
252	0xbd781502	-0.06056691
253	0x3ddac49f	0.10682034
254	0x3d3a2a7b	0.04545067
255	0x3c998ca5	0.018743822

rnn_alpha.bias_ih_l0 f4 [512]
0	0xbc6da863	-0.014505479
1	0xbddbf16b	-0.10739406
2	0xbc756e50	-0.014979914
3	0xbdaeb77f	-0.08531093
4	0xbd7116a3	-0.05885948
5	0xbdeea63e	-0.11652802
6	0xbde2626d	-0.110539295
7	0xbe22b2f6	-0.1588858
8	0x3c5cffff	0.013488769
9	0xbe174e80	-0.14776039
10	0xbd9a056c	-0.075205654
11	0xbdedf0c9	-0.11618192
12	0xbdb4c0de	-0.08825849
13	0xbdc4759f	-0.09592747
14	0x3d990d25	0.0747321
15	0xbca09a90	-0.019604951
16	0xbd82cd1d	-0.063867785
17	0x3b5c8451	0.0033648203
18	0x3db99481	0.09061528
19	0xbdd3d898	-0.10344046
20	0x3d837d8e	0.06420432
21	0x3d1c44be	0.038151495
22	0xbcb79a84	-0.022412546
23	0xba79b267	-0.000952518
24	0xbcf45b37	-0.02982865
25	0xbcac982e	-0.021068659
26	0x3d7365e5	0.059423346
27	0x3cd04573	0.025423741
28	0xbe16fe2c	-0.14745396
29	0xbdfc3231	-0.12314261
30	0xbcf2cfd1	-0.02964011
31	0x3b3e925b	0.0029078934
32	0xbddab587	-0.10679155
33	0xbe0bbd0b	-0.13646333
34	0x3d3ca8b1	0.046059314
35	0xbdd08e29	-0.10183365
36	0xbdc6118b	-0.09671315
37	0xbdc9f36b	-0.098608814
38	0x3cf27641	0.029597403
39	0xbdbe3623	-0.092876695
40	0xbd5a3bcd	-0.053279687
41	0xbb8ab025	-0.004232424
42	0xbbec87a9	-0.0072183204
43	0xbd7cc5dc	-0.06171213
44	0xbad288bf	-0.0016062482
45	0xbd89e465	-0.06733016
46	0xbd8739b7	-0.06602805
47	0x3dee7fca	0.116454676
48	0xbdb46a2d	-0.08809314
49	0xbd00f6db	-0.03148542
50	0xbc463677	-0.012097946
51	0xbd62d825	-0.055381913
52	0xbd91f861	-0.07127453
53	0xbd3a7301	-0.045519833
54	0xbcfdd31a	-0.03098445
55	0xbcc3a9be	-0.02388465
56	0xbd09d6a1	-0.03365195
57	0xbd7180cb	-0.058960717
58	0xbc97985f	-0.018505273
59	0xbd9ed1bc	-0.077548474
60	0xbd7b63d1	-0.06137449
61	0x3d6acebb	0.05732606
62	0x3d2d4162	0.042298682
63	0xbd1f0998	-0.03882751
64	0xbd845e52	-0.06463303
65	0xbd7bba48	-0.06145695
66	0x3bae8c31	0.0053267707
67	0xbd1a0542	-0.03760267
68	0xbbe532e6	-0.006994593
69	0xbd4f9699	-0.05068073
70	0x3ca22bae	0.019796219
71	0xbcb91c0f	-0.022596387
72	0xbd2c8746	-0.042121194
73	0xbd805ad7	-0.06267326
74	0xbd9bc979	-0.07606787
75	0x3d50e68a	0.05100111
76	0x3d67a1fd	0.05655097
77	0xbc4e6e2d	-0.01259951
78	0x3cd19f10	0.025588542
79	0xbdc5508f	-0.09634506
80	0xbdb6720b	-0.08908471
81	0xbd852f0a	-0.065031126
82	0xbd957438	-0.072975576
83	0xbdbb36d1	-0.09141315
84	0xbe3e2315	-0.1856807
85	0x3d40c2fb	0.047060948
86	0xbd63664f	-0.05551749
87	0xbd68783c	-0.05675529
88	0x3cf97fa2	0.030456368
89	0xbd815543	-0.063150905
90	0xbdf97af3	-0.12181654
91	0xbcbd57d7	-0.023113174
92	0xbcd874db	-0.026422909
93	0xbd81731c	-0.063207835
94	0x3d64c94a	0.055856027
95	0xbd3c5249	-0.04597691
96	0x3d9537df	0.07286047
97	0xbdd3e28b	-0.10345944
98	0xbd9495e2	-0.072551504
99	0x3c6cad55	0.014445622
100	0x3cbc4691	0.022982867
101	0xbd1451ad	-0.036210705
102	0x3dc6efa6	0.09713678
103	0x3ba787e1	0.0051126336
104	0xbd9e5f92	-0.07733072
105	0xbe3c555b	-0.18391936
106	0x3cc31ac8	0.023816481
107	0xbd295a9a	-0.04134617
108	0xbd9a395a	-0.0753047
109	0x3caf62ef	0.02140948
110	0x3d0977b4	0.033561423
111	0x3d0c137e	0.034198277
112	0x3b90d1bb	0.004419533
113	0xbe242c82	-0.16032603
114	0x3cb60dad	0.022223318
115	0x3d606c0d	0.054790545
116	0xbe479323	-0.19489722
117	0xbd8d23cd	-0.06891594
118	0xbe0de53d	-0.13856979
119	0xbddd2343	-0.10797741
120	0xbdec3edc	-0.11535427
121	0xbcdc0a99	-0.026860522
122	0xbce7aadb	-0.028279712
123	0xbdcd87bb	-0.10035654
124	0xbc94325b	-0.018090418
125	0x3b33b0e6	0.0027418672
126	0xbdf2f857	-0.11863773
127	0xbd81fb1e	-0.06346725
128	0x3c6fc235	0.014633705
129	0x3e069c33	0.13145523
130	0x3da93e88	0.0826388
131	0xbcc54109	-0.024078863
132	0x3e0d807f	0.13818549
133	0xbd8d10e2	-0.06887986
134	0xbdc807b9	-0.09767098
135	0x3cd43df0	0.02590844
136	0x3dffc907	0.12489515
137	0x3cc4eee5	0.024039695
138	0x3dd21655	0.10258166
139	0x3d505d40	0.05087018
140	0x3c87c572	0.016573641
141	0xbd199b05	-0.037501354
142	0x3de0df49	0.10980088
143	0x3d477c86	0.04870274
144	0xbcc4e1b0	-0.024033397
145	0x3d20bf38	0.03924486
146	0x3dd0d51a	0.10196896
147	0xbbeca4d4	-0.0072217975
148	0x3d278ede	0.040907733
149	0x3b1c4ff5	0.002385137
150	0x3d8cc57e	0.06873606
151	0x3da13bde	0.07872747
152	0xbd0014b9	-0.031269763
153	0x3db72e1b	0.08944341
154	0xba41a825	-0.0007387421
155	0x3d708902	0.05872441
156	0x3db65b2e	0.0890411
157	0xbd56e0c1	-0.052460436
158	0xbdc757e7	-0.09733563
159	0xbce77291	-0.028252872
160	0x3d7457da	0.059654094
161	0xbcf1f8a3	-0.029537505
162	0x3c1c8555	0.009553273
163	0xbd385a45	-0.045007963
164	0xbdb162c2	-0.08661415
165	0xbc067628	-0.008206882
166	0xbdd7ffcb	-0.105468355
167	0x3d9b62a7	0.07587176
168	0x3cc1ec57	0.023672266
169	0x3e18b3b4	0.14912301
170	0x3d1644b4	0.036686614
171	0xbda04602	-0.07825853
172	0xbcb8adbd	-0.022543782
173	0xbda12344	-0.078680545
174	0x3d08f595	0.03343733
175	0xbbd9acdd	-0.0066429214
176	0xbd841d40	-0.064508915
177	0x3d3e4809	0.046455417
178	0xbd729ea0	-0.059233308
179	0xbda72cda	-0.08162852
180	0x3caac6b4	0.020846702
181	0x3d11b010	0.035568297
182	0x3d0df7b7	0.034660067
183	0x3dfd0c4b	0.1235586
184	0x3d16b077	0.036789384
185	0x3d00fd99	0.03149185
186	0xbcc4cb93	-0.024022853
187	0x3c813a22	0.01577479
188	0xbcfccdd5	-0.030859867
189	0xbcfd60e2	-0.030929986
190	0x3e16063b	0.14650814
191	0xbdc7716e	-0.09738432
192	0xbd2cf8ba	-0.04222939
193	0xbd6542ee	-0.055972032
194	0xbda617e1	-0.08110023
195	0xbc07c1a8	-0.008285917
196	0x3a22f6fd	0.00062166137
197	0x3e05b4fc	0.13057321
198	0xbb3af917	-0.0028529817
199	0x3da38e9b	0.07986184
200	0x3c846846	0.016163003
201	0x3d8eff87	0.06982332
202	0xbbf8bfed	-0.0075912387
203	0x3e0264c9	0.12733759
204	0xbc9b266b	-0.018939218
205	0x3d85be30	0.06530416
206	0x3b89a021	0.004199997
207	0xbddc526e	-0.1075791
208	0xbdde985d	-0.10868905
209	0xbc38cda9	-0.011279502
210	0x3e092bfa	0.13395682
211	0x3b54919e	0.0032435427
212	0xbc95ca40	-0.018284917
213	0x3e47f795	0.19528039
214	0x3d02afc7	0.031905916
215	0x3dd46a3e	0.103718266
216	0x3da5ca74	0.080952555
217	0x3c1d76d8	0.009610854
218	0xbd12ae40	-0.03581071
219	0xbaddaef6	-0.0016913104
220	0x3c973347	0.018457068
221	0x3b6766be	0.0035309042
222	0x3d95e438	0.0731892
223	0x3d8f33b7	0.06992286
224	0x3e0d8ea5	0.13823946
225	0xbd7e4b41	-0.062083486
226	0x3cbcf30e	0.023065116
227	0x3d674c07	0.05646899
228	0x3cb871f4	0.022515275
229	0xbcf72d0e	-0.030172851
230	0xbd04f28d	-0.032457877
231	0xbd504111	-0.050843302
232	0x3db6c816	0.08924882
233	0xbc6c941f	-0.014439612
234	0xbc5ed3be	-0.013600288
235	0x3d24912f	0.04017752
236	0xbd4bbc8f	-0.04974037
237	0xbafe305b	-0.0019393073
238	0x3c4e8ac3	0.012606326
239	0x3c96e7ef	0.018421141
240	0xbdfc7721	-0.123274095
241	0x3dae71f7	0.08517831
242	0x3d26487b	0.040596467
243	0x3d5dec16	0.054180227
244	0xbbeab553	-0.007162729
245	0x3d76892e	0.06018942
246	0xbb880716	-0.0041512353
247	0x3ba9e85e	0.005185171
248	0xbc5d010a	-0.013489017
249	0xbc89ac5d	-0.016805822
250	0x3cd73992	0.026272569
251	0xbd3dc6b3	-0.046332072
252	0xbdf00d4d	-0.11721287
253	0xbce12610	-0.02748397
254	0xbc15ee7c	-0.009151097
255	0xbd0364a2	-0.032078393

rnn_alpha.bias_hh_l0 f4 [512]
0	0xbe1b937e	-0.15192983
1	0xbd26ab63	-0.04069079
2	0x3ba20e38	0.0049455427
3	0xbd20790d	-0.039177943
4	0x3d6f4312	0.058413573
5	0xbd8483fb	-0.06470486
6	0xbe2652fb	-0.16242592
7	0xbe1b96d7	-0.1519426
8	0x3d688b58	0.056773514
9	0x3bd734fa	0.0065675946
10	0xbdda8b66	-0.106711194
11	0x3cc303db	0.02380555
12	0xbe29afef	-0.1657102
13	0xbdaeefb1	-0.08541811
14	0xbd9a6f17	-0.0754072
15	0xbc3be0c2	-0.011467161
16	0xbdaa2d9d	-0.08309481
17	0xbdf3c482	-0.11902715
18	0x3dd118f8	0.102098405
19	0x3c8453b6	0.016153198
20	0x3d9870df	0.074434035
21	0xbd143a0f	-0.03618818
22	0xbd825cff	-0.06365394
23	0xbd0a1100	-0.03370762
24	0xbdb25f5a	-0.08709593
25	0xbb35f0e7	-0.0027761997
26	0xbdc6aa3c	-0.097004384
27	0xbd114021	-0.03546155
28	0xbe1b7cf6	-0.15184388
29	0xbd785f8c	-0.060637996
30	0x3a8c82b4	0.0010720105
31	0x3d9c2b46	0.07625441
32	0xbdde5b41	-0.10857249
33	0xbddf94ce	-0.10917054
34	0xbbf8d0c6	-0.007593247
35	0x3d3bd2ff	0.04585552
36	0xbc002737	-0.00782185
37	0xbdc350a5	-0.09536866
38	0xbe0fb864	-0.14035183
39	0xbccda1bf	-0.02510154
40	0xbc9c9ed5	-0.019118706
41	0xbdab6911	-0.08369649
42	0xbd64218b	-0.05569605
43	0xbe0de0e2	-0.13855317
44	0xbdbf0304	-0.09326747
45	0x3d163bdd	0.036678184
46	0xbd821dce	-0.06353341
47	0x3d1ec451	0.03876144
48	0xbd321cc2	-0.043484457
49	0x3d153615	0.03642853
50	0xbc465e85	-0.012107496
51	0xbd3da12b	-0.04629628
52	0xbc70f92c	-0.014707845
53	0x3c5b7d7e	0.013396619
54	0xbd5faf6d	-0.05461066
55	0xbdd900c9	-0.10595853
56	0x3cb602f9	0.022218214
57	0xbd8c27ad	-0.06843505
58	0xbc5b522b	-0.01338629
59	0xbcdd2a04	-0.026997574
60	0xbdb5043e	-0.088387
61	0xbdc32dd6	-0.09530227
62	0xbd47a146	-0.048737787
63	0x3ca034fa	0.019556511
64	0xbde43d3d	-0.11144493
65	0xbdc310c3	-0.095246814
66	0xbd78072a	-0.060553707
67	0xbd794683	-0.06085826
68	0xbde76d61	-0.11300159
69	0xbde4e075	-0.11175624
70	0x3d1179d8	0.03551659
71	0x3b7605d6	0.00375401
72	0x3ccc40bd	0.024933213
73	0x3d3c6f37	0.0460045
74	0xbca65d76	-0.020308238
75	0x3d3b4649	0.045721326
76	0x3c0a709c	0.0084497
77	0x3b62d7b4	0.0034613432
78	0x3c2138a3	0.009840163
79	0xbdc259d9	-0.09489793
80	0xbe2c1f73	-0.16808872
81	0xbdf2b9b6	-0.11851828
82	0xbd9f1a78	-0.077687204
83	0x3d86f345	0.06589369
84	0xbe3a2093	-0.18176489
85	0x3d1d11be	0.038347
86	0xbd08f069	-0.033432398
87	0xbdc5edff	-0.09664535
88	0xbd949f5c	-0.07256958
89	0xbdfd3d4a	-0.123652056
90	0xbd295861	-0.04134405
91	0x3d6889cf	0.05677205
92	0xbd30fd56	-0.04321035
93	0x3d1fcb93	0.039012503
94	0xbbfbe7bd	-0.0076875375
95	0xbde738a6	-0.11290102
96	0xbdbba4f7	-0.09162324
97	0xbda3860f	-0.07984554
98	0xbcee45ce	-0.02908602
99	0xbddb03d3	-0.10694089
100	0xbca872bc	-0.020562522
101	0xbc5f0cd2	-0.013613896
102	0x3de1ffbb	0.11035105
103	0x3af3fb05	0.0018614238
104	0xbe3e80cc	-0.1860382
105	0xbceee3c9	-0.02916135
106	0xbca44afd	-0.020055288
107	0xbe0242de	-0.1272082
108	0xbd5d7ad1	-0.054072205
109	0xbda505e2	-0.08057763
110	0xbd7b231d	-0.061312784
111	0x3d044718	0.032294363
112	0xbd058be9	-0.03260413
113	0xbde97ed9	-0.114011474
114	0xbc3af99f	-0.011412053
115	0xbda7cd2b	-0.081934296
116	0xbe3f3ca3	-0.18675475
117	0xbc87e23c	-0.01658737
118	0xbb2fc6dd	-0.0026821413
119	0xbde026fb	-0.10944935
120	0x3d39ab02	0.0453291
121	0xbce11c4d	-0.027479315
122	0x3c0eb6e9	0.008710601
123	0x3d101fc7	0.035186555
124	0xbdab53cf	-0.083655946
125	0xbdc5c2ac	-0.09656271
126	0xbe1820db	-0.14856283
127	0x3c3ae5cd	0.011407328
128	0xbddf5228	-0.10904342
129	0x3d7b3248	0.06132725
130	0xbcd05d1f	-0.025435029
131	0x3dd2aad1	0.10286487
132	0x3e11d5d7	0.1424173
133	0xbd583fa8	-0.052795082
134	0x3ce8669e	0.028369244
135	0x3bc15c4d	0.0059008957
136	0x3dba2cc6	0.09090571
137	0x3d433edc	0.04766737
138	0xbcea6b34	-0.028615572
139	0xbc2b0cab	-0.010440032
140	0xbdaa2449	-0.08307702
141	0xbd2ea858	-0.042641014
142	0x3dcde88e	0.10054122
143	0x3ca8dd4d	0.020613337
144	0x3d92a741	0.071608074
145	0xbc3c386c	-0.011488061
146	0x3dc067ba	0.09394784
147	0x3cda4156	0.026642483
148	0x3d870f83	0.065947555
149	0x3dd1d0b8	0.10244888
150	0x3ce4e8d9	0.027943062
151	0x3e0ee18f	0.13953231
152	0x3ca6d82c	0.02036675
153	0x3e1cc41f	0.1530919
154	0x3cc5f61e	0.02416521
155	0x3cada8c1	0.021198632
156	0xbd436bee	-0.04771035
157	0xbda4d346	-0.0804811
158	0xbcad2e3d	-0.021140212
159	0x3c639d14	0.013892431
160	0x3d900804	0.07032779
161	0xbde2b108	-0.11068922
162	0x3dc6996a	0.0969723
163	0xbd8445a7	-0.06458598
164	0xbd391439	-0.0451853
165	0x3c222e5e	0.00989875
166	0xbdf820d1	-0.12115634
167	0x3da51d79	0.08062262
168	0x3d1175fb	0.035512906
169	0x3defcae0	0.11708617
170	0x3d2ac892	0.041695185
171	0x3d936209	0.07196433
172	0xba8534dc	-0.0010162848
173	0xbd687f2f	-0.056761917
174	0x3d88267a	0.06647964
175	0x3dc1d58d	0.0946456
176	0xbd21fc81	-0.039547447
177	0xbbf982dc	-0.0076144766
178	0xbd0445ed	-0.03229325
179	0xbda75fe1	-0.08172584
180	0x3beaa6c5	0.0071609938
181	0x3d847439	0.0646748
182	0xbd9a9889	-0.07548625
183	0x3df93746	0.12168746
184	0x3d2a20dd	0.041535247
185	0x3cfa6f5c	0.030570678
186	0x3db472b7	0.088109426
187	0xbc8e864b	-0.01739802
188	0x3cbe3616	0.02321915
189	0xbd0b654d	-0.034032155
190	0x3e0101ec	0.1259839
191	0xbdb62adf	-0.08894896
192	0xbd78bc40	-0.060726404
193	0xbd6830ac	-0.056687042
194	0xbd7ddaa0	-0.061976075
195	0x3e0a2d54	0.13493854
196	0x3d4ec333	0.050479125
197	0x3d9dd1cc	0.07706031
198	0xbd782044	-0.060577646
199	0x3d247779	0.040153
200	0x3d804c7c	0.06264588
201	0x3d1b643c	0.037937388
202	0x3d9b6ae6	0.07588749
203	0x3dbfb097	0.09359854
204	0x3c830be3	0.015996879
205	0x3e0a0af6	0.13480744
206	0x3c451f60	0.012031406
207	0xbda4e73b	-0.08051916
208	0xbdaec94a	-0.085344866
209	0xbde7ea94	-0.11324039
210	0x3da767d7	0.08174103
211	0xbcc03418	-0.02346234
212	0xbc2cf547	-0.010556526
213	0x3e214da5	0.15752275
214	0x3cf401f6	0.029786091
215	0x3bed86af	0.0072487216
216	0xbd3f9747	-0.04677513
217	0xbdec9f0e	-0.11553775
218	0x3dba7307	0.09103971
219	0xbbad5b0f	-0.005290396
220	0x3e01e837	0.12686239
221	0xbc8f187b	-0.017467728
222	0x3cc954c8	0.02457656
223	0xbc29aa96	-0.010355612
224	0x3db4d556	0.08829753
225	0xbd838f69	-0.06423838
226	0xbb860b23	-0.004090683
227	0x3da74c95	0.08168904
228	0xbcb49dfa	-0.022047985
229	0x3d9bb688	0.076031744
230	0xbd2ff686	-0.042959712
231	0xbda7a464	-0.08185652
232	0xbcb64365	-0.022248933
233	0xbcc5119a	-0.024056245
234	0xbd84ae0e	-0.06478511
235	0xbd25677f	-0.040381905
236	0x3c19ee21	0.009395153
237	0x3ccab496	0.024744313
238	0xbc9f610c	-0.019455455
239	0x3e0491e8	0.12946284
240	0xbd30ce3e	-0.043165438
241	0x3dbb5ae3	0.09148195
242	0x3dac2dc2	0.08407165
243	0x3dcc58f7	0.09977906
244	0xbdcc07fa	-0.09962459
245	0x3da33f76	0.079710886
246	0xbc973e81	-0.018462421
247	0x3d5db457	0.054127064
248	0x3cb56b2a	0.022145826
249	0xbcc42fab	-0.023948511
250	0x3d7a1d65	0.06106319
251	0x3da5949b	0.08084985
252	0xbddde339	-0.10834355
253	0xbda09cc3	-0.078424
254	0x3dd81463	0.105507635
255	0x3d3cf5a9	0.046132717

rnn_beta.weight_ih_l0 f4 [512, 64]
0	0xbde1b7bd	-0.110213734
1	0x3d11c9ed	0.035592962
2	0xbdd9a607	-0.1062737
3	0x3e1361ba	0.14392748
4	0x3dc9d84a	0.09855707
5	0x3d1e0f2f	0.0385887
6	0xbdbcbb9b	-0.092154704
7	0x3d61e786	0.05515244
8	0xbd8cfee6	-0.068845555
9	0xbc5dc15d	-0.013534871
10	0xbd91ec65	-0.07125167
11	0x3c374958	0.01118692
12	0xbd4eb5bc	-0.050466284
13	0xbd9293e9	-0.07157118
14	0xbe048afb	-0.12943642
15	0x3dc2e8d2	0.09517063
16	0x3d59956f	0.053121027
17	0x3d7f62cc	0.06235008
18	0x3c66d980	0.014089942
19	0xbd783bd8	-0.060603946
20	0x3e302abd	0.17203803
21	0xbd1ade1d	-0.03780948
22	0xbe3baefc	-0.1832847
23	0xbe04e230	-0.12976909
24	0x3dd55d98	0.10418242
25	0x3de36c01	0.111045845
26	0xbd8bf687	-0.06834131
27	0x3de857c9	0.11344869
28	0x3df8aa96	0.12141912
29	0x3a47d5ca	0.00076231046
30	0xbc55df0e	-0.013053669
31	0x3df96ac1	0.12178565
32	0x3dd180dd	0.10229657
33	0xbded309e	-0.115815386
34	0x3e39cfd8	0.18145692
35	0xbda3db9d	-0.08000872
36	0x3d16f7e2	0.036857493
37	0xbb5fb61b	-0.0034135643
38	0xbd2277b4	-0.03966494
39	0x3d9e62c9	0.077336855
40	0xbda18cbd	-0.07888172
41	0xbe37fd72	-0.17967775
42	0x3d055fdb	0.032562118
43	0x3dbb75d6	0.09153335
44	0xbccbe027	-0.024887158
45	0x3d2e7e12	0.0426007
46	0x3d803300	0.062597275
47	0xbcfa629d	-0.0305646
48	0x3d544fac	0.051833794
49	0x3d418e28	0.04725471
50	0x3c9451dd	0.018105442
51	0x3dba92f4	0.0911006
52	0x3dc7ce6b	0.09756168
53	0xbe078ad9	-0.1323656
54	0xbe101adf	-0.1407275
55	0x3da86936	0.082231924
56	0xbe31624b	-0.17322652
57	0x3d5fd6ef	0.054648336
58	0x3d23354f	0.03984576
59	0x3d493aba	0.04912827
60	0xbdb0d733	-0.08634796
61	0xbc40a848	-0.011758871
62	0xbd724fa2	-0.059157975
63	0xbd0459d3	-0.032312226
64	0x3de38426	0.1110919
65	0xbcea60ad	-0.028610552
66	0x3e26e2cb	0.16297452
67	0x3ce291bc	0.027657382
68	0x3d5f88c8	0.054573804
69	0xbcf82087	-0.030288948
70	0x3d331be6	0.043727778
71	0x3d1f5231	0.038896743
72	0x3e1ba336	0.15198979
73	0xbd1de51d	-0.038548578
74	0xbbc9fb7e	-0.0061640134
75	0x3e02bb71	0.12766816
76	0x3d39034f	0.04516917
77	0x3e2d3d5c	0.16917938
78	0x3e02c8c2	0.12771896
79	0xbdfdb26d	-0.12387548
80	0xbc1397ae	-0.009008331
81	0x3e0bd956	0.13657126
82	0x3d04687f	0.032326218
83	0x3c355c21	0.0110693285
84	0xbc3cefc3	-0.011531773
85	0x3e32d851	0.1746533
86	0x3e22464f	0.15847133
87	0xbd18eeff	-0.0373373
88	0xbd23d621	-0.03999913
89	0x3d40eca0	0.047100663
90	0xbd18d880	-0.037315845
91	0x3ca9a5e0	0.020708978
92	0x3d66354c	0.05620317
93	0xbcf2c812	-0.029636417
94	0xbc53f734	-0.012937356
95	0xbd5c1ba5	-0.0537373
96	0xbd2d0088	-0.042236835
97	0xbc626c2e	-0.013819737
98	0x3de2e22a	0.110782936
99	0x3dd10696	0.10206334
100	0x3bc16633	0.0059020757
101	0xbdf3d70d	-0.11906252
102	0x3e71236c	0.23548669
103	0x3d87170a	0.06596191
104	0xbe57db79	-0.21079816
105	0x3d9a6467	0.075386815
106	0xbdb9407b	-0.09045502
107	0xbdfc9c44	-0.12334493
108	0x3e0a9534	0.13533479
109	0x3d3f2480	0.04666567
110	0x3e27ab13	0.16373853
111	0x3de60a22	0.112324014
112	0xbd2001f8	-0.039064378
113	0x3bfa48b3	0.007638061
114	0xbda39f1b	-0.07989331
115	0xbd29cf2a	-0.041457333
116	0xbdffb91d	-0.124864794
117	0x3db16a41	0.086628444
118	0x3daccb3b	0.08437201
119	0x3dc84f23	0.09780719
120	0x3d34ebe1	0.044170264
121	0xbda0bde2	-0.07848717
122	0xbe2701f4	-0.16309339
123	0x3dc40125	0.09570531
124	0x3d726732	0.059180446
125	0xbc8e4d90	-0.017370969
126	0x3d6c4af3	0.057688665
127	0x3dc2b0f5	0.09506408
128	0xbe18af86	-0.14910707
129	0x3df23552	0.11826576
130	0x3d3abe4f	0.04559165
131	0xbd91347a	-0.07090087
132	0x3d3ea617	0.046545114
133	0x3a30b096	0.00067401805
134	0x3d8b44fe	0.068002686
135	0x3ddddf78	0.10833639
136	0x3e15b3ef	0.1461942
137	0xbe249cfa	-0.16075507
138	0xbd806448	-0.06269127
139	0x3e153c85	0.14573868
140	0xbdacbe65	-0.084347524
141	0x3d00ee9f	0.031477567
142	0xba5dc64a	-0.00084600283
143	0xbe369951	-0.17831923
144	0x3dba3933	0.09092941
145	0x3d6a5f05	0.057219524
146	0x3cab5d87	0.02091862
147	0xbd7ede1f	-0.06222355
148	0x3d99a8de	0.07502912
149	0xbd1dbdc3	-0.03851105
150	0x3d33438d	0.043765593
151	0xbdb41a07	-0.08794027
152	0xbe1264c6	-0.14296255
153	0x3df9733a	0.12180181
154	0x3d72dcd6	0.059292637
155	0x3d95aad0	0.073079705
156	0x3d9e262a	0.07722123
157	0xbc78da00	-0.015188694
158	0xbcaf3c6b	-0.021391114
159	0x3d6f66b9	0.058447573
160	0x3be4bf10	0.0069807842
161	0xbdaaa4c6	-0.08332209
162	0x3d9b7e27	0.07592421
163	0x3ca67b03	0.020322328
164	0x3d3df0b6	0.046372138
165	0x3df5afda	0.11996432
166	0x3e16c64f	0.14724086
167	0x3e33c7a2	0.17556623
168	0xbe278a44	-0.16361338
169	0x3d0d876f	0.034552988
170	0xbd5bbcc6	-0.053646825
171	0x3b65b8b0	0.003505271
172	0x3da26fb5	0.07931463
173	0xbe19642a	-0.14979616
174	0xbdef3888	-0.11680704
175	0xbdc30942	-0.0952325
176	0xbe231049	-0.15924181
177	0xbe199b63	-0.15000682
178	0x3e403782	0.18771175
179	0xbe3f2ff2	-0.18670633
180	0xbd170cd1	-0.036877457
181	0x3e026985	0.12735565
182	0x3e1cf32f	0.15327142
183	0x3b1798d7	0.002313187
184	0xbd5d5fd8	-0.05404648
185	0x3d7264d3	0.059178185
186	0x3d017f3f	0.031615492
187	0x3e013cd8	0.12620866
188	0x3de240ad	0.11047492
189	0x3dca1f13	0.09869208
190	0x3e419c6a	0.18907323
191	0xbe01e8ce	-0.12686464
192	0xbcccfbf2	-0.02502248
193	0x3b82a92d	0.0039874525
194	0x3d3cd83d	0.04610466
195	0x3d86b689	0.065777846
196	0xbdc1e3e2	-0.09467293
197	0xbc4e3167	-0.012585021
198	0x3d63b87c	0.05559586
199	0xbd82201c	-0.063537806
200	0xbd5e460d	-0.054266024
201	0xbc91f610	-0.017817527
202	0xbdd7e7b8	-0.10542244
203	0xbd3b5c38	-0.045742244
204	0x3dd2f92f	0.10301434
205	0x3caf24f7	0.02137993
206	0xbc0a7079	-0.008449667
207	0x3d817dd9	0.06322832
208	0x3cec99dc	0.02888196
209	0x3e1a57d5	0.15072568
210	0x3c2985dc	0.010346856
211	0x3de37955	0.111071266
212	0x3db1fea4	0.08691147
213	0x3d50b23f	0.05095124
214	0xbe18e3db	-0.1493067
215	0x3c1231b6	0.008922985
216	0x3d812b3a	0.06307073
217	0x3c1f5be8	0.009726502
218	0x3cad4e89	0.021155613
219	0x3cc0522d	0.023476684
220	0x3d0537d8	0.03252396
221	0xbd97641b	-0.073921405
222	0x3d343358	0.043994278
223	0x3d120c0b	0.035656016
224	0xbd8d8202	-0.06909563
225	0xbd44ef84	-0.048079982
226	0x3db1e4f9	0.08686251
227	0x3e0b6403	0.1361237
228	0xbdc094d7	-0.09403389
229	0xbd919304	-0.07108119
230	0xbd5c9834	-0.05385609
231	0x3c09fdc8	0.008422323
232	0xbb64c7ff	-0.0034909246
233	0xbe224eb1	-0.15850331
234	0xbd11ae48	-0.0355666
235	0x3d930a6b	0.071797214
236	0xbd905682	-0.0704775
237	0x3ddbd5b8	0.10734123
238	0xbb742f25	-0.0037259546
239	0xbdb88560	-0.09009814
240	0x3d665340	0.056231737
241	0x3d9127f9	0.07087702
242	0xbbbd42b2	-0.005775773
243	0x3dd5f1f8	0.104465425
244	0x3c2b0c51	0.010439948
245	0xbe04546a	-0.12922826
246	0xbe136a37	-0.14395986
247	0xbb606dee	-0.003424521
248	0xbda6e7eb	-0.081497036
249	0x3cb2295f	0.021748243
250	0xbce230b5	-0.027611116
251	0xbca7edb7	-0.020499093
252	0xbe83883f	-0.25689885
253	0x3e1e3bab	0.15452449
254	0xbd531157	-0.05153021
255	0x3de2829f	0.1106007

rnn_beta.weight_hh_l0 f4 [512, 128]
0	0xbdd4da2e	-0.10393177
1	0x3ca68deb	0.020331344
2	0x3db38427	0.087654404
3	0xbd7c239d	-0.0615574
4	0x3dd34812	0.10316481
5	0xbcea54dc	-0.028604917
6	0xbd0d3e8c	-0.034483477
7	0xbd9a5137	-0.07535022
8	0x3d4b2c74	0.04960294
9	0x3ca71689	0.020396488
10	0xbd8d3ede	-0.068967566
11	0x3e264fe6	0.16241416
12	0x3d1455d1	0.036214653
13	0x3d4d40de	0.05011069
14	0xbe0e3d7f	-0.13890646
15	0x3c9127e2	0.017719213
16	0x3d9c2b35	0.076254286
17	0xbd13fb4a	-0.03612832
18	0x3cf8777e	0.030330416
19	0xbd75015f	-0.05981576
20	0x3e6feb25	0.23429544
21	0xbc819ba0	-0.015821278
22	0x3dd708fd	0.10499761
23	0x3d2439cd	0.040094186
24	0xbda400ee	-0.0800799
25	0x3de7d079	0.1131906
26	0xbbd4dfd9	-0.0064964113
27	0x3c7af2f8	0.015316717
28	0xbdf40508	-0.11915022
29	0x3e273666	0.16329345
30	0xbdf38203	-0.11890032
31	0xbe2080ad	-0.15674086
32	0xbcf2011f	-0.02954155
33	0xbe0f9e8d	-0.14025326
34	0x3e678129	0.22607864
35	0x3cbd05ee	0.023074117
36	0xbdadcea3	-0.084866785
37	0x3e6e42b0	0.23267627
38	0x3d6f181f	0.058372613
39	0xbc281766	-0.010259485
40	0x3d407faa	0.04699675
41	0x3d8dcbb3	0.06923618
42	0xbd940152	-0.07226814
43	0xbdaee08d	-0.085389234
44	0x3cb961fc	0.02262973
45	0xbd9eb3d4	-0.07749143
46	0xbdb6ac03	-0.089195274
47	0xbcc06e79	-0.023490177
48	0x3c91afa4	0.017783947
49	0xbe116af6	-0.14200959
50	0x3d977ee1	0.07397247
51	0x3e0bf3fe	0.13667294
52	0xbcdd9aca	-0.027051348
53	0x3cd9e3b1	0.02659783
54	0x3d32b49a	0.043629266
55	0x3d3970e7	0.045273688
56	0x3d930b5b	0.071799
57	0xbe5c8807	-0.21536265
58	0xbd6652f8	-0.05623147
59	0x3d8ecbdb	0.06972476
60	0x3c935d01	0.017988684
61	0xbe0316db	-0.12801687
62	0xbe23e2b6	-0.16004452
63	0x3dff3ece	0.12463151
64	0x3d0f00eb	0.034912985
65	0xbe378da1	-0.17925121
66	0xbe102227	-0.14075528
67	0xbe24d6a1	-0.160975
68	0xbe16163f	-0.14656924
69	0x3d0df8d9	0.034661148
70	0xbdd42fde	-0.103606924
71	0xbcf47552	-0.029841099
72	0xbc6c7d30	-0.014434144
73	0xbdeff7ff	-0.117172234
74	0x3df3b887	0.1190043
75	0xbdc54057	-0.096314125
76	0xbe1cda6e	-0.153177
77	0xbc8c5e19	-0.017134713
78	0x3d9bfebf	0.07616948
79	0xbdd25c15	-0.102714695
80	0x3c9048de	0.01761287
81	0xbc7cf588	-0.015439399
82	0xbd96f8bf	-0.07371663
83	0x3ce1d3c4	0.027566798
84	0x3d4bd846	0.0497668
85	0x3d22672d	0.039649177
86	0x3d908562	0.07056691
87	0x3ddf0e04	0.10891345
88	0x3cf3c0e1	0.029755058
89	0xbdf4908c	-0.11941633
90	0xbcbf974e	-0.023387577
91	0xbc8a7d0c	-0.01690533
92	0x3d82a4bf	0.06379079
93	0x3d76f506	0.060292266
94	0x3c60272a	0.013681212
95	0x3e0ec301	0.13941576
96	0x3cfc8c46	0.030828606
97	0xbd3a991c	-0.045556173
98	0x3da79f15	0.08184639
99	0xbdf5f4a1	-0.1200955
100	0x3de46667	0.11152344
101	0xbca8fe24	-0.020628996
102	0xbd1750c6	-0.036942266
103	0x3e28fe03	0.16503148
104	0xbdefeb7c	-0.11714837
105	0x3d12aff8	0.035812348
106	0x3d7afd2d	0.061276603
107	0x39d42f15	0.0004047087
108	0x3d34becb	0.044127267
109	0xbe46cf9a	-0.19415131
110	0xbe121df2	-0.14269236
111	0x3e0f145a	0.13972607
112	0xbdc838ac	-0.09776434
113	0x3b503b0e	0.003177348
114	0x3d8aac9d	0.067712046
115	0xbdc8b73b	-0.098005734
116	0xbdb5548b	-0.08854016
117	0xbda912cd	-0.08255539
118	0xbdfb6b7e	-0.12276362
119	0x3e2f667e	0.17128941
120	0x3d1d1c0a	0.03835682
121	0xbddff0d2	-0.10934605
122	0xbe0401b2	-0.12891272
123	0xbd5011cf	-0.050798234
124	0xbd9e84f7	-0.07740205
125	0x3b81d381	0.003961981
126	0xbe0f940d	-0.1402132
127	0xbdbf5020	-0.093414545
128	0x3cbef4e2	0.023310129
129	0xbd37bf49	-0.044860158
130	0x3cb9ff88	0.022704855
131	0xbdd01bbc	-0.1016154
132	0x3db6a7fc	0.08918759
133	0xbda0d2ce	-0.07852708
134	0x3dafe194	0.085879475
135	0xbd9c352f	-0.076273315
136	0xbcf8be78	-0.03036426
137	0xbca4e87d	-0.02013039
138	0xbdc73b8c	-0.097281545
139	0xbca106b4	-0.019656517
140	0x3cc99f09	0.024611967
141	0xbb9b66e3	-0.0047424897
142	0xbdeca611	-0.11555112
143	0xbc3bb891	-0.011457578
144	0xbc0dc379	-0.008652561
145	0x3d47ad04	0.048748985
146	0x3d8b383c	0.06797835
147	0xbdb94856	-0.09047
148	0x3c3b79ed	0.011442644
149	0xbd4d78cb	-0.050164025
150	0xbaaf71a1	-0.0013385304
151	0x3d0b3b7a	0.03399227
152	0x3d4224b3	0.04739828
153	0x3d9441c0	0.07239103
154	0xbdafdaa4	-0.08586624
155	0x3bb29c0e	0.005450732
156	0x3cf17fae	0.029479828
157	0xbdddadfd	-0.10824201
158	0xbda86abd	-0.08223484
159	0xbd50f0a1	-0.05101073
160	0x3d72ae57	0.059248295
161	0xbd85524f	-0.0650984
162	0xbd138f27	-0.036025193
163	0x3c7bb09e	0.015361933
164	0x3cdbaa59	0.026814627
165	0x3d19babd	0.037531603
166	0x3dd23327	0.10263663
167	0x3d948a21	0.072529085
168	0xbd24365e	-0.04009091
169	0xbd3ec0f9	-0.04657075
170	0xbdaebd72	-0.085322276
171	0xbd9748f2	-0.0738696
172	0xbd7567c9	-0.05991343
173	0x3dcc849d	0.099862315
174	0x3c274ed2	0.010211663
175	0x3dfcbe81	0.12341023
176	0xbd8176f5	-0.063215174
177	0x3d528a84	0.05140163
178	0xbd1a725b	-0.037706714
179	0xbbcdd68a	-0.0062816786
180	0xbd1e73dd	-0.038684715
181	0xbd762bf3	-0.060100507
182	0x3e3e1e99	0.1856636
183	0x3d9ff6e1	0.0781076
184	0x3cd28dcf	0.025702385
185	0x3d7a48c8	0.061104566
186	0xbd8dbbf9	-0.069206186
187	0x3d347e6c	0.044065878
188	0xbd7fc654	-0.062445
189	0xbde94f1b	-0.11392041
190	0xbdbbdb67	-0.09172707
191	0xbdbd2d8c	-0.09237203
192	0xbcc0fbbf	-0.023557542
193	0x3b4562fe	0.0030118818
194	0x3d94de1d	0.07268927
195	0xbe063dd7	-0.13109528
196	0x3d9119f0	0.07085025
197	0x3dc4121a	0.09573765
198	0xbd81abaf	-0.06331574
199	0x3d4aab41	0.049479727
200	0x3cc5d24e	0.024148133
201	0x3dc9c4ef	0.09852015
202	0x3d589dd8	0.052884907
203	0x3ac8b0b7	0.0015311454
204	0xbe12bd00	-0.1432991
205	0x3db391f7	0.08768075
206	0x3c00de64	0.007865522
207	0xbd59a71d	-0.053137887
208	0x3d0e5345	0.03474738
209	0xbb978241	-0.004623682
210	0x3d7662fe	0.060153
211	0x3d43fd45	0.04784896
212	0xbde1b238	-0.11020321
213	0xbd6a44f8	-0.05719468
214	0x3ce61e9f	0.028090773
215	0x3d946e42	0.072475925
216	0x3d963acf	0.073354356
217	0x3da2b4e8	0.079446614
218	0xbbaabf2f	-0.005210779
219	0x3d614e33	0.055006217
220	0xbb9a659c	-0.00471182
221	0xbcdb515f	-0.0267722
222	0x3b149c95	0.0022676338
223	0xbdb752ea	-0.089513615
224	0x3da10a69	0.07863314
225	0x3d24f619	0.04027376
226	0xbd6f9c83	-0.05849887
227	0xbd3a0ff4	-0.04542537
228	0xbc89b6d2	-0.016810808
229	0x3d310063	0.04321326
230	0xbde142df	-0.10999083
231	0x3d187afb	0.03722666
232	0x3e1fda9e	0.1561074
233	0x3b0eb2a9	0.002177397
234	0x3d1f354c	0.038869187
235	0xbdccfa63	-0.10008695
236	0xbc219c01	-0.009863854
237	0xbddf9a36	-0.10918085
238	0xbc94833b	-0.018128982
239	0xbda987d2	-0.08277859
240	0x3da98958	0.08278149
241	0x3bbb480e	0.0057153767
242	0x3d8d07a1	0.06886221
243	0x3d187b91	0.037227217
244	0x3d358a47	0.044321325
245	0xbd9cbe50	-0.07653487
246	0x3d3c7d5a	0.046017982
247	0xbd94f004	-0.07272342
248	0x3de2cfe3	0.110748075
249	0xbc89e609	-0.016833322
250	0xbd581bc2	-0.052760847
251	0x3d96d6e9	0.073652096
252	0x3c9719a9	0.018444853
253	0x3e28066e	0.16408703
254	0xbd96741e	-0.07346366
255	0x3db7d649	0.089764185
