processing/models/weights/idiab_2_idiab/test_tl/RETAIN_TL_idiab1.pt (torch_old, 683454 bytes, 13 tensors)

embeddings.weight f4 [32, 3]
00000000: 74fd 53be 4adc 8bbe f4ee 12be 2692 79be
00000010: e247 c2be 9fde ecbd 0b9b 3bbe 942d 37be
00000020: b5b9 3abe 51ff 35be 2008 5abe 91b8 03be
00000030: 6472 72be 858e 6dbe 22d1 38be 547d ab3e
00000040: 627a 783e 4af7 0f3e adc7 f63e 69b2 c2be
00000050: 76b4 eebd dd0d 72be 0586 3bbe e0d6 25be
00000060: caa9 803e 57ff a93e ad77 8e3e c4a9 963e
00000070: c48c a5be 1219 813e c5fb ed3e e965 85be
00000080: c7e3 89be 4d2b 593e 3cdd c53e d301 503e
00000090: e8cb aabe a604 003e a58b 0d3e 900b b33e
000000a0: 8abe c53d 1319 c0be 43e7 1ebe 2f50 8bbe
000000b0: f460 fdbd 6918 9d3e 0dec a7be 7978 723e
000000c0: c0a4 30be 47b0 90be 4f42 73bd c699 79be
000000d0: ca61 9b3e 5e67 c8be 2e1f 2f3e 8afe 993e
000000e0: cc03 fd3d 097f 1ebe bd86 19be fca7 09be
000000f0: a46c e23e d958 3e3d 5a0c c8be 3676 40be
00000100: be0c 9bbe 38be 23be 485c 563e 5396 a03e
00000110: b666 443e c873 5b3e be0a a83e 2d69 203e
00000120: d78f c2be 005e 00bf 8473 c13e 512e 8bbe
00000130: 2088 88be 0d34 92be 886f 7cbe a9fe 01bf
00000140: 6728 b63e fd26 babe 30d5 773e e4d3 033e
00000150: 261a a2be 66ed 9ebe 4dcc cc3e b499 abbe
00000160: 0486 703e 21ee c4be 284a 863e d63b 9ebe
00000170: f72e 8b3e f36e 80be ef6c c4be 6095 f3bd
-0.20702153 -0.27316505 -0.14348966 -0.24372157 -0.37945467 -0.11565899 -0.18320863 -0.1788848
-0.18234904 -0.17773177 -0.21292162 -0.12863375 -0.23676449 -0.23198898 -0.18048528 0.33494055
0.24265435 0.14059177 0.48199216 -0.3802674 -0.11655514 -0.23638101 -0.18312843 -0.1619525
0.2512954 0.3320262 0.2782568 0.29426396 -0.32333958 0.2521444 0.46481147 -0.26054314
-0.26931593 0.21207924 0.3864535 0.20313196 -0.33358693 0.12501773 0.13822801 0.3496976
0.09655483 -0.3751913 -0.15517907 -0.27209613 -0.12372008 0.30682686 -0.3279728 0.23678769
-0.17250347 -0.2825949 -0.05938941 -0.24375066 0.30348045 -0.39141363 0.17101738 0.3007701
0.1235424 -0.15478148 -0.14992805 -0.13442987 0.4422351 0.04647145 -0.39071923 -0.18795094
-0.3028316 -0.15990531 0.2093364 0.31364688 0.19179806 0.21430886 0.32820696 0.15665121
-0.38000366 -0.5014343 0.37783444 -0.27183774 -0.26666355 -0.28555337 -0.24651921 -0.50779206
0.355777 -0.3635787 0.24202418 0.12873799 -0.31660575 -0.31040496 0.3999962 -0.33515704
0.23488623 -0.38462928 0.26228452 -0.30905026 0.2718427 -0.25084648 -0.3836436 -0.118937254

rnn_alpha.weight_ih_l0 f4 [512, 32]
00000000: 9a38 593d 730d 6dbd 8c50 883b bea4 c3bd
00000010: 508e 26bc 9741 943e efdc 353e fabb bdbd
00000020: 9606 9abd 296a 043e 6f20 4a3e 149f c43c
00000030: 2c26 60be 56b7 dc3e c9e3 52be 2fd4 203e
00000040: e22b 26be efb4 42bd a8fe e23d ec48 71bd
00000050: b5fd d93e 74fe 553d 4dcf 95bd b6b2 a53d
00000060: 4f97 c5be ef9e 2abd bb66 afbe df55 8fbd
00000070: cbb8 c7be 0618 fcbc 10b7 bb3d 8807 11be
00000080: 3847 0b3e 605b 003c 42f3 773e 6786 063e
00000090: 0559 533e 084b 44be 9154 05be a8b0 7c3e
000000a0: 2c35 57be 048e e7bd ece3 613d 4aa7 06be
000000b0: 1077 a53d ea9e f63d 2a30 bc3c 6420 10be
000000c0: 8d76 ed3d 3ce4 423e af70 3abd 1c51 633e
000000d0: ce3b 163e 988c 363e 3076 ebbd 3b43 3abe
000000e0: 3f23 4e3d 6e59 233e f427 91bc d4fb b03d
000000f0: 6c1c 4ebe 34df 423e 9aa3 42be 667b f63d
00000100: 2eaf 523e da2a 603e 4611 823d d7e2 063e
00000110: 2839 043d f68a 31be 1028 e8bd 08d0 3a3e
00000120: 056f f8bc 2a99 0d3d 9e70 19be da94 3abe
00000130: ddb4 903e 9387 3dbe 5637 fd3d db21 c6bd
00000140: 5761 a33e b2c8 44bd 2e6b e7bd dd49 a43d
00000150: 98c3 1cbe db94 b93d 388f 15be a8e3 a5bd
00000160: f024 3f3e 8e6a dc3d a623 283e a160 493e
00000170: a7a3 4e3e 7dfc 48bc a98c a73c b31e 9d3e
00000180: 4cbf 9cbd 9996 9cbd 0393 03be a0b6 8fbd
00000190: fe45 afbd 9018 513e c07b 8e3d fee3 2dbe
000001a0: 7e4b 4a3e a9fe 4ebb 02c6 c43d 77b8 183e
000001b0: 683d c2bc 3fe9 0d3d 7818 f2bd 5193 423d
000001c0: 261a debd 29e0 00be 1447 4a3e 8f7a 1ebe
000001d0: 81cd 2e3e 5ac9 36be 1331 d43d 6ca3 473e
000001e0: b255 a5bd af17 4ebe b441 00be dfdd 9abd
000001f0: cc8a b5bb 81a1 0dbd b635 9a3d 771b d7bd
00000200: ab5c a43d 85dc 9c3d 105f 6f3d d2cd c83d
00000210: 5fa5 6dbd 49f4 0e3d 0c31 343e 0b91 b23d
00000220: 9f31 a63c aa75 343e b303 4f3e be1b 13bd
00000230: 0155 23be c864 f73d c3dc 4bbd 7c8a 273e
00000240: b665 27bc bc23 b1bd 53b4 1abd 9810 c3bd
00000250: 89b4 c43d 7e8f d8bc 7a2f c9bd 8db5 c6bd
00000260: 6120 fcbd 061f 63bd 51ac c63c bd5e 46be
00000270: 28ec c8bd 2fbd 01bc b395 dd3d 9564 bd3d
00000280: 9399 68be 023d 17be 4649 e9bd 47fe f0bd
00000290: 8d0b 73be c036 103e b8b4 e5bd d79d 1dbe
000002a0: 16e5 453e b5ae 573d 2c66 18bd 3c1e d53d
000002b0: cd00 ee3d 40a6 e13c c9fe 0abe d3d3 17bd
000002c0: f306 79be 2b79 eabc cf16 103e 696b 38be
000002d0: 1ac5 11bc f34c 5bbe 99bb c63d 458d 693e
000002e0: c867 71bd 3beb e7bd 73bd a6bd c242 a7bb
000002f0: a02b 45bd 85cd 80bd 2661 da3c d55a abbd
00000300: ffd3 5abd 1760 2bbe bcf8 a0bd 3315 a6bd
00000310: c04c 563d 835c c53d 877a 603e ac42 30bc
00000320: aff3 6a3d 5277 8f3d 67c1 cc3e bfb6 97bd
00000330: d4f2 90be 4568 db3e 6720 0d3c a621 013d
00000340: 9b4a c4bd b2f6 aebd c783 debc c1a3 9b3c
00000350: 8e17 863e 6388 2d3d c126 4d3d 3768 ad3d
00000360: 30a9 9dbe 4d59 8b3d 3f54 c0be 9340 81be
00000370: 445c cfbe c4c6 03be bff5 923d 90f3 cfbb
00000380: fd8b 9d3e 8f15 e93e 8f8e 893e 5e70 0e3f
00000390: d50a d03e d460 ebbe 5856 43be 4838 083f
000003a0: c359 b7be a20c 23be 511d c4bd a2dc 98be
000003b0: 428a be3e 5927 54be f1e4 fa3e 5993 bbbe
000003c0: d455 e33e 6942 773d a370 c6be 6f39 c53e
000003d0: 707c 66be 9736 d73e 8868 bfbe 83db f3be
000003e0: ac6b 383e ad86 da3e 2c54 343e 0f50 483e
000003f0: 3cef 453e 900c 883e e7eb 17be 97eb ed3e
0.053032495 -0.057874154 0.0041599926 -0.095529065 -0.010165766 0.2895629 0.1776006 -0.09264369
-0.075207874 0.12931122 0.19738935 0.024001636 -0.21889561 0.43108624 -0.20594706 0.15705942
-0.16227677 -0.047535833 0.11083728 -0.058907434 0.42576376 0.05224462 -0.0731493 0.08090727
-0.38592002 -0.041655477 -0.34258065 -0.069988005 -0.39008173 -0.030773174 0.09165776 -0.14163029
0.13601387 0.0078342855 0.24213889 0.13137208 0.20639427 -0.19169247 -0.13020541 0.24676764
-0.21016377 -0.11306384 0.055149004 -0.13149753 0.0807935 0.12042029 0.022972185 -0.14074856
0.115948774 0.19032377 -0.04551762 0.2219891 0.14671251 0.1782707 -0.11497152 -0.18189709
0.050326582 0.15952083 -0.017719246 0.086417824 -0.2012803 0.19030458 -0.19007722 0.12035255
0.20574638 0.21891347 0.06350951 0.1317247 0.03228107 -0.17338166 -0.11335766 0.1824342
-0.030326376 0.034569897 -0.14984366 -0.18220845 0.28262988 -0.18508749 0.1236407 -0.09674426
0.31910202 -0.04804296 -0.1129974 0.08021901 -0.15308988 0.09061595 -0.14605415 -0.081000626
0.18666434 0.10762511 0.16419849 0.19665767 0.20179616 -0.012267229 0.020452814 0.30687484
-0.076536745 -0.07645912 -0.1284905 -0.07017255 -0.08558272 0.20419526 0.06957197 -0.16981503
0.1975536 -0.0031584895 0.096080795 0.14914118 -0.023710921 0.03464627 -0.11821073 0.047503773
-0.10844831 -0.1258551 0.19753677 -0.1547644 0.17070581 -0.17850247 0.10360923 0.19495934
-0.08072986 -0.20126222 -0.12525064 -0.0756185 -0.0055402275 -0.03457785 0.07529776 -0.105032854
0.080254875 0.07659248 0.058440268 0.09804882 -0.05801904 0.034900937 0.17596835 0.08719071
0.020287333 0.1762301 0.20216255 -0.03591513 -0.15950395 0.120797694 -0.04977108 0.16361421
-0.010217121 -0.08649394 -0.037769627 -0.095246494 0.09604747 -0.02643561 -0.098235086 -0.09702597
-0.12310863 -0.055449508 0.024252089 -0.19372077 -0.09810668 -0.00791864 0.108195685 0.092477
-0.22714834 -0.14769366 -0.11390929 -0.117672496 -0.23734875 0.14083385 -0.1121611 -0.15392242
0.1932567 0.052656848 -0.037206814 0.104061574 0.116212465 0.027545094 -0.13573755 -0.037067246
-0.24319057 -0.02862223 0.14071201 -0.18009724 -0.00889709 -0.21416073 0.0970375 0.22807796
-0.058936864 -0.113241635 -0.08141603 -0.0051043937 -0.048137307 -0.062892 0.026657652 -0.08366934
-0.05342483 -0.16735874 -0.07859942 -0.08109512 0.05231929 0.09636786 0.2192174 -0.010758083
0.0573613 0.070051804 0.39991304 -0.07407903 -0.28310263 0.4285299 0.008613682 0.03152623
-0.09584542 -0.08543147 -0.027162446 0.018998982 0.26189846 0.042366397 0.050085787 0.08467143
-0.30793142 0.06804142 -0.37564275 -0.2524458 -0.4050008 -0.12868792 0.071757786 -0.0063461736
0.30770865 0.4552426 0.26866576 0.5564021 0.40633264 -0.45972311 -0.19075906 0.5321088
-0.3581067 -0.15922788 -0.09575904 -0.2985583 0.37214857 -0.20718135 0.49002793 -0.36635855
0.4440142 0.060366068 -0.3875781 0.3852038 -0.22508407 0.42033836 -0.3738444 -0.47628412
0.18009824 0.42680874 0.17610234 0.1956179 0.19329542 0.26572084 -0.14836083 0.46468803

rnn_alpha.weight_hh_l0 f4 [512, 128]
00000000: e083 ef3e c1b1 f83d 4dad 9e3d 1651 6ebe
00000010: f851 923d bf22 9f3d 95c3 e9bb 574c 06bd
00000020: a1f6 e83c f934 ccbd 6463 633d 89b6 0cbe
00000030: 9e1c 1b3e 2b20 09be 3901 c0bd b2d5 29be
00000040: f650 cabe 3c6d 303e 43fc 38be e14c fa3d
00000050: 3182 103e 2daf 013f 6a0e a9bd d7e2 a9bd
00000060: 1374 3d3d 69aa 38bf 648c 96be d983 7abe
00000070: e931 aa3d a7e6 63be 09dd 0bbe 4207 223e
00000080: ddd3 14be b2d1 3cbe 605e 8d3e b692 2c3e
00000090: 06c2 59bf 6223 3e3e 0a7a cebd 7cf3 313e
000000a0: a3a3 d3bd dfd5 a63c 5d07 4ebe 6f4d 0cbe
000000b0: b5e9 603e d415 693e 72a0 e93d 3b98 60be
000000c0: f8cd 193e 151f 1c3b 6228 b93e 8cd3 07bd
000000d0: cf79 b03c 7b88 cd3e 1ef9 9dbe 33ed 343e
000000e0: 0be3 9e3d d993 03bf 4e06 9f3d b570 023e
000000f0: 995c e6bd a5b6 e1be 1349 afbd 24b6 7f3d
00000100: bbc8 43bd 62c7 6ebe 0507 4f3d f326 cdbd
00000110: 0f19 cfbe 8d18 7d3e ea0b 2dbd d438 c6bb
00000120: d0e0 98be bb2e 103f 8070 ddbd 1510 2d3e
00000130: 4603 a9be 7bd5 693e be1d 103e 34b9 333e
00000140: 1ede 9fbb b174 1e3d 2deb 103e 67e4 25be
00000150: 262d 1d3c e6c6 3e3d 4eed debe 6265 c93e
00000160: de86 243d d907 d73e 35f9 78be 0b24 273e
00000170: 44df 853e 3289 83be 01ff 2bbf bf59 093d
00000180: d71b bebd 1dbb d1be c802 7c3e 57e9 3fbd
00000190: 44ff 35be ecd1 023e 60fb 463e 92f2 9fbc
000001a0: 994f cc3e 1a5f c43e 5e78 c5bd 1111 6e3e
000001b0: 1365 6cbe 0c15 3b3e fd3a 04bf 9360 f7be
000001c0: 411e c6be eb95 02be 6184 c7bd 6cfd fabe
000001d0: 93a9 d63b 46e2 873e 9204 5fbe 1e3d 16bd
000001e0: 5f80 09be 5804 8dbe a051 47bb 5159 913d
000001f0: 3231 193e 43bf 5ebe 4e24 5c3e 27fd 40be
00000200: eb3e 00bf 47bb 8dbe 11bc 553e 3942 63be
00000210: d387 e23d a64a f93d c118 f73d 9a3e 8c3d
00000220: 9a7f 043f 6f28 ebbd b1ac cabc 109a 243e
00000230: 862c ba3e b507 d2be 674c 863e 59bd 9b3e
00000240: 6bce 4d3e 15ec a63e 062a 303d c489 793e
00000250: d484 acbe 5429 cf3d fefe 8fbe e6ee 693e
00000260: 74ed 22be 9333 2dbd c592 623e 3728 af3d
00000270: c323 903e f5a6 313d d920 4cbe e2a1 5abd
00000280: 684c 123d b8d7 d1be 5ece 85bd fb4d 093d
00000290: ed12 f2be 5a25 45be 1692 563e 9624 c1bd
000002a0: 26b9 833e 7d8b b83e 933e 0f3e 1f8f 8a3e
000002b0: b2d1 91be a52a f83c a8ad 82be 42bb 563e
000002c0: 13ac 313d e726 293d 517b c7bd 82a0 113d
000002d0: 2df7 91bd a586 1fbd db8e 4bbe 26ea 7ebc
000002e0: 4753 aebd b601 283d 40c6 babe 1c1a 913c
000002f0: 64a9 173d 9366 9cbe 7a55 893e ab81 9fbe
00000300: b494 a3bd 3148 acbe 4481 7bbe 820f fcbd
00000310: 960d 78be 70a1 813e 6cd6 913e 1a66 5dbd
00000320: 1705 3e3e f094 c23e 0d4b 413d e3c8 42bd
00000330: f2ad d03c 0317 05be cbd6 2dbd c9b0 8dbe
00000340: bcc6 d8bd 6d5e 7a3e d5eb 31bc 1e46 85bd
00000350: bb56 b5be d27f b7bd 18bd 733d d36d 43be
00000360: 1c53 41be 50cd 853e 1217 6d3d ac89 35bd
00000370: 3794 a1be 9c17 b53e 92eb 90be 0bf2 73bd
00000380: cf7e 30bf e498 7cbe 2747 78be e935 02be
00000390: b8d7 953d 0a9a 61be f6c3 93be 57e2 bbbe
000003a0: 939c 9fbd 541a 653e 98f5 1a3e 789e cbbe
000003b0: 9cf4 d53c a314 62be 31ea 6cbd 2640 79be
000003c0: bf62 71be 2bbf b63d cfae 863d cf49 a83c
000003d0: 80b6 2fbe 8a84 8abd f275 8abd 214d b73d
000003e0: 9592 8c3d 2580 8a3d b807 04bd 567f a3bd
000003f0: c2b8 d2bd 3880 56be 6707 183e 58db 14bf
0.467803 0.12143279 0.07747898 -0.2327312 0.071445405 0.07770299 -0.007133911 -0.032787647
0.028437914 -0.09971041 0.05551471 -0.13741507 0.15147635 -0.13391177 -0.09375233 -0.16585425
-0.39514893 0.1722917 -0.1806498 0.12221695 0.14112164 0.5065792 -0.082547024 -0.082952194
0.046253275 -0.72135025 -0.29403985 -0.24464358 0.08310301 -0.22255956 -0.13658537 0.15823081
-0.14533944 -0.18439367 0.27611065 0.16852841 -0.8506168 0.18568185 -0.10081871 0.17378038
-0.103339456 0.020365654 -0.20119996 -0.13701414 0.21964152 0.22762233 0.11407556 -0.21933071
0.15019977 0.0023822237 0.36163622 -0.03316073 0.021542458 0.4014319 -0.30854124 0.1766861
0.07758149 -0.5139747 0.077648744 0.12738307 -0.1124813 -0.4408466 -0.0855886 0.062429562
-0.047798853 -0.23318246 0.050543804 -0.100171946 -0.40448806 0.24716397 -0.04224769 -0.006049255
-0.29859018 0.56321305 -0.10812473 0.16900666 -0.3301031 0.22835343 0.14073846 0.17551118
-0.0048787734 0.038685504 0.14152212 -0.1620041 0.009593284 0.046576403 -0.43540424 0.3933516
0.040167682 0.41998175 -0.24313815 0.16322343 0.261469 -0.2569061 -0.6718598 0.033532854
-0.09282654 -0.4096307 0.24610436 -0.04685339 -0.17773157 0.12775391 0.1943183 -0.019524846
0.39904478 0.38353807 -0.09642099 0.23248698 -0.23085432 0.18269747 -0.5165251 -0.48315868
-0.38694957 -0.12752502 -0.09742046 -0.4902147 0.0065509765 0.2653982 -0.21779087 -0.03667938
-0.13427876 -0.27542377 -0.0030413643 0.07097114 0.14960173 -0.21752648 0.21498224 -0.1884657
-0.50096005 -0.27681944 0.20872523 -0.2219323 0.11061063 0.12172441 0.12065268 0.06847878
0.51757205 -0.114823215 -0.024740549 0.16074395 0.36362094 -0.41021505 0.26230165 0.30417898
0.20098273 0.3260199 0.043008827 0.2436896 -0.3369509 0.101153046 -0.2812423 0.22845039
-0.15910894 -0.042285513 0.221263 0.08552592 0.28152284 0.043372113 -0.19934405 -0.05337704
0.035717398 -0.40984893 -0.06533502 0.033521634 -0.47280064 -0.1925253 0.20954165 -0.09430806
0.25727195 0.3604392 0.13988714 0.27062318 -0.28480297 0.030293772 -0.25523114 0.2096987
0.043376993 0.041296866 -0.097403176 0.035553463 -0.07127223 -0.038946766 -0.19878714 -0.015558755
-0.08511978 0.041017257 -0.36479378 0.017712645 0.037026778 -0.30547008 0.26823026 -0.31153616
-0.07987347 -0.33648828 -0.2456103 -0.123076454 -0.24223933 0.2531848 0.28483903 -0.05405245
0.18556629 0.38004255 0.047190715 -0.04755486 0.025473569 -0.1299706 -0.04244117 -0.2767394
-0.105847806 0.24450083 -0.010859449 -0.065075144 -0.35417733 -0.08959927 0.059506506 -0.19084863
-0.1887936 0.26133204 0.05788333 -0.044320747 -0.3155839 0.35369575 -0.28304726 -0.059557002
-0.68943495 -0.24667698 -0.24245892 -0.12715878 0.07316536 -0.22031417 -0.28860444 -0.3669612
-0.07793536 0.22373325 0.15132749 -0.3976934 0.026117615 -0.22078185 -0.05784053 -0.24340877
-0.23572825 0.08923181 0.06576311 0.020543007 -0.17159462 -0.06763561 -0.067607775 0.08950258
0.06863896 0.06762723 -0.032233924 -0.07983272 -0.10289146 -0.20947349 0.14846574 -0.5814719

rnn_alpha.bias_ih_l0 f4 [512]
00000000: 91f6 bf3d 055f 49be 09b0 aa3a 1300 63bc
00000010: 05f9 c1bd 1043 bcba 519e 8bbe 684f 163f
00000020: e2e9 433e a695 d43d 45c3 73be 2a0a 013e
00000030: a2d3 bdbc f0c9 bd3e b481 53be 1735 13be
00000040: 6b8a 1b3f 3eaf 2b3e cabf 10be 94a1 9abc
00000050: 0efb 493e 2573 373e d547 843d 4670 35be
00000060: 0d9f 93be 7981 983e 878b 143e 99be 6a3e
00000070: c38e fe3d 184f d2bd 16b9 ff3e c661 11be
00000080: 2649 87bd f01a 70be 7563 ca3d ad42 373d
00000090: 847c 043f 4031 223e fda6 a5bd 04ab 16bd
000000a0: 2877 f0bc d4cb a03e 001f 303c f5bc fc3d
000000b0: c87f 7d3e 73c9 273f 7691 8f3d f75f 41bc
000000c0: 8d0d b83d b5de 7f3d f106 19bc 28f3 0dbe
000000d0: 3496 05bc 854a 293e 8630 af3c 45fc a43d
000000e0: 2547 85be 6775 283e 59d9 0b3f 0a22 17bd
000000f0: 79e0 1e3e 6169 943d 6b8f d9bd dcfd d43e
00000100: 25ef f93d 4462 033e e1de 793e b4dd 0fbe
00000110: 5146 d0bd add2 1fbe 9d72 4bbb 84e5 ba3d
00000120: f9ae f6be 6828 753e 3d95 a2bd ddd2 cbbd
00000130: b3ab 94be 51d3 553d dfb3 c63c 60dd 61be
00000140: be56 b3be 3b1a 0cbe b178 b63c 8f11 32be
00000150: edaa 163e 49b8 dabe bcc2 0e3f 5bbe 03bd
00000160: 0b8a 81bd 8ec1 483d 3a71 48be 20cc 02be
00000170: 4d7f 85bd 6162 9ebe c6eb f53c 6b3b 0bbd
00000180: 1122 ab3d 53a3 143f 507a a63e 2a7e 2c3d
00000190: 731c 35be 48a3 833e 3de5 643e ad6f d93a
000001a0: fc45 d63e 047c d53e 1cf3 eabd 71d1 bd3e
000001b0: c91b e0be a45a 81bd 7e52 c93d 312d 3c3e
000001c0: 1f9e b13e abbe 23be e74f 25be 7370 2e3e
000001d0: d9d0 0ebe 1174 23be 5bbf 99bd 17a0 47be
000001e0: f1ea 72be 26cd 32be 9073 db3e 7b52 e63e
000001f0: e9fd 6c3e 840a 74be bf34 053e 5a67 8f3d
00000200: 61ea 423e 5f07 0e3e 59ab 993e 315c 0c3d
00000210: 357a b7bd 5732 ecbc d011 603c d52d ddbc
00000220: 21fe 8a3e 0a5e 13be 9402 f03c 93a3 45bd
00000230: 833b 0e3e 9791 933d f953 81bc 2d9e 123d
00000240: 6cf8 5d3d 8694 dd3c 1dce 76bc d205 fdbd
00000250: 8fe7 ef3d 75ba 5d3d 339f 0e3e 840a 3abd
00000260: fe84 093d 4fd1 a03e be43 2b3e 09bf cb3d
00000270: 0d1a 933e 42cc a33c 6eec 863e a551 2ebe
00000280: 5982 593c d2bb 193d 7c8d a43d 48de e63d
00000290: 21f1 f63d 9cb3 d7bd 44fa 1c3e ad63 473e
000002a0: 4b03 c0bd 88bb 5b3e 76a7 d63d cd2f a63e
000002b0: 051d 26be 7526 b6be b511 53bd 6114 e33d
000002c0: 3c64 dfbd 185f be3e ada5 8f3d ce5c 6e3c
000002d0: 02f0 63be 5dd8 073e e2f1 b6bc 5861 cfbc
000002e0: 5a7f df3c 9187 853e a99c 3c3e d1cc 1dbd
000002f0: 36ee b73d b245 a83e d784 483c f3a4 f4bc
00000300: 6786 0d3e 8c53 013d 617e c63d 9e1f e93c
00000310: f638 f63c 035a 443e ae77 633e 78bd 503e
00000320: 67f0 8abc 6343 a13d 3c8f d33d 5a08 8c3c
00000330: 0d55 3d3c c458 483e 4fc3 8dbb b604 323e
00000340: 4f36 21be 46ed 243e 6663 2a3d 4490 34bc
00000350: 4f4d a33d 5544 88bd cc9f 1dbd 1bd3 043e
00000360: 33fd cb3d 17f9 9d3e 721b f4bc a5a9 683d
00000370: 2f24 4c3b 0aef 0dbb 1544 e23c 695c 7d3e
00000380: 5da9 22be 4d9e e4bd a0be 033f 55ca 2f3d
00000390: f408 463e 879b 9e3b f649 5e3b 7cd5 8cbe
000003a0: 8226 8f3d a296 4d3e 61d3 5e3e 3589 13bd
000003b0: 2102 ca3c 98b2 6f3e 96f7 033d 76c2 8ebd
000003c0: ae6b 4f3e d775 4dbe cc22 053e 74f1 f83d
000003d0: d760 48be 1e33 a43d 9252 033e 9dc5 8cbd
000003e0: 769c 8e3d ce79 05bd e8c4 aa3e f314 a93d
000003f0: 3370 543e 1534 03be b85e 5bbd 1420 813e
0.09373201 -0.19665153 0.0013022433 -0.013854998 -0.09471325 -0.0014363248 -0.27269223 0.58714914
0.19132188 0.10380106 -0.23804958 0.12601534 -0.023172203 0.3706813 -0.20654947 -0.14375721
0.60758084 0.16766068 -0.14135662 -0.018875875 0.19724676 0.17915018 0.064590134 -0.1771861
-0.28832284 0.2978628 0.1450635 0.2292427 0.124295734 -0.10268992 0.49945897 -0.14197454
-0.06605749 -0.23447776 0.09882251 0.04474132 0.51752496 0.158391 -0.08088491 -0.036784187
-0.029353693 0.3140551 0.0107495785 0.12340728 0.24755776 0.6554176 0.07010166 -0.011802665
0.089869596 0.06246825 -0.009340034 -0.13862288 -0.008153487 0.16532333 0.021385442 0.08055929
-0.2603084 0.16451035 0.5462852 -0.036897697 0.15515317 0.07246662 -0.10623058 0.4159993
0.12203816 0.12830454 0.24401428 -0.14049417 -0.10169662 -0.1560771 -0.0031043657 0.09125808
-0.4818037 0.23941195 -0.07938621 -0.09952328 -0.29037246 0.05220348 0.024255691 -0.22057104
-0.35027117 -0.13681881 0.022274347 -0.1738951 0.1471364 -0.42718723 0.5576589 -0.03216396
-0.06325158 0.049012713 -0.19574443 -0.1277318 -0.06518421 -0.30934432 0.030019652 -0.033992212
0.08356107 0.58061713 0.32515192 0.042112507 -0.17686634 0.2571051 0.22353072 0.0016589068
0.4185027 0.4169618 -0.11472151 0.37073854 -0.43771198 -0.063161165 0.09830187 0.18376614
0.3469095 -0.15990703 -0.16143762 0.17035083 -0.13946857 -0.15962245 -0.07507201 -0.19494663
-0.23722436 -0.1746107 0.42861605 0.44984803 0.23143734 -0.23832136 0.13008402 0.070021346
0.19034721 0.1387 0.3001354 0.034267608 -0.08958856 -0.028832598 0.013676122 -0.026999393
0.2714701 -0.14391342 0.029298104 -0.0482517 0.1388989 0.072055034 -0.015787112 0.03579538
0.05419199 0.02704836 -0.01506379 -0.12354626 0.11714088 0.054132897 0.13927917 -0.045420185
0.033574097 0.3140969 0.1672506 0.099485464 0.28730813 0.019994859 0.26352257 -0.17023332
0.013275706 0.037532635 0.080347985 0.112728655 0.120577104 -0.10532305 0.15329844 0.19471617
-0.09375628 0.21458256 0.104811594 0.32458344 -0.16222008 -0.35576215 -0.05153056 0.11087871
-0.1090779 0.37181926 0.07014022 0.014548494 -0.22259524 0.1326613 -0.022332136 -0.025314972
0.027282406 0.2607999 0.18419136 -0.038525406 0.08980982 0.32865673 0.012238703 -0.02986381
0.13820802 0.031573817 0.096920736 0.028457459 0.030056458 0.19174962 0.22213623 0.20384777
-0.016960336 0.07874181 0.10330054 0.017093826 0.011555922 0.19565111 -0.004326261 0.1738461
-0.15743373 0.16106138 0.0415987 -0.011020724 0.0797373 -0.06653658 -0.038482472 0.12971155
0.09960403 0.30854103 -0.029798243 0.05680241 0.0031149497 -0.002165737 0.027620355 0.24742283
-0.1588492 -0.11163006 0.51462746 0.04291757 0.19339353 0.0048403176 0.0033918596 -0.27506626
0.06989767 0.20076993 0.21760322 -0.036019523 0.024659218 0.23407972 0.03221854 -0.06970684
0.2025592 -0.20064484 0.13001555 0.121554285 -0.19568191 0.08017562 0.12824467 -0.06873629
0.06963436 -0.032586865 0.33353353 0.08255949 0.20745926 -0.12812836 -0.053557128 0.25219786

rnn_alpha.bias_hh_l0 f4 [512]
00000000: 21e8 5e3e 9f66 cabd cac1 95bd 8450 f33d
00000010: 70ba cabc 645e c4bd 2e47 6fbe f813 013f
00000020: b96c 843e b675 633d d2c4 14be 8dcf 083e
00000030: 6508 19bd 8b43 c53e 936c f0bd 4a7d 1cbd
00000040: 424f 003f 596e 413e 198f 09be 1e74 bbbd
00000050: f12f 983e d989 3c3e 6fcc 123e 724b 99be
00000060: 0f90 5cbe cc7e ce3e 7dc3 ed3d 84a9 6c3e
00000070: 114f 623b 2619 b0bd e7a1 083f 49cb 31be
00000080: c75a 02bc 0a86 a4be dae4 f53d a4b9 f6bc
00000090: 4b39 073f 41e5 2d3e 6606 843d 42da 31be
000000a0: 07a6 553d 69bc 433e d85b 593d 687b 3fba
000000b0: faed 883e 30af 373f a825 803d 411c 21be
000000c0: c64f 2c3e 571a b4bd a312 f03c 35ab 58be
000000d0: bd21 90bd 1c4d 8f3d 049f 12be 380b b63c
000000e0: 7c91 64be e5b3 cf3d 3288 003f cf35 14bd
000000f0: b73d f93d db4c bdbc c57a 2cbd 977a ce3e
00000100: 1c41 ea3d 54cc 133e 0525 133e de70 43bd
00000110: fcc3 d0bd 8692 0cbe addd babd e6c6 193e
00000120: 994b dbbe 94c1 9a3e e6c5 a9bd 2703 723b
00000130: 8064 7ebe 3508 533d 2c7b 973b bbe4 37be
00000140: f26f b2be e424 81bd c3fc 8dbd 883b 2dbe
00000150: eb61 db3d f872 9bbe 3df5 1f3f 5271 b43c
00000160: 7305 05be 5c27 9fbb a7c5 8dbd 0dce 58bd
00000170: a346 5b3b 5d38 55be 53f4 3e3d 3990 d5bd
00000180: 7c7d eebc b63a 003f b197 cd3e f926 8fbd
00000190: 10e4 80be 28a1 973e 622a 263e 27f4 cc3c
000001a0: c1d3 d13e 0b8d b13e 3731 eebd 3d7f e33e
000001b0: 6b3b f0be 3e3c dc3c 2431 963b cce5 2a3e
000001c0: 84fb ac3e 68d8 8dbe 8c86 37bc bf4b 4f3e
000001d0: 5a1c 87be e487 55be e0e5 38be 3f41 6abe
000001e0: ff24 75be f494 21be 42a4 d53e 7eb9 0b3f
000001f0: ba0b fc3d 897f 77be c550 523e 762a 633e
00000200: fc3f 393e fa78 6d3d 4029 733e cef5 223c
00000210: e9d2 46bd 5eba e5bc 42ed 30bc 2706 263d
00000220: a00e 863e 9d4a 1dbe e862 8e3c eaf9 bb3d
00000230: b713 cb3d 7b95 89bd b942 a0bc 6b76 c03d
00000240: 34d3 0cbb 00b4 0c3d 4d11 ee3d c2f7 17be
00000250: 59bf 763d c683 aa3d b563 2d3e 645e 8dbd
00000260: b615 3c3c 3ca6 c53e b2a1 1b3e 1215 143e
00000270: 650c a83e f526 84bc cdd1 643e c838 c7bd
00000280: 523b 8bbc 7bc3 8b3d 8143 a43b 748f 453e
00000290: 209f ff3d 677c a2bd a8db c43d d540 df3d
000002a0: 4ab3 35bd b592 513d bd17 463e 0105 393e
000002b0: b15f 91be af71 b7be 4a3c 87bd d6c4 a23c
000002c0: b946 b7bd 3ba2 833e 2dc1 6c3d 8288 b4bd
000002d0: 0c86 28be 652d ed3d 0bb7 82bd 5124 92bd
000002e0: 5e0a d9bd 8cc8 453e 8e5a 343e afcb 113d
000002f0: 1346 843d 174d a43e 87c1 0bbb e82a dcbd
00000300: d254 403d b0b9 233d 5ba2 c73d b34a 9bbc
00000310: a9b8 b13d d913 7a3d b7ea 953e 8fff 5f3e
00000320: cfd9 ca3d 7ac3 e03d b0e3 603d 9aa0 5dbc
00000330: 3daa bbbd 87f2 393e 65e5 bdbd 6070 ca3d
00000340: 9eab 96be 8c76 943e a49c 35bd c907 8abd
00000350: 7b17 8b3b dc02 f3bb ed6b a7bd 298e 0a3e
00000360: 14dc 713c 5111 1f3e 7a1e 11be a996 333e
00000370: 3691 6f3d 0b2f dbbc ff69 41bd 13c2 173e
00000380: 3670 0cbe af51 63be 8e2f e13e 931b 7dbd
00000390: 6d7a 143e 371e 963c aebb 6bbd eeac 43be
000003a0: 111e 83bc 7385 8c3e e5e2 843d 773c d3bd
000003b0: 16b6 893d 8b27 193e 9354 cbba 50e9 913d
000003c0: 2e41 8a3e 5c5b b5bd 1205 383d ec5a a43d
000003d0: 1ce2 23bd 4219 823d b29c 763e c734 14bd
000003e0: 3b83 4d3d 3e72 433d 2c59 a23e 3bb1 193c
000003f0: ac48 1d3e 92ad 35bd ec53 c1bd f88b 893e
0.21768238 -0.09882855 -0.07312353 0.118805915 -0.024747103 -0.09588316 -0.23366997 0.50421095
0.258642 0.05553218 -0.14528206 0.13360424 -0.03736152 0.38528094 -0.11739459 -0.038205422
0.5012094 0.1888975 -0.13433494 -0.09153007 0.29724076 0.1841196 0.14335798 -0.29940373
-0.21539329 0.40331113 0.11609552 0.2311154 0.003453199 -0.08598547 0.53372043 -0.17362703
-0.007956213 -0.32133514 0.120065406 -0.030117817 0.528218 0.16981985 0.06446533 -0.17368415
0.05216029 0.19114842 0.053066105 -0.0007304461 0.26744062 0.7175169 0.06257182 -0.15733434
0.16827306 -0.087940864 0.029305762 -0.2115906 -0.07037685 0.06997129 -0.14318472 0.022222146
-0.22321123 0.10141734 0.5020782 -0.03618413 0.12169974 -0.023107937 -0.04210927 0.40327904
0.114382 0.14433414 0.1436959 -0.04771506 -0.10193631 -0.1372777 -0.091243125 0.1501728
-0.42831114 0.30225813 -0.08289699 0.0036928148 -0.24843025 0.0515215 0.0046228375 -0.17958347
-0.34851032 -0.063058645 -0.06932976 -0.1691724 0.10712036 -0.30361152 0.6248358 0.022026692
-0.1299036 -0.004856987 -0.06922465 -0.05293088 0.003345885 -0.20822282 0.046619724 -0.10427899
-0.02911257 0.50089586 0.40154794 -0.06989855 -0.25173998 0.2961514 0.16227105 0.025018765
0.40981868 0.3467792 -0.11630481 0.44433013 -0.46920332 0.026884194 0.0045834947 0.16689223
0.3378564 -0.27704167 -0.011201512 0.20243739 -0.26388818 -0.2085262 -0.1805644 -0.22876452
-0.23939894 -0.15779477 0.4172688 0.54579914 0.12306924 -0.24169745 0.20538624 0.22184166
0.18090814 0.0579767 0.23746204 0.0099463 -0.048540983 -0.028042968 -0.010798754 0.04053321
0.26183033 -0.15360494 0.017381147 0.09178527 0.0991587 -0.06717964 -0.019563066 0.093975864
-0.0021488192 0.03435135 0.116243936 -0.14840606 0.060241077 0.08325915 0.16932566 -0.06902769
0.011479786 0.3860339 0.151984 0.14461163 0.32821956 -0.016131857 0.22345658 -0.09727627
-0.01699606 0.06824394 0.00501293 0.19293004 0.124815226 -0.07933884 0.096122086 0.109010376
-0.044360436 0.0511653 0.19344993 0.18068315 -0.2839332 -0.3582892 -0.06603296 0.01986925
-0.08949036 0.2570971 0.057801414 -0.08815099 -0.16457385 0.11580924 -0.06382569 -0.07135833
-0.105976805 0.19314784 0.17612669 0.03559464 0.06458678 0.32090065 -0.0021325068 -0.10750371
0.04695589 0.039972007 0.09747764 -0.018956518 0.08677799 0.061054084 0.29280636 0.21874832
0.09904825 0.10974784 0.05490464 -0.01352706 -0.0916333 0.18158923 -0.09272269 0.09884715
-0.2942781 0.28996694 -0.044338837 -0.06739766 0.0042447424 -0.0074161123 -0.08174882 0.13530792
0.014761943 0.1553395 -0.14171782 0.17537941 0.058488093 -0.02675583 -0.047220226 0.14820127
-0.1371468 -0.22199129 0.43981594 -0.061793875 0.14499827 0.018324954 -0.057552032 -0.19108936
-0.016005548 0.27445564 0.06488589 -0.10314267 0.06724183 0.1495649 -0.0015512876 0.07124579
0.27002853 -0.08855316 0.04492671 0.080251545 -0.040010557 0.06352474 0.24083212 -0.036183145
0.05017398 0.04771637 0.31708658 0.009380634 0.15359753 -0.044354983 -0.09439835 0.268646

rnn_beta.weight_ih_l0 f4 [512, 32]
00000000: 49c7 10be 0f70 a3bd b099 bfbb e5eb 92bc
00000010: 56de 773d b594 0abd 0bd3 44bd 42d9 ecbc
00000020: e9d3 8f3b 6e8a c8bd 3580 08be 7517 133e
00000030: 4342 ec3d 43b2 a53d a6fd 99bd aa93 25bd
00000040: c406 aabd 900e 3e3e 4780 853d 2c2f 223d
00000050: f8f0 9e3d 20fe 3cbd 8b82 003e de10 533d
00000060: 6407 71bd 86d5 a6bb 4386 5dbe e904 113e
00000070: b6cf 8bbd 0904 d73d b02d ffbd 39d5 ffbc
00000080: 1eef 64bd 79dc 1f3e 02ce 8bbd c08c 4c3d
00000090: 1b40 26bd 8f49 2bbd 3198 ea3c 2703 a9bb
000000a0: 9b3e 183d e08d 273d a451 bebd 01a9 afbd
000000b0: cd93 e73c 89b1 01be e58c 0b3e a93a 2a3d
000000c0: 2025 2c3d c509 27be 461f 7dbd 55c9 9f3c
000000d0: a439 80be 0a07 e7bc 9cd5 86bc 7ca0 aabc
000000e0: 8e12 2d3e d926 443d 4622 ad3e 6580 79bd
000000f0: ba33 593e 7fa0 27be 5b15 983d f801 d43d
00000100: 0e1e 03be 8cf8 693d 50a0 d9bd 6008 ed3c
00000110: 5b38 f3bd 0928 1fbc d5a5 b6bd 0d6c c7bd
00000120: efd1 de3d 769e 82bc c4d6 4abe 0adf a03d
00000130: ecb4 283e 7341 0cbf e94e e23c 2d57 7c3d
00000140: 01df d53d 135d 0abe af5e 18bd f509 6abe
00000150: b050 eebe 7ccd a0bd ae24 d53d b21c 143d
00000160: 48cb 743e 7fae bcbd 001d aa3e f09f d23d
00000170: 2a9f f23e a959 9dbd 08a6 403d 62bf 5f3d
00000180: 5e52 debd aaac 8abe 0650 97be bb9f b4be
00000190: d0a8 a5be fbcf b83e d230 f73d 0c9c 8abe
000001a0: 0dd1 293e 87dd 4d3e 0176 993d af2b 773e
000001b0: 65db 2abe b70b 873e df86 b7be 3e3d 0b3e
000001c0: 928b 46be b342 e5bd 3657 2e3e 4476 8bbe
000001d0: 09be 503e 0de9 1bbe 0be3 b83d 65f3 923e
000001e0: 3053 02be 59d2 1cbe 974c 03be d497 afbd
000001f0: c1e0 79be dd81 41be 0900 863e 46d4 aebe
00000200: 8ab2 88bd b42c 75be a395 1dbe d0ec fcbd
00000210: 68b5 01be 5572 293e 9732 4ebc 2846 88bd
00000220: f5fd 963d 3587 93bd 74bb 0d3e 584f 663d
00000230: 79bb 3abd dfdd fb3d 1ff0 4fbe 5b38 17bd
00000240: f5b0 e2bd a221 af3d 2019 d73d c38d e4bc
00000250: 459f fa3d 7c2d 22be e0c4 de3d 72e8 853d
00000260: 8c6e 92be 4296 a9bd 8c09 96be 9ddf 833d
00000270: b25b f8bd d4f7 dbbc fc2c 91bd 27f5 6dbe
00000280: 9e4c cdbd 1f40 c8bd 266c 14be deac febd
00000290: fdca 37be 2560 753d 4678 a33d f6e4 3abe
000002a0: d16e 203e 75f0 ca3c 53c6 a3bc 36c1 e03d
000002b0: b31a 64bd 8c3c da3d 0939 e4bd ae12 eb3d
000002c0: a07c 89bd 08ed 0bbe a0a6 ad3d 688e 57be
000002d0: 1518 f6bb 8818 12be 3fba 5f3e 83c0 253d
000002e0: a6c1 fabc 1192 04be 6eab c039 9a35 1b3d
000002f0: 8d8c 85bd ec7f 30be 7c5e 893d 9733 1fbd
00000300: 7fbb ae3e c095 363e 6f84 623e 1963 2e3e
00000310: 3f40 353e 265e 05be 30ce a2bc 1ac8 1b3e
00000320: 6843 94be 56e1 a3bd 2e1d f4bc e3b5 b5be
00000330: d736 0d3e 072e bbbd 728f a33e 43fe d0bd
00000340: 8167 8a3e 060d 3d3d 18d9 82be f329 883e
00000350: 1a28 0fbe 2040 ad3e d71d 8cbe a52a 82be
00000360: d213 793e 95e7 413e d407 8b3e e1e9 2d3e
00000370: dc5d 4b3e ff9f 193e 6e4c 22be 8670 833e
00000380: 0fb8 673e ade4 a73e a523 763e 7c18 413e
00000390: 2f33 4f3e f1e7 89be cee3 bebd bbb3 473e
000003a0: 4b6b 96be 4109 8fbd dc9c e13b ddc3 c2be
000003b0: 7f2b b23d 4a40 a6bd 1544 3d3e da1d 3cbd
000003c0: 1a9c 283e 34b7 8f3d 787c 25be 0d57 a03e
000003d0: a801 cebd 7438 4e3e c3b7 aabe 4f5d 95be
000003e0: e7ae 1e3e 797e 953e abc6 dc3b 489b 663d
000003f0: 1e5a d53d 9357 f93d c2ef 03bd d4f8 723e
-0.14138521 -0.07980358 -0.0058471784 -0.017934749 0.06051477 -0.033833224 -0.04805283 -0.02891219
0.0043892753 -0.09792028 -0.13330157 0.14364417 0.11536076 0.08090641 -0.07519083 -0.040424027
-0.08302072 0.18560243 0.065186076 0.039595768 0.07760805 -0.04614079 0.12549798 0.051529758
-0.05884494 -0.005091372 -0.21633248 0.1416203 -0.06826727 0.104988165 -0.12459886 -0.031229602
-0.055892102 0.15611447 -0.06826402 0.049938917 -0.04058848 -0.041818198 0.028637024 -0.0051578465
0.03716908 0.040906787 -0.092929155 -0.08577157 0.02826872 -0.1266538 0.13627966 0.04155985
0.042027593 -0.1631232 -0.061797403 0.019505182 -0.25043976 -0.028201599 -0.016459279 -0.020828478
0.1690161 0.04788861 0.3381521 -0.060913462 0.21211138 -0.16369818 0.07425948 0.10351938
-0.12804434 0.0571218 -0.1062628 0.028934658 -0.11875983 -0.009714135 -0.08918349 -0.09737406
0.108798854 -0.0159447 -0.19808489 0.07855041 0.16475266 -0.5478737 0.027625518 0.061606575
0.10442925 -0.13512067 -0.037199672 -0.22855361 -0.46545935 -0.07851693 0.10407387 0.03616018
0.2390567 -0.0921297 0.3322525 0.10284412 0.47387058 -0.07683117 0.04703334 0.054625876
-0.10855554 -0.27084857 -0.2955324 -0.35278115 -0.32355356 0.36096177 0.120698586 -0.2707218
0.16583653 0.20104037 0.074932106 0.24137758 -0.16685255 0.26376125 -0.35845086 0.13597581
-0.1938918 -0.111943625 0.17025456 -0.27238667 0.20384993 -0.1522562 0.0902768 0.2870132
-0.12727046 -0.15314616 -0.12822185 -0.08573881 -0.24402143 -0.18897195 0.26171902 -0.34146327
-0.066746786 -0.23942834 -0.15389113 -0.12349856 -0.12666857 0.1654752 -0.012585304 -0.06654006
0.07372657 -0.07203523 0.13841039 0.05622801 -0.045588944 0.12298178 -0.20306443 -0.03691898
-0.11068908 0.08551337 0.10502839 -0.027899629 0.122374095 -0.15837663 0.10877395 0.06538476
-0.28599966 -0.082806125 -0.2930416 0.06439135 -0.121268645 -0.026851572 -0.07088658 -0.2323805
-0.10024379 -0.09777855 -0.1449438 -0.124353155 -0.17948528 0.059906144 0.07981925 -0.18251404
0.15667273 0.024772862 -0.01999203 0.10974352 -0.055689525 0.1065608 -0.11143691 0.11478172
-0.067132235 -0.13664639 0.08479047 -0.21050417 -0.007510195 -0.1426717 0.21848391 0.040466797
-0.030609917 -0.12946345 0.0003674882 0.037892915 -0.065209486 -0.17236298 0.067074746 -0.03886756
0.34127423 0.17830563 0.22120832 0.1702999 0.17700289 -0.13024196 -0.019873708 0.15213051
-0.28957677 -0.08001964 -0.02979907 -0.3549033 0.13790451 -0.091396384 0.31945378 -0.102047466
0.27032092 0.046155 -0.25556254 0.26594505 -0.13980141 0.33837986 -0.27366516 -0.2542316
0.24323967 0.18935998 0.2715441 0.16983749 0.19860023 0.1500244 -0.15849468 0.25671786
0.22628807 0.32791653 0.24037035 0.18856996 0.20234369 -0.2693477 -0.09320794 0.19502155
-0.29378733 -0.06984187 0.006885154 -0.38040057 0.086997025 -0.08117731 0.18483002 -0.045926906
0.16465798 0.07017365 -0.16160762 0.31316414 -0.1005891 0.20138723 -0.33343324 -0.2917275
0.15496407 0.29198053 0.0067375503 0.05630043 0.10417579 0.121749066 -0.032211073 0.23727733

rnn_beta.weight_hh_l0 f4 [512, 128]
00000000: 3f4f 07bb 6c18 16bf 2b5d 6abe 96db 713e
00000010: e0a6 213e 671d a23e 2879 5f3e e161 533c
00000020: 0762 abbc c4c5 18be 2dad 2ebc da05 163e
00000030: 07a9 9e3e ad35 cdbd 8d39 0abe fa68 173e
00000040: 873e ebbd 956d c83e b7c3 e93d 136a a83c
00000050: 2bf9 7a3e 02b7 16be cee9 fbbd ada8 f2bd
00000060: d626 1a3d 9461 013d fe3e 993d 91fd e83d
00000070: ae54 29be 8710 5e3d 7f8a 863e f90e 523d
00000080: a5be 29be b57a 6fbd 6fee 1cbe 7022 183e
00000090: 3e84 4f3e 658f 573d 4c1e 31be 5bc2 253d
000000a0: 6fa7 27be a429 613e 0694 f73e 4b7f 85bc
000000b0: 2ebc 603e b769 5b3e de0e 0abe 48df 453e
000000c0: 5c2f 40be 9227 8ebe 3b6b fb3d eb3d 0f3f
000000d0: 9988 a63e 399d 903e 3a5c 84be 58db 9bbe
000000e0: 3880 fabd 080a 4abe 45c8 483d 8393 26be
000000f0: 904b 0bbe 18a0 26be 1843 d5be c0f2 2abe
00000100: 3bbc 143b 6556 8e3d 0cbc 1e3e 7308 59be
00000110: 37d2 953d cd12 a7be 4740 243e 7228 73bd
00000120: d79d 8bbe 95cf 1ebe 5c04 38be 3219 cb3d
00000130: 9abb 63bb 29e8 aebc 7f66 49be 3f33 053d
00000140: cffc d3be 0cd1 bebd 81a8 963d 6160 bc3e
00000150: b93b 8abe c7af e3bd ce44 e63d 2c6c b8bd
00000160: 182b 1c3e 10a5 edbd b73f 24be a1c7 aebe
00000170: 2f9e 88be 36ad c83e 0ba2 11bd 9370 0abb
00000180: 4561 283e 8b7b d3be d800 fa3d 6097 31bc
00000190: 3911 803d 0ebb b4bd 86d8 c23e 5784 19be
000001a0: 7a44 8cbd 780c e03d 0a46 17be 6033 b7bd
000001b0: b586 043f 9adc 943c 5bc7 37be d374 13be
000001c0: d311 5ebc 359c 0cbd 2bce 2dbe ae07 efbd
000001d0: 118d 8d3e 7590 4abe 1e3d 473e 316b 113d
000001e0: 22dd a33e 25ff 4a3c 460b e0bd 5ec1 89be
000001f0: f537 fb3e c003 ed3d 6e57 01be 1046 54be
00000200: 84f0 44be bdf3 893c 4b67 47be c608 19bc
00000210: c2ce 3e3e 4a7b a13d fb3a 2d3e 4ba5 673e
00000220: 6559 6f3e b00c 8a3e 7a3b 953e 816b b73d
00000230: 4d2f b33e c4e5 98bd a05f 28be ffd4 023e
00000240: df2a ffbd 72a5 97bc 799c ad3d 8e26 31bd
00000250: cb72 943e c76e edbd c53b ab3d 5221 94bd
00000260: a8a1 233e 2f16 113c cd1a 7cbd 6f46 26be
00000270: 3a8f 88bd 686d dbbd d441 a33e 10cd 37be
00000280: 5e7f 933d 105d d2bd f054 c4bd 4f36 bfbd
00000290: ee9b c3be e89b 393d 0b69 f9bb abc8 c83d
000002a0: c8ac 93be d18e 81be 8375 ec3e a347 33be
000002b0: 76ea 813e c56e bfbe d3f8 66be 7537 093e
000002c0: 0017 1cbe dc2a 05be 6fd7 5a3e 6aa2 c63d
000002d0: 2ce3 bc3d a723 c53a 2034 b3be 6170 a2be
000002e0: 2c37 5e3e 6d7e debe 2d50 a5bc 9c01 ddbb
000002f0: 222a fb3b bede 833d 0ffc 21be d288 113e
00000300: b926 5c3e 8bbb 813e ee4e a0bc d4c5 01be
00000310: 0634 23be 9cf1 4a3d 69d0 f4bd 370e a03d
00000320: bad2 3f3d 73ef bfbe c75f 89be be77 c9bd
00000330: 03bb a8bd 5444 393e b818 d0bd a644 ccbe
00000340: b99e 64be 3440 1fbc 16f5 2cbd bacf 343e
00000350: 5fcc 34be 7c52 273e 6f31 5cbe c2fd 343b
00000360: fccd b03e 331f 7dbe 4c43 1abe effa 27bc
00000370: c59e 3dbe c5cd 5c3f 18f5 48be 9fcb 883d
00000380: d817 e53e 3a47 2bbe 40ce c63e 6f7c cebd
00000390: 89e2 88be 0f6f ae3e 4ff7 cfbd 00ca 2bbe
000003a0: 1202 583d a70f 3ebe 6103 773e 4f71 b63d
000003b0: e742 943d 3aa0 183e cf26 66bd 436a 393e
000003c0: ed4e 763e ccfb bc3b ac04 a23b e0ef 93bd
000003d0: 063e 923e 5e14 a0be da8d 123e 8bdf 3ebe
000003e0: 2249 453e 9041 68be ba8a b73c b792 77bd
000003f0: f0a7 74bd 3d7c f5bd 236d 8ebd c402 cabd
-0.00206466 -0.58631015 -0.22887103 0.23618922 0.15786314 0.31663057 0.21823561 0.012901754
-0.020920767 -0.14919192 -0.0106614055 0.1465067 0.30988333 -0.100200035 -0.13498516 0.14786139
-0.114865355 0.39146104 0.11414283 0.020558393 0.24509113 -0.1471825 -0.12300454 -0.118485786
0.037634693 0.0315872 0.07482718 0.11376489 -0.16536209 0.05421498 0.2627754 0.05128381
-0.16576631 -0.058466632 -0.1532533 0.14856887 0.2026529 0.052626986 -0.17296714 0.040468555
-0.16372465 0.21988541 0.4835512 -0.01629605 0.21946785 0.21427046 -0.13482234 0.19323456
-0.18768066 -0.27764565 0.12276312 0.55953854 0.3252609 0.2824495 -0.25851613 -0.30440784
-0.12231487 -0.19730389 0.049019117 -0.16267209 -0.13603044 -0.16272008 -0.4165275 -0.16694164
0.0022695202 0.06950072 0.15501422 -0.2119463 0.07315486 -0.3263153 0.16040145 -0.059364744
-0.2726886 -0.15508874 -0.17970413 0.09916915 -0.003474927 -0.021350937 -0.19668005 0.032519575
-0.41403815 -0.09317216 0.07356358 0.3679228 -0.2699869 -0.11117511 0.11243592 -0.09005007
0.15250814 -0.11603749 -0.1603993 -0.3413668 -0.26683185 0.3919465 -0.035554927 -0.0021124228
0.16443355 -0.41305193 0.12207192 -0.010839313 0.06253285 -0.0882474 0.3805582 -0.1499189
-0.06848998 0.10939878 -0.14772812 -0.08945346 0.51768047 0.018171597 -0.17947142 -0.14400034
-0.013554054 -0.034328658 -0.16973178 -0.11671387 0.27646688 -0.19781668 0.19456908 0.035502616
0.32004648 0.012389933 -0.1093965 -0.2690534 0.4906613 0.11572981 -0.12631008 -0.20729852
-0.19232374 0.016839856 -0.19472997 -0.009340471 0.1863356 0.07884844 0.1691703 0.22621648
0.23373945 0.26962805 0.2914694 0.089560516 0.34997025 -0.07465699 -0.16442728 0.12776564
-0.12459349 -0.018511508 0.084771104 -0.04324966 0.2899383 -0.11593395 0.083610095 -0.07232918
0.15979636 0.008855387 -0.061548997 -0.16237806 -0.06667943 -0.10714227 0.3188616 -0.17949319
0.07202028 -0.102716565 -0.09586513 -0.093365304 -0.38204902 0.0453147 -0.007611399 0.098038994
-0.2884276 -0.25304273 0.46183404 -0.17507796 0.25374192 -0.37389198 -0.22555856 0.13400061
-0.15243149 -0.13004631 0.21371244 0.09698947 0.09223017 0.0015040532 -0.35000706 -0.31726363
0.21700734 -0.4345583 -0.020179832 -0.0067445766 0.0076649347 0.06438969 -0.15818809 0.14212349
0.21499147 0.25338396 -0.019568887 -0.12673122 -0.15937814 0.049546823 -0.119538136 0.07815211
0.046831824 -0.37487373 -0.26830885 -0.09837292 -0.08238795 0.18092471 -0.10160965 -0.39896125
-0.22326173 -0.009719897 -0.04222592 0.17657366 -0.17656086 0.16340059 -0.21503232 0.0027617072
0.34532154 -0.24718933 -0.15064734 -0.010252698 -0.18517597 0.8625148 -0.19624746 0.06679463
0.44744754 -0.1672639 0.3882923 -0.100823276 -0.26735333 0.34069106 -0.10154592 -0.16776276
0.05273635 -0.18560658 0.24122383 0.08908331 0.07239323 0.14904872 -0.056189355 0.18106942
0.24053545 0.005767321 0.0049444046 -0.07223487 0.28562945 -0.3126554 0.14311925 -0.18639962
0.19266179 -0.2268126 0.022405017 -0.060442653 -0.05973047 -0.11986587 -0.0695441 -0.09863809

rnn_beta.bias_ih_l0 f4 [512]
00000000: 89cb 60be fc60 5f3e 5517 183d 796b 853d
00000010: 2182 e83e 6230 ce3e 8d67 bbbe 4212 2f3f
00000020: 52da 083e 5b54 7bbe c7c5 a73e f974 d83e
00000030: 3e33 d7bd 1828 bd3e a643 7f3e 7022 023d
00000040: f581 3f3f f123 a0be a095 3e3e c0f1 ef3e
00000050: 35b1 173d 0509 ef3e 4d69 583e 3406 c33e
00000060: da10 47be 32ea e83e 8ac7 ad3e cc3c 253d
00000070: fa58 ff3d 9a0d a13e e00a 2d3f b14f 4ebe
00000080: 23f8 d2be 4186 5a3c 6850 863e 86be 093f
00000090: 7e1e 183e e832 c43d 7a7b 2c3f 37f3 2b3e
000000a0: f46a a23e 1d07 76be 8780 0dbe c117 cd3e
000000b0: 422b 36be 4fd4 e13d b7bb 013f ec35 1bbf
000000c0: 4678 393f da11 c93e df86 ab3e 1c73 47be
000000d0: 6304 0c3f a5ed 66be b83c 973e ebad 2fbb
000000e0: 16ea 183f 8244 57be 5ef1 bf3e 2d03 013f
000000f0: 2056 c13e 823b 693f 7a0b f1bd b069 ef3e
00000100: 0d4b 493f de30 1c3d bfc8 a73e 4039 073f
00000110: 3865 9b3e 0f29 bf3d 664b ef3e 40ff c53e
00000120: 89fc 7d3e 414b 2d3e db65 353e bebb a13e
00000130: b76c 9a3e d6c1 d33d dc6d 383e 8a76 503e
00000140: 2ff8 953e fe8c 823e a271 f3bd c8a3 c23d
00000150: 0f85 ef3e 2278 e73e c88f 59be c9c8 763e
00000160: e9af 2abe 6f0a 153e 4754 13be 5231 023f
00000170: e739 d73e bdb9 1a3e e297 a13e 9892 a43d
00000180: 97f7 cd3d 7d17 623e 320e 0abe 9469 073f
00000190: a9d6 a73e 4256 d13d 4935 553e 586a 903d
000001a0: 00fb 123f aba0 9d3e 3023 1e3d 4dda ee3d
000001b0: 484f 6ebe 5165 b93e 05db a2be 8106 103f
000001c0: 5c83 c6be 1434 fabd 72dd 36bc 29e9 1b3f
000001d0: 91e2 6abe 803e 8e3e 4d90 ad3e 32f3 613e
000001e0: 374d fa3e 15d4 d93e 6fd5 0f3f 3dd7 b73e
000001f0: 95fe c0be 10a2 be3e 042c 233e 3c87 243e
00000200: aa75 97bd 3721 d93e c197 153e 86de 393c
00000210: 050a 873e 2a2f 0bbd d7f7 33be e698 32be
00000220: 4d65 83bd 01e6 59be 8277 623b 85e6 863c
00000230: edd7 bf3d 3137 5abd 0592 8cbe 59a9 a93c
00000240: 1206 183d 6d86 13bd 579b 21bb a320 993e
00000250: 4afa 9a3e bdbe 713e 9810 913e cd0b 1f3e
00000260: 2165 b1bd 1592 933d 3c97 8d3d cf5c 493e
00000270: 9d95 85bd d6f3 063f e7f8 06be bf25 803e
00000280: 5360 0b3e 354d d3bd 2797 ab3d 5a36 1f3e
00000290: 8735 5dbd 7d87 823e b690 7e3e b070 dd3d
000002a0: 56aa fa3d 9cba 373e b2c6 d3bd 3350 c93e
000002b0: 42c7 1d3e 6670 aa3e e146 183e b3e8 6abd
000002c0: 966e 563e 01e3 8a3d 61ba 983e fdea 17be
000002d0: 22d6 013e edd5 7a3c de1b b13c 67bc 0f3d
000002e0: eebb 023b 6696 c8bd f5dd d1bb 7863 b63d
000002f0: e178 28bd c7ec 973e 82f9 4b3e 628d ecbc
00000300: 57b3 aabe ddc3 d23d 28ce 83bd 2ada 1b3e
00000310: bf22 f03e 42b2 0cbe 4bc3 753e 1b92 00be
00000320: 1f35 95be e483 febb 1e9a 913d 4d48 41bd
00000330: 8dd0 1e3e 0850 cebd a887 a43d 6d31 983e
00000340: c810 493e be7c d7bd e729 39bd a55d 1ebe
00000350: a3e1 1f3e f3d2 013e b7cb a73c 4a03 913c
00000360: 136e a53d 7b5c 963e 5130 d13d dfc5 973d
00000370: 07d9 12bd 247c 05be df3c a13e a3f5 8c3d
00000380: bb5d c9bd d66f 253e 15d7 95ba 6107 d43d
00000390: c633 e9bd 8fd3 ef3d b43e 2a3e d9e3 263e
000003a0: 5fbb ff3d b054 9a3b 8c46 313e 76f3 453e
000003b0: 2fcf 4abd e1e6 183d fc9e dfbd 388f 1b3e
000003c0: ec64 f8bd 8bc0 bf3d b259 113d 00c0 203d
000003d0: c731 423e 2768 6a3d c670 99bd f8d3 7fbb
000003e0: 1fff 293e 01be 4e3d fc61 903d f231 e23d
000003f0: 6f75 49bd 64c8 55bb 418d f9bb 93db 903e
-0.21952643 0.2181434 0.037131626 0.065146394 0.4541178 0.40271288 -0.3660244 0.68387234
0.13364533 -0.24543898 0.3276808 0.42276743 -0.105078205 0.36944652 0.2492815 0.031771123
0.74807674 -0.3127742 0.18611765 0.46864128 0.037034232 0.4668657 0.21133919 0.3809067
-0.19440022 0.45491177 0.339413 0.040341184 0.12468143 0.3145569 0.6759472 -0.20147587
-0.41204938 0.013337673 0.2623322 0.5380634 0.14855382 0.09580022 0.6737591 0.16791998
0.31722224 -0.24026151 -0.1381856 0.40057185 -0.17789939 0.11026823 0.50677055 -0.60629153
0.7244915 0.39271432 0.33501336 -0.19477504 0.54694194 -0.22551592 0.29538512 -0.0026806544
0.59732187 -0.21022227 0.37488836 0.5039547 0.3776102 0.91106427 -0.11769767 0.4676032
0.78630143 0.03813254 0.32770345 0.5282173 0.3035066 0.09334003 0.46737212 0.38671303
0.24803366 0.16923238 0.17714636 0.31588548 0.30161068 0.10339706 0.18010658 0.20357719
0.29290912 0.25498194 -0.11886908 0.09503895 0.46781203 0.45208842 -0.21246254 0.24100031
-0.16668667 0.14554761 -0.14387618 0.50856507 0.42036363 0.15109916 0.3156119 0.08035773
0.1005699 0.22079273 -0.13481978 0.52895474 0.3278096 0.102215305 0.20821108 0.070515335
0.57414246 0.30786642 0.038607776 0.11662731 -0.23272431 0.3621011 -0.31807724 0.56259924
-0.38772094 -0.12216964 -0.011161195 0.6090265 -0.2293799 0.2778206 0.33899155 0.22065428
0.48887035 0.42544618 0.5618505 0.359064 -0.3769423 0.3723302 0.1593476 0.16067213
-0.073954895 0.42408153 0.14608671 0.011344558 0.26374832 -0.033980526 -0.17575012 -0.17441139
-0.06415806 -0.21279146 0.0034556095 0.016467342 0.093673564 -0.05327529 -0.27455154 0.020710634
0.037115164 -0.03601687 -0.002465924 0.29907712 0.3026908 0.23607917 0.28332973 0.15531845
-0.08661867 0.07205597 0.06913611 0.1966431 -0.06522677 0.52715814 -0.13180886 0.25028798
0.13610964 -0.103174604 0.083784394 0.15548077 -0.054006126 0.25493994 0.2485989 0.10812509
0.1223952 0.1794228 -0.103406325 0.39319 0.15408042 0.33288878 0.14870788 -0.057350826
0.20940623 0.06781579 0.29829696 -0.14835735 0.12679341 0.015309793 0.021619733 0.035091784
0.001994844 -0.09794311 -0.006404633 0.08905691 -0.041130904 0.29672834 0.19919398 -0.02887601
-0.3333995 0.10291264 -0.064358056 0.15219942 0.4690151 -0.13739875 0.2400028 -0.12555735
-0.2914209 -0.0077671874 0.07109474 -0.047188092 0.15509243 -0.100738585 0.08033687 0.2972521
0.19635308 -0.105218396 -0.045205977 -0.1546541 0.15613417 0.12678127 0.020482881 0.017701764
0.080776356 0.29367432 0.10214294 0.07410788 -0.035851505 -0.13035637 0.31491753 0.06882789
-0.09832331 0.16155943 -0.0011431897 0.1035297 -0.11386828 0.117102735 0.16625482 0.16297854
0.1248691 0.0047098026 0.17312068 0.19331154 -0.049513992 0.03732956 -0.10918996 0.15191352
-0.12128624 0.093628965 0.03548593 0.039245605 0.18964301 0.057228234 -0.07492213 -0.0039036255
0.16601227 0.05047417 0.07049939 0.110446826 -0.04918426 -0.0032620663 -0.0076157157 0.28292522
